tutorial/model.pth (torch, 338410 bytes, 20 tensors)

q f4 [100, 1]
00000000: 7ea9 ddbd e918 6cbe d2e1 543c e6ba da3c
00000010: 71bc 8fbc 079c 4dbd 622a 4d3e 7d65 0dbe
00000020: e1fb 043e 355b 25be ad4a 8fbe 322e 223d
00000030: 658c 6abe 9fdb 99be dbe6 d23d 3935 103e
00000040: d3ed 723d 3c7d 563e 54ac 87bd 0dae 943e
00000050: 7605 b33d a2be 593e 95c9 eebd daa8 b13d
00000060: 918d 22be 938d 3abd 0906 a1bc 6f98 8abe
00000070: 457e 30bd f0c1 8d3e a9f1 d53d ea44 b6bd
00000080: 729c 5fbe 1219 173e 5d88 473e f2da 783e
00000090: 7b82 79be d45d 7fbe 0e59 c2bd 6177 d93d
000000a0: f601 2abe 471a 18be b6d4 6dbd 15e3 a9bd
000000b0: ee63 c2bd 0020 5dbe 1efc d3bd f807 333e
000000c0: 2ed9 2e3e a14f 11ba 5da2 233e f395 ea3c
000000d0: 2aa6 c5bc fed3 1abe 65dd 013c 18cb 96bc
000000e0: 9893 793d 1a18 d63d b7a3 2d3e d28f b1bc
000000f0: 6905 14bd c94a 98bd 6636 72be 1e37 ad3d
00000100: 3fb7 d03d f866 dc3d f95a a3bd 7457 27be
00000110: 333c a93d d573 363e c1fc 283d a21e 28be
00000120: 66e9 423e 8365 cfbd b0e0 623e a450 e6bd
00000130: 0534 733c 8e1a 4c3d a6a6 b8bc c8f9 f73d
00000140: bf70 71be 6948 bd3d c169 243e 7f92 89bd
00000150: 1ec3 223e 8b55 2cbe 474f 4bbe dd29 4abe
00000160: 7135 433e 2a27 38be db80 4abe aed7 803e
00000170: 2ed5 8d3e a693 25bd 4f9b 02bc 1387 7bbe
00000180: e477 773d 57de 983e ff27 5d3e c364 47be
-0.10823344 -0.23056377 0.012993293 0.026700448 -0.01754591 -0.050197627 0.20035699 -0.13808246
0.12986709 -0.16148074 -0.2798666 0.039594837 -0.22905119 -0.3005037 0.102979384 0.14082803
0.059308838 0.2094621 -0.06624666 0.2903904 0.08741276 0.21264127 -0.116595425 0.08674784
-0.15874316 -0.045545172 -0.019656198 -0.27069423 -0.04308917 0.27687025 0.10446484 -0.08899863
-0.21837023 0.14755657 0.19485612 0.24302271 -0.2436618 -0.24938136 -0.09489642 0.10618473
-0.1660231 -0.14853774 -0.058064185 -0.082952656 -0.09491716 -0.21594238 -0.10350822 0.17483509
0.17075035 -0.00055431767 0.15979905 0.028635954 -0.024127085 -0.15119931 0.00792632 -0.01840739
0.060931772 0.10453816 0.16956984 -0.021675024 -0.036137972 -0.07436139 -0.23653564 0.084577784
0.101912014 0.10761827 -0.07976336 -0.16341954 0.08263435 0.17817624 0.04125667 -0.16417935
0.19034347 -0.10126784 0.22156024 -0.1124585 0.014843945 0.049830012 -0.022540402 0.12108189
-0.23578165 0.09242327 0.16055967 -0.06717395 0.15894744 -0.16829507 -0.1985446 -0.19742532
0.19063355 -0.1798369 -0.19775717 0.2516455 0.27701706 -0.04042401 -0.007971599 -0.24563245
0.06041707 0.29857132 0.21597289 -0.19472031

k f4 [100, 1]
00000000: dfd5 20be 54ee aebd 0e59 49bd 72e4 ecbd
00000010: a752 373b 42ad b93d e20e b83d 8e3b f5bc
00000020: 3abf 09bc 7535 43be bb85 09be cf3b ae3d
00000030: 6549 b13d 1fc2 953d 4fcc c73d 19fc 4b3e
00000040: a26d bfbb a7e7 f3bc ac35 383e 2b56 2cbe
00000050: a3ca 57bd d5a2 e2bd 83d2 09be b7c0 b3bc
00000060: 77d8 02bd b9ee d4bc 3eda 163d ad29 7cbc
00000070: e235 683d e1f9 3e3d 6d7a 893d b97e 573e
00000080: 2b9e 083e 54f8 11be da20 96bc 4c6e 2cbd
00000090: 5591 7c3d a4ef 0a3e 0c30 b4bc 2ac4 47bd
000000a0: 6c63 02be 56be 543e a0cc 84bd 1c0c ba3d
000000b0: 19dc 843d b2e3 843d faab 9bbd 87b4 32bd
000000c0: 9323 5e3d 7977 8bbb 56d1 c6bd a606 2bbe
000000d0: ad16 0d3e 5722 e5bd 9ffd 333e d30d 17bd
000000e0: 4d98 183e e586 3ebe 6b6d a2bd 45e8 05bd
000000f0: ef21 c53c 3225 12be 692c 993d ad36 c33c
00000100: ccf2 653d 07ef d83c 1e47 3b3e 58e1 09be
00000110: 2e59 bc3d a2a4 963d 39cb a33d 19c0 38bd
00000120: 6579 1d3e d1f3 ddbd 3f60 203e f91d 2ebd
00000130: 7f4b 43be 8cc9 16bd 528f 42be 801b 4a3e
00000140: 9711 17bd 104a 89bd e8a4 3e3e 7474 a3bd
00000150: af56 2ebc a768 003e 27c3 a63d 8581 3e3d
00000160: 8593 8b3d 5cfb bf3d 0f3a 92bd 8823 863c
00000170: 6d9e 07be 2977 5abe ff7a c0bd 1635 60be
00000180: c101 95bd a954 42be 1a71 5b3e 268f b8bc
-0.15706585 -0.08541551 -0.049157195 -0.1156701 0.0027972849 0.090662494 0.08987214 -0.029935624
-0.008407408 -0.19063361 -0.1342992 0.08507501 0.08656577 0.07312416 0.09755766 0.19920386
-0.0058419267 -0.029773546 0.17989224 -0.16829745 -0.052683484 -0.11066214 -0.1345921 -0.02194248
-0.03194472 -0.025992738 0.036829226 -0.015390796 0.05669201 0.04662502 0.06712804 0.21044435
0.13341586 -0.14254886 -0.018326212 -0.042097375 0.061662037 0.13567978 -0.021995567 -0.04877106
-0.12733239 0.20775732 -0.064843416 0.09084341 0.06487293 0.06488742 -0.07601161 -0.043629196
0.054233145 -0.0042561856 -0.097078964 -0.16701755 0.13778181 -0.111881904 0.17577218 -0.03687842
0.14901848 -0.18606146 -0.07931026 -0.032692213 0.024064032 -0.14272001 0.07479174 0.023829782
0.056139752 0.026481165 0.18288848 -0.13464868 0.09196697 0.0735562 0.07997746 -0.045105074
0.1537834 -0.1083752 0.15661715 -0.042509053 -0.19071768 -0.036813304 -0.18999985 0.19737053
-0.03688201 -0.067035794 0.18617594 -0.07981196 -0.010640784 0.12539922 0.08142691 0.04651024
0.068152465 0.09374115 -0.0713998 0.016374364 -0.13244028 -0.21334518 -0.0939846 -0.2189525
-0.07275725 -0.18977608 0.21429864 -0.022529196

weight f4 [2, 200, 100]
00000000: 2ffe 90bd dffe 1c3d 74c0 d2bd fad0 a0be
00000010: eaeb e2bd 227f 14bc 883b 773d 6dd6 d53d
00000020: 5285 31bd 3e1c a23c 5163 d6bd 27b3 41bd
00000030: ca38 88bd 3b17 19be 8152 bdbc 5d24 87bc
00000040: 4e62 31bd 712a 023e e857 4fbd fd73 bbbc
00000050: ae7e 933c 29e3 e03d ac66 65be bbbe 5a3e
00000060: e89e 86bd b31c 173d 1982 063e 159e d5bd
00000070: f539 babb ea83 c03c 5e54 0ebe 4f7b 1c3e
00000080: e48d 55be b034 a7bd d56c 87bd 2dee 82bd
00000090: dcaf 08be dc49 953d 85d3 943d ca1e 5e3d
000000a0: 342d 5ebd aba7 9dbd 00d5 983d f56f 03be
000000b0: bc29 b1bc 28dd 81bd 0c4a 3f3d 548d 243e
000000c0: 639c 9bbd 514f 42bc 4af8 173e d2af 553e
000000d0: 562c e43c 57f1 91bd c3b4 403e 3194 5fbe
000000e0: ad9a 843d eb5a 0ebd 9712 e4bd 7327 88bc
000000f0: 4b50 c03d 45b8 a03c f426 4cbe 7710 bf3d
00000100: ddcb 283d bc6a b4bc 786a 0e3d 6eb1 b93d
00000110: 7b5e 203e 9143 243e 9931 08be 799c 0cbe
00000120: df90 033e bf83 8e3d 12f9 bf3d 5c57 033e
00000130: 8819 563d 88dc 09be 7b78 50bd 805e 02bd
00000140: 3336 3abe 31bf 853d a149 0f3e d59f 47be
00000150: dad0 543c 0faa 4b3d 0909 b9bd 178b 68bd
00000160: 29ce fb3d 49d2 91bd 3252 483d d005 333e
00000170: ac54 0e3e 4e5e 39bc 2a43 36be e228 19be
00000180: 555c eb3d 2937 c93d eb33 8cbd ee4a 36bc
00000190: fdb2 3d3e 2195 3e3e b06e 673d ef03 2cbd
000001a0: 050d 38be b4dd e2bb f307 edbd 1821 80bd
000001b0: b5e9 9d3d 5b35 dc3d a3f8 c93b 95fc 983d
000001c0: 91b8 3abd fe4d 873e ea02 ef3d ac63 30be
000001d0: 2d25 e93a 5a43 00bc 9d40 55bc aeb0 80bc
000001e0: 0f93 7e3d c947 f8bb b98b 02bd 31a6 4f3c
000001f0: aa65 a6bd 20e7 183d b5ba 143d 7537 fbbd
00000200: 6301 01bd f47d 81be 46e2 afbd 29c6 7abd
00000210: aeca e2bd 44d0 cc3d 89f2 88bd 72b3 9ebd
00000220: 5045 583d 0d2c 7cbb 52b1 c93d c9d8 3f3e
00000230: b40c 483e 9a9f bf3d d9f7 543e 3faf 0abd
00000240: 6715 bebd abce 153d 6b02 433e 8f1f 003d
00000250: 935d e9bc cbb3 09be db43 64be 01c4 25be
00000260: 0c2a 81bd 63db d73d bb55 263d 5cca afbd
00000270: fc32 0b3e 796b 44bd 2cf8 12be cd37 c6bd
00000280: 765b babc 33d5 ba3d e7f7 c0bd 4c31 11be
00000290: d153 cabc 0839 bb3b e7c0 f4bd 599c fc3c
000002a0: 9cdb 00be abbd 04bd 1fa4 c03d 8d63 963c
000002b0: bbf3 933c a087 0b3e 9ec5 c4bd e69c 823d
000002c0: 27d1 11bd bf86 4bbb 79aa 453e c170 c5bd
000002d0: 37c0 653d 8b8d 7ebd 1975 bd3d 7248 9d3d
000002e0: caa0 b53d 84b7 193d 01fa 7b3d a3e4 653d
000002f0: 881a 0fbe fe75 253e 0b19 233e 4a24 7c3c
00000300: 2561 febd 8908 693d a7b7 47bd b7e7 6e3d
00000310: 2dc7 0fbe dd1e 0a3c ae02 15be 047a cd3d
00000320: 53cb 30bd aad8 f93a eefc 6abe 5da2 d8bd
00000330: e430 8bbd 1993 d73d 3092 883c 2cd2 9c3d
00000340: a78d 383d e0a9 9dbd 1860 90bd d50c 85bc
00000350: b415 64bd df87 7cbe 6ea1 0e3d b45f a23d
00000360: 9ca4 ddbd 781c 3abc 70cb 013e ca06 50bd
00000370: 9494 75bd 2834 7a3e 342b febb 1448 073d
00000380: 2f3c 29be 2e18 5bbd 4b3b 0bbe 1a5a ebba
00000390: ac54 afbd 95e7 0c3e 38a0 213d 9d95 2a3e
000003a0: 0611 48bd 9849 823d cd72 773e b970 743d
000003b0: 6287 4dbd a5d2 2abe 7934 18be 30b0 27bd
000003c0: 0345 82bc b7bb 9a3d 7b6e f9bd b5c3 7c3d
000003d0: 92bd 6b3c d7ad 81be 531f a23c 444d e3bd
000003e0: fde7 243b 7bd4 e63b a25f 273d 5534 3e3d
000003f0: 7c83 293e 4724 cfbd 878b a3bc 3e04 c2bd
-0.07079732 0.038329 -0.10290614 -0.31409436 -0.11080153 -0.009063514 0.060359508 0.10441289
-0.043340035 0.019788858 -0.10468162 -0.047289994 -0.06651457 -0.14950268 -0.02311063 -0.016496832
-0.04330664 0.12711503 -0.050620943 -0.022882456 0.018004742 0.10980827 -0.22402447 0.2136182
-0.06573278 0.036892604 0.13135566 -0.104305424 -0.0056831785 0.023500402 -0.13899371 0.15281413
-0.20854908 -0.08164346 -0.06612555 -0.06393085 -0.13348335 0.07289478 0.07266907 0.05422858
-0.054242328 -0.07697996 0.074625015 -0.12835677 -0.021626346 -0.0634101 0.046701476 0.16069537
-0.07598188 -0.011859731 0.14840809 0.20867851 0.027853172 -0.0712611 0.18818955 -0.21833874
0.064748146 -0.034754675 -0.11136358 -0.016620373 0.09390315 0.019619117 -0.19936734 0.09329312
0.041210044 -0.022023551 0.034769505 0.09067045 0.15661041 0.160414 -0.1330017 -0.13731565
0.12848233 0.06958722 0.09373678 0.12826294 0.052270442 -0.13463032 -0.05089615 -0.031828403
-0.18184738 0.065306075 0.13992931 -0.19494565 0.012989247 0.049722727 -0.090349264 -0.05677327
0.12295181 -0.07120187 0.048906513 0.17482686 0.13899487 -0.011313988 -0.17799059 -0.14957002
0.1149222 0.09824974 -0.0684584 -0.011126263 0.1852531 0.18611576 0.056502044 -0.04199594
-0.17973717 -0.0069234017 -0.11573782 -0.06256312 0.07710592 0.10752364 0.006163673 0.07470051
-0.045586172 0.2642669 0.11670478 -0.17225522 0.0017787569 -0.007828558 -0.013015893 -0.015709247
0.062151965 -0.007576917 -0.03187153 0.0126739 -0.0812486 0.037329793 0.03631087 -0.12266437
-0.031495463 -0.25291407 -0.0858808 -0.061224137 -0.11073814 0.10000661 -0.06686885 -0.0774907
0.052800477 -0.0038478405 0.09848274 0.1873504 0.19536096 0.093566135 0.20797671 -0.033858534
-0.09281426 0.036574047 0.19043891 0.031280097 -0.028487002 -0.13447492 -0.2229151 -0.16188051
-0.06306848 0.105398916 0.040609103 -0.08583519 0.13593668 -0.047954056 -0.14352483 -0.09678612
-0.02274869 0.09122696 -0.094222836 -0.14178962 -0.02469817 0.0057135858 -0.11950856 0.030836271
-0.12583774 -0.032407444 0.094063036 0.018358016 0.018060556 0.13625956 -0.09608005 0.06377582
-0.035599854 -0.0031055657 0.19303311 -0.09640647 0.056091513 -0.062146705 0.0925085 0.076798335
0.08868559 0.03752853 0.06151772 0.056126248 -0.13974965 0.16158292 0.15927522 0.015389511
-0.124208726 0.056892905 -0.04875913 0.05832645 -0.14040823 0.00843021 -0.14551803 0.10033038
-0.043162655 0.0019061763 -0.22948048 -0.10577843 -0.067964345 0.105261035 0.01667127 0.076572746
0.045056965 -0.07698417 -0.070495784 -0.01624147 -0.05568476 -0.24661206 0.03482192 0.0792841
-0.10822412 -0.011359327 0.12675261 -0.050787725 -0.05995615 0.24433959 -0.007756615 0.033027723
-0.16526864 -0.053489856 -0.13596837 -0.001795593 -0.08561072 0.13760217 0.039459437 0.16658635
-0.04884436 0.06361693 0.24164887 0.059677813 -0.05017794 -0.16681917 -0.14863767 -0.04093951
-0.015902048 0.07555335 -0.121792756 0.06171008 0.014388459 -0.25327942 0.019790327 -0.110987216
0.002516269 0.0070443726 0.040862687 0.046436626 0.16554064 -0.10114341 -0.019963993 -0.094734654

w f4 [100]
00000000: 0000 803f 0000 803f 0000 803f 0000 803f
00000010: 0000 803f 0000 803f 0000 803f 0000 803f
00000020: 0000 803f 0000 803f 0000 803f 0000 803f
00000030: 0000 803f 0000 803f 0000 803f 0000 803f
00000040: 0000 803f 0000 803f 0000 803f 0000 803f
00000050: 0000 803f 0000 803f 0000 803f 0000 803f
00000060: 0000 803f 0000 803f 0000 803f 0000 803f
00000070: 0000 803f 0000 803f 0000 803f 0000 803f
00000080: 0000 803f 0000 803f 0000 803f 0000 803f
00000090: 0000 803f 0000 803f 0000 803f 0000 803f
000000a0: 0000 803f 0000 803f 0000 803f 0000 803f
000000b0: 0000 803f 0000 803f 0000 803f 0000 803f
000000c0: 0000 803f 0000 803f 0000 803f 0000 803f
000000d0: 0000 803f 0000 803f 0000 803f 0000 803f
000000e0: 0000 803f 0000 803f 0000 803f 0000 803f
000000f0: 0000 803f 0000 803f 0000 803f 0000 803f
00000100: 0000 803f 0000 803f 0000 803f 0000 803f
00000110: 0000 803f 0000 803f 0000 803f 0000 803f
00000120: 0000 803f 0000 803f 0000 803f 0000 803f
00000130: 0000 803f 0000 803f 0000 803f 0000 803f
00000140: 0000 803f 0000 803f 0000 803f 0000 803f
00000150: 0000 803f 0000 803f 0000 803f 0000 803f
00000160: 0000 803f 0000 803f 0000 803f 0000 803f
00000170: 0000 803f 0000 803f 0000 803f 0000 803f
00000180: 0000 803f 0000 803f 0000 803f 0000 803f
1.0 1.0 1.0 1.0 1.0 1.0 1.0 1.0
1.0 1.0 1.0 1.0 1.0 1.0 1.0 1.0
1.0 1.0 1.0 1.0 1.0 1.0 1.0 1.0
1.0 1.0 1.0 1.0 1.0 1.0 1.0 1.0
1.0 1.0 1.0 1.0 1.0 1.0 1.0 1.0
1.0 1.0 1.0 1.0 1.0 1.0 1.0 1.0
1.0 1.0 1.0 1.0 1.0 1.0 1.0 1.0
1.0 1.0 1.0 1.0 1.0 1.0 1.0 1.0
1.0 1.0 1.0 1.0 1.0 1.0 1.0 1.0
1.0 1.0 1.0 1.0 1.0 1.0 1.0 1.0
1.0 1.0 1.0 1.0 1.0 1.0 1.0 1.0
1.0 1.0 1.0 1.0 1.0 1.0 1.0 1.0
1.0 1.0 1.0 1.0

l1 f4 [1, 100]
00000000: 0000 803f 0000 803f 0000 803f 0000 803f
00000010: 0000 803f 0000 803f 0000 803f 0000 803f
00000020: 0000 803f 0000 803f 0000 803f 0000 803f
00000030: 0000 803f 0000 803f 0000 803f 0000 803f
00000040: 0000 803f 0000 803f 0000 803f 0000 803f
00000050: 0000 803f 0000 803f 0000 803f 0000 803f
00000060: 0000 803f 0000 803f 0000 803f 0000 803f
00000070: 0000 803f 0000 803f 0000 803f 0000 803f
00000080: 0000 803f 0000 803f 0000 803f 0000 803f
00000090: 0000 803f 0000 803f 0000 803f 0000 803f
000000a0: 0000 803f 0000 803f 0000 803f 0000 803f
000000b0: 0000 803f 0000 803f 0000 803f 0000 803f
000000c0: 0000 803f 0000 803f 0000 803f 0000 803f
000000d0: 0000 803f 0000 803f 0000 803f 0000 803f
000000e0: 0000 803f 0000 803f 0000 803f 0000 803f
000000f0: 0000 803f 0000 803f 0000 803f 0000 803f
00000100: 0000 803f 0000 803f 0000 803f 0000 803f
00000110: 0000 803f 0000 803f 0000 803f 0000 803f
00000120: 0000 803f 0000 803f 0000 803f 0000 803f
00000130: 0000 803f 0000 803f 0000 803f 0000 803f
00000140: 0000 803f 0000 803f 0000 803f 0000 803f
00000150: 0000 803f 0000 803f 0000 803f 0000 803f
00000160: 0000 803f 0000 803f 0000 803f 0000 803f
00000170: 0000 803f 0000 803f 0000 803f 0000 803f
00000180: 0000 803f 0000 803f 0000 803f 0000 803f
1.0 1.0 1.0 1.0 1.0 1.0 1.0 1.0
1.0 1.0 1.0 1.0 1.0 1.0 1.0 1.0
1.0 1.0 1.0 1.0 1.0 1.0 1.0 1.0
1.0 1.0 1.0 1.0 1.0 1.0 1.0 1.0
1.0 1.0 1.0 1.0 1.0 1.0 1.0 1.0
1.0 1.0 1.0 1.0 1.0 1.0 1.0 1.0
1.0 1.0 1.0 1.0 1.0 1.0 1.0 1.0
1.0 1.0 1.0 1.0 1.0 1.0 1.0 1.0
1.0 1.0 1.0 1.0 1.0 1.0 1.0 1.0
1.0 1.0 1.0 1.0 1.0 1.0 1.0 1.0
1.0 1.0 1.0 1.0 1.0 1.0 1.0 1.0
1.0 1.0 1.0 1.0 1.0 1.0 1.0 1.0
1.0 1.0 1.0 1.0

b1 f4 [1, 100]
00000000: 0000 0000 0000 0000 0000 0000 0000 0000
00000010: 0000 0000 0000 0000 0000 0000 0000 0000
00000020: 0000 0000 0000 0000 0000 0000 0000 0000
00000030: 0000 0000 0000 0000 0000 0000 0000 0000
00000040: 0000 0000 0000 0000 0000 0000 0000 0000
00000050: 0000 0000 0000 0000 0000 0000 0000 0000
00000060: 0000 0000 0000 0000 0000 0000 0000 0000
00000070: 0000 0000 0000 0000 0000 0000 0000 0000
00000080: 0000 0000 0000 0000 0000 0000 0000 0000
00000090: 0000 0000 0000 0000 0000 0000 0000 0000
000000a0: 0000 0000 0000 0000 0000 0000 0000 0000
000000b0: 0000 0000 0000 0000 0000 0000 0000 0000
000000c0: 0000 0000 0000 0000 0000 0000 0000 0000
000000d0: 0000 0000 0000 0000 0000 0000 0000 0000
000000e0: 0000 0000 0000 0000 0000 0000 0000 0000
000000f0: 0000 0000 0000 0000 0000 0000 0000 0000
00000100: 0000 0000 0000 0000 0000 0000 0000 0000
00000110: 0000 0000 0000 0000 0000 0000 0000 0000
00000120: 0000 0000 0000 0000 0000 0000 0000 0000
00000130: 0000 0000 0000 0000 0000 0000 0000 0000
00000140: 0000 0000 0000 0000 0000 0000 0000 0000
00000150: 0000 0000 0000 0000 0000 0000 0000 0000
00000160: 0000 0000 0000 0000 0000 0000 0000 0000
00000170: 0000 0000 0000 0000 0000 0000 0000 0000
00000180: 0000 0000 0000 0000 0000 0000 0000 0000
0.0 0.0 0.0 0.0 0.0 0.0 0.0 0.0
0.0 0.0 0.0 0.0 0.0 0.0 0.0 0.0
0.0 0.0 0.0 0.0 0.0 0.0 0.0 0.0
0.0 0.0 0.0 0.0 0.0 0.0 0.0 0.0
0.0 0.0 0.0 0.0 0.0 0.0 0.0 0.0
0.0 0.0 0.0 0.0 0.0 0.0 0.0 0.0
0.0 0.0 0.0 0.0 0.0 0.0 0.0 0.0
0.0 0.0 0.0 0.0 0.0 0.0 0.0 0.0
0.0 0.0 0.0 0.0 0.0 0.0 0.0 0.0
0.0 0.0 0.0 0.0 0.0 0.0 0.0 0.0
0.0 0.0 0.0 0.0 0.0 0.0 0.0 0.0
0.0 0.0 0.0 0.0 0.0 0.0 0.0 0.0
0.0 0.0 0.0 0.0

l2 f4 [100, 100]
00000000: 5074 9f24 2c7f 0000 d09f 6b0f d955 0000
00000010: c0f8 d80d d955 0000 d09f 6b0f d955 0000
00000020: 0400 0000 0000 0000 0500 0000 0000 0000
00000030: 0600 0000 0000 0000 0700 0000 0000 0000
00000040: 0800 0000 0000 0000 0900 0000 0000 0000
00000050: 0a00 0000 0000 0000 0b00 0000 0000 0000
00000060: 0c00 0000 0000 0000 0d00 0000 0000 0000
00000070: 0e00 0000 0000 0000 0f00 0000 0000 0000
00000080: 1000 0000 0000 0000 1100 0000 0000 0000
00000090: 1200 0000 0000 0000 1300 0000 0000 0000
000000a0: 1400 0000 0000 0000 1500 0000 0000 0000
000000b0: 1600 0000 0000 0000 1700 0000 0000 0000
000000c0: 1800 0000 0000 0000 1900 0000 0000 0000
000000d0: 1a00 0000 0000 0000 1b00 0000 0000 0000
000000e0: 1c00 0000 0000 0000 1d00 0000 0000 0000
000000f0: 1e00 0000 0000 0000 1f00 0000 0000 0000
00000100: 2000 0000 0000 0000 2100 0000 0000 0000
00000110: 2200 0000 0000 0000 2300 0000 0000 0000
00000120: 2400 0000 0000 0000 2500 0000 0000 0000
00000130: 2600 0000 0000 0000 2700 0000 0000 0000
00000140: 2800 0000 0000 0000 2900 0000 0000 0000
00000150: 2a00 0000 0000 0000 2b00 0000 0000 0000
00000160: 2c00 0000 0000 0000 2d00 0000 0000 0000
00000170: 2e00 0000 0000 0000 2f00 0000 0000 0000
00000180: 3000 0000 0000 0000 3100 0000 0000 0000
00000190: 3200 0000 0000 0000 3300 0000 0000 0000
000001a0: 3400 0000 0000 0000 3500 0000 0000 0000
000001b0: 3600 0000 0000 0000 3700 0000 0000 0000
000001c0: 3800 0000 0000 0000 3900 0000 0000 0000
000001d0: 3a00 0000 0000 0000 3b00 0000 0000 0000
000001e0: 3c00 0000 0000 0000 3d00 0000 0000 0000
000001f0: 3e00 0000 0000 0000 3f00 0000 0000 0000
00000200: 4000 0000 0000 0000 4100 0000 0000 0000
00000210: 4200 0000 0000 0000 4300 0000 0000 0000
00000220: 4400 0000 0000 0000 4500 0000 0000 0000
00000230: 4600 0000 0000 0000 4700 0000 0000 0000
00000240: 4800 0000 0000 0000 4900 0000 0000 0000
00000250: 4a00 0000 0000 0000 4b00 0000 0000 0000
00000260: 4c00 0000 0000 0000 4d00 0000 0000 0000
00000270: 4e00 0000 0000 0000 4f00 0000 0000 0000
00000280: 5000 0000 0000 0000 5100 0000 0000 0000
00000290: 5200 0000 0000 0000 5300 0000 0000 0000
000002a0: 5400 0000 0000 0000 5500 0000 0000 0000
000002b0: 5600 0000 0000 0000 5700 0000 0000 0000
000002c0: 5800 0000 0000 0000 5900 0000 0000 0000
000002d0: 5a00 0000 0000 0000 5b00 0000 0000 0000
000002e0: 5c00 0000 0000 0000 5d00 0000 0000 0000
000002f0: 5e00 0000 0000 0000 5f00 0000 0000 0000
00000300: 6000 0000 0000 0000 6100 0000 0000 0000
00000310: 6200 0000 0000 0000 6300 0000 0000 0000
00000320: 6400 0000 0000 0000 6500 0000 0000 0000
00000330: 6600 0000 0000 0000 6700 0000 0000 0000
00000340: 6800 0000 0000 0000 6900 0000 0000 0000
00000350: 6a00 0000 0000 0000 6b00 0000 0000 0000
00000360: 6c00 0000 0000 0000 6d00 0000 0000 0000
00000370: 6e00 0000 0000 0000 6f00 0000 0000 0000
00000380: 7000 0000 0000 0000 7100 0000 0000 0000
00000390: 7200 0000 0000 0000 7300 0000 0000 0000
000003a0: 7400 0000 0000 0000 7500 0000 0000 0000
000003b0: 7600 0000 0000 0000 7700 0000 0000 0000
000003c0: 7800 0000 0000 0000 7900 0000 0000 0000
000003d0: 7a00 0000 0000 0000 7b00 0000 0000 0000
000003e0: 7c00 0000 0000 0000 7d00 0000 0000 0000
000003f0: 7e00 0000 0000 0000 7f00 0000 0000 0000
6.91523e-17 4.562e-41 1.1617173e-29 3.0796e-41 1.3371912e-30 3.0796e-41 1.1617173e-29 3.0796e-41
6e-45 0.0 7e-45 0.0 8e-45 0.0 1e-44 0.0
1.1e-44 0.0 1.3e-44 0.0 1.4e-44 0.0 1.5e-44 0.0
1.7e-44 0.0 1.8e-44 0.0 2e-44 0.0 2.1e-44 0.0
2.2e-44 0.0 2.4e-44 0.0 2.5e-44 0.0 2.7e-44 0.0
2.8e-44 0.0 3e-44 0.0 3.1e-44 0.0 3.2e-44 0.0
3.4e-44 0.0 3.5e-44 0.0 3.6e-44 0.0 3.8e-44 0.0
3.9e-44 0.0 4e-44 0.0 4.2e-44 0.0 4.3e-44 0.0
4.5e-44 0.0 4.6e-44 0.0 4.8e-44 0.0 4.9e-44 0.0
5e-44 0.0 5.2e-44 0.0 5.3e-44 0.0 5.5e-44 0.0
5.6e-44 0.0 5.7e-44 0.0 5.9e-44 0.0 6e-44 0.0
6.2e-44 0.0 6.3e-44 0.0 6.4e-44 0.0 6.6e-44 0.0
6.7e-44 0.0 6.9e-44 0.0 7e-44 0.0 7.1e-44 0.0
7.3e-44 0.0 7.4e-44 0.0 7.6e-44 0.0 7.7e-44 0.0
7.8e-44 0.0 8e-44 0.0 8.1e-44 0.0 8.3e-44 0.0
8.4e-44 0.0 8.5e-44 0.0 8.7e-44 0.0 8.8e-44 0.0
9e-44 0.0 9.1e-44 0.0 9.2e-44 0.0 9.4e-44 0.0
9.5e-44 0.0 9.7e-44 0.0 9.8e-44 0.0 1e-43 0.0
1.01e-43 0.0 1.02e-43 0.0 1.04e-43 0.0 1.05e-43 0.0
1.06e-43 0.0 1.08e-43 0.0 1.1e-43 0.0 1.11e-43 0.0
1.12e-43 0.0 1.14e-43 0.0 1.15e-43 0.0 1.16e-43 0.0
1.18e-43 0.0 1.19e-43 0.0 1.2e-43 0.0 1.22e-43 0.0
1.23e-43 0.0 1.25e-43 0.0 1.26e-43 0.0 1.28e-43 0.0
1.29e-43 0.0 1.3e-43 0.0 1.32e-43 0.0 1.33e-43 0.0
1.35e-43 0.0 1.36e-43 0.0 1.37e-43 0.0 1.39e-43 0.0
1.4e-43 0.0 1.42e-43 0.0 1.43e-43 0.0 1.44e-43 0.0
1.46e-43 0.0 1.47e-43 0.0 1.49e-43 0.0 1.5e-43 0.0
1.51e-43 0.0 1.53e-43 0.0 1.54e-43 0.0 1.56e-43 0.0
1.57e-43 0.0 1.58e-43 0.0 1.6e-43 0.0 1.61e-43 0.0
1.63e-43 0.0 1.64e-43 0.0 1.65e-43 0.0 1.67e-43 0.0
1.68e-43 0.0 1.7e-43 0.0 1.71e-43 0.0 1.72e-43 0.0
1.74e-43 0.0 1.75e-43 0.0 1.77e-43 0.0 1.78e-43 0.0

b2 f4 [1, 100]
00000000: 0000 0000 0000 0000 0000 0000 0000 0000
00000010: 0000 0000 0000 0000 0000 0000 0000 0000
00000020: 0000 0000 0000 0000 0000 0000 0000 0000
00000030: 0000 0000 0000 0000 0000 0000 0000 0000
00000040: 0000 0000 0000 0000 0000 0000 0000 0000
00000050: 0000 0000 0000 0000 0000 0000 0000 0000
00000060: 0000 0000 0000 0000 0000 0000 0000 0000
00000070: 0000 0000 0000 0000 0000 0000 0000 0000
00000080: 0000 0000 0000 0000 0000 0000 0000 0000
00000090: 0000 0000 0000 0000 0000 0000 0000 0000
000000a0: 0000 0000 0000 0000 0000 0000 0000 0000
000000b0: 0000 0000 0000 0000 0000 0000 0000 0000
000000c0: 0000 0000 0000 0000 0000 0000 0000 0000
000000d0: 0000 0000 0000 0000 0000 0000 0000 0000
000000e0: 0000 0000 0000 0000 0000 0000 0000 0000
000000f0: 0000 0000 0000 0000 0000 0000 0000 0000
00000100: 0000 0000 0000 0000 0000 0000 0000 0000
00000110: 0000 0000 0000 0000 0000 0000 0000 0000
00000120: 0000 0000 0000 0000 0000 0000 0000 0000
00000130: 0000 0000 0000 0000 0000 0000 0000 0000
00000140: 0000 0000 0000 0000 0000 0000 0000 0000
00000150: 0000 0000 0000 0000 0000 0000 0000 0000
00000160: 0000 0000 0000 0000 0000 0000 0000 0000
00000170: 0000 0000 0000 0000 0000 0000 0000 0000
00000180: 0000 0000 0000 0000 0000 0000 0000 0000
0.0 0.0 0.0 0.0 0.0 0.0 0.0 0.0
0.0 0.0 0.0 0.0 0.0 0.0 0.0 0.0
0.0 0.0 0.0 0.0 0.0 0.0 0.0 0.0
0.0 0.0 0.0 0.0 0.0 0.0 0.0 0.0
0.0 0.0 0.0 0.0 0.0 0.0 0.0 0.0
0.0 0.0 0.0 0.0 0.0 0.0 0.0 0.0
0.0 0.0 0.0 0.0 0.0 0.0 0.0 0.0
0.0 0.0 0.0 0.0 0.0 0.0 0.0 0.0
0.0 0.0 0.0 0.0 0.0 0.0 0.0 0.0
0.0 0.0 0.0 0.0 0.0 0.0 0.0 0.0
0.0 0.0 0.0 0.0 0.0 0.0 0.0 0.0
0.0 0.0 0.0 0.0 0.0 0.0 0.0 0.0
0.0 0.0 0.0 0.0

q f4 [32, 1]
00000000: d58e be3e cd8a 35bd 832e f33d d6a3 c5bd
00000010: 85b0 24be 63ba e03e 0000 b33d 9139 b13e
00000020: 423d e0bb 7776 8abe 0d96 80be 2032 fc3c
00000030: 73b2 8fbe 39d6 3dbe ae2b 2abc 87c5 3ebe
00000040: 0591 8b3e b698 fdbd 9b31 0e3e eb5b a73e
00000050: d69d a33d 22fc d13d 9a56 57be 6186 243e
00000060: f3f9 b6be e40b 40be e8fd a53d 4aae eb3d
00000070: 8ada dcbd afae ba3e ccad c3bc 2c57 65be
0.37218347 -0.044321824 0.11874106 -0.0965039 -0.16082962 0.43892202 0.087402344 0.34614232
-0.00684324 -0.27043507 -0.2511448 0.03078562 -0.28065833 -0.1853875 -0.010386391 -0.18630038
0.2725908 -0.12382643 0.1388611 0.32687315 0.07989089 0.10253169 -0.2102913 0.16066886
-0.3573757 -0.18754536 0.081050694 0.115078524 -0.107838705 0.36461398 -0.023886584 -0.22396535

k f4 [32, 1]
00000000: 44a9 973d 0eba abbe 330a 86be 4f93 1f3e
00000010: 3b1a 9e3e 50dc 7c3e 41ed 443e 923d 2f3e
00000020: 59ed bbbe 52d8 b03d c0cb 95bb 5de1 9f3e
00000030: 8a78 6d3d 0988 81be 4ed3 40be 216d b8bc
00000040: c2f6 093e 9f48 b73e 62b6 77be 07d5 a7be
00000050: a5f3 a4bd ac69 253e 7123 5e3e 4468 80be
00000060: e43f 1e3d cd54 ba3c e20c 9abd 0b0c 9b3e
00000070: a4ec a2be 7ec9 94bd 8c43 633e 8fc7 17be
0.07405332 -0.33540386 -0.26179656 0.15583538 0.30879387 0.24693418 0.1923113 0.17113331
-0.3670452 0.0863501 -0.004571408 0.31226626 0.057976283 -0.252991 -0.18830606 -0.022512974
0.13473037 0.35797593 -0.24190667 -0.32779714 -0.08054284 0.16153592 0.21693207 -0.25079548
0.03863515 0.022745514 -0.075219885 0.30282626 -0.31821167 -0.07264994 0.22193736 -0.1482222

weight f4 [2, 100, 32]
00000000: 3435 1cbe 39fd 5e3e 3f6a 32be 59aa 8bbe
00000010: 24b4 eabd edf4 5fbc 8fa4 d43c 2fc6 68be
00000020: c954 563d bd43 703d 5e82 a4bc ab45 3abe
00000030: 6ea7 e4bc 317a fdbd 4605 273e 5e53 d63d
00000040: 14c6 973d a6f3 5c3d 12a4 373e 49a2 533e
00000050: add1 9f3d 18cf 6f3e 895c 093d 371d 44bd
00000060: 6d94 83bd b895 69be 082d 92bd 20b5 f9bd
00000070: dc97 0dbe a18f 23be a43c 683d 2aa8 793d
00000080: 9131 c33d 9fb1 0abe ccae 10be 3194 893c
00000090: d168 0dbe bf26 19be ed75 cebd 95b5 d4bd
000000a0: fcce 0b3e 409f a83c e93b 9b3d 8f85 ffbd
000000b0: c46e 64bd 8b05 483e 19df f53c 3d4f a4bc
000000c0: 7729 33be 2f77 f2bc f24f 40be 3880 b0bd
000000d0: 03c8 683e 75eb 333e 4b71 ff3d fe56 b53d
000000e0: 1b18 643e fd7a f1bd e5ca 99be 169d 64be
000000f0: 9ff8 4dbe e051 983e 110c a83d aab5 a4bc
00000100: f415 8cbd 18dd 0c3d fe4d 893e 6518 0fbe
00000110: 9cc4 a1bd 9dbb f13d 1085 713e 4157 af3d
00000120: 76cd 3f3d 0d9b e8bd ce38 a93d 733f 423e
00000130: 4092 733e e748 b53d e51b 713e bf6e 6a3e
00000140: ce00 2dbe 6c22 a4bd 9573 65bb 6f9f 31be
00000150: 0df2 3a3e b6ce 91be 5f9b e13d ac54 dc3d
00000160: b246 673e 2d65 29be f699 7bbd f751 153e
00000170: 8e3b 6fbd 9a4f 2dbd 9d47 2a3e 4158 79bd
00000180: a5fc c8bd 8bdc 1bbe dc02 c93c e55e a53c
00000190: 30d7 b4bd 2170 ddbd 06db 30bd 58e0 113e
000001a0: 108f 60be f077 3b3e a5aa b63d aafa 72bd
000001b0: f224 e0bd a0eb d9bd 599e 933d f1b8 1c3e
000001c0: fd74 30bd ae4f 0fbe ba24 42be 4a54 39be
000001d0: 67ec 8bbd 0250 4f3b eed3 803e d2ea 273e
000001e0: 7c01 3fbe 2b24 d1bd 1108 e1bd 8b14 71be
000001f0: b855 1d3d d47c a9bd 9201 2e3e 8e3b 53be
00000200: 41fc a0bd eae9 313b 7fd8 b8bd 9b31 0d3e
00000210: 08a0 aa3c 145e 47be c8ca 813c 303e 943d
00000220: cd23 fe3d f563 023d e76e 473e 0958 a53b
00000230: 6b6f 45be 9b68 8abd d57b 50be 9888 d53d
00000240: d27d 1d3d 2029 613c cc22 f8bc 7a37 5c3e
00000250: 0c48 d5bd 0eda 853e 2f61 4e3e d65a 11be
00000260: 9395 bc3d 5dfc 223e efec 263c d651 433e
00000270: f14d 9b3e 4070 0abe c4be 613e 6308 22bd
00000280: 8ed2 21be 7f26 bbbd 6358 49bd 1e6b 35ba
00000290: 0354 02bd f941 cabc af76 753d b598 40be
000002a0: e89f fa3d 5256 723e da58 103e e972 afbd
000002b0: c010 20be 6d69 41be ac04 803d 614c 80bd
000002c0: 4088 373e 1c05 0ebc 49e8 26be 4d7c 93bd
000002d0: 5855 d9bc e977 86be 454d 19be 96d5 b9bd
000002e0: 3f26 b93d 8f0a e9bc e0d8 2fbe ec28 433d
000002f0: 9950 f1bd ff95 2e3d 7cc1 e63d 7492 8b3c
00000300: bc7c 1a3e 6c3f 123e e0fa 693e f33d 5c3e
00000310: e671 053e 64c6 8c3d 7230 4bbd a274 553e
00000320: a948 86bd 3316 5a3e 6060 c33c 1a36 423b
00000330: d151 14bd 8dfe c8bd d366 61bd 936b 4cbc
00000340: 583c 79bc e174 643e f4f4 4ebd f178 3a3e
00000350: 401e c43d d8aa f4bd 26ec 413c 861e 9fbb
00000360: bff5 e93d 78c8 5c3e 70da 6abc cd59 babd
00000370: 4674 443d 3045 1a3e af60 773e e9e9 1b3e
00000380: 6a22 f1bc d65e 303d 419d c43d ce78 4b3e
00000390: 29ab 3c3e 3477 f3bd b1a4 56be d169 1fbe
000003a0: 8076 a73c 8e44 1dbd 9b7a 82be dacd 71be
000003b0: 5a73 a53e f69a 883c 681f 29bd 6ed8 3abe
000003c0: db9a 0d3d 699f 2a3e 4595 e5bd c67c af3d
000003d0: ae2d 653e de9f 5e3e de5d 0b3d 1668 163e
000003e0: 9bcd 38bd 5cbb 4b3e 92fb 493e 4346 0bbe
000003f0: 4b3d 1cbc 7720 383e 9989 9bbb 21a8 68be
-0.1525467 0.21776284 -0.17423342 -0.27278402 -0.1146014 -0.013669235 0.025957374 -0.22731851
0.05232695 0.05865835 -0.020081695 -0.18190639 -0.027911868 -0.12376822 0.16310605 0.1046512
0.07410827 0.0539433 0.17933682 0.20667376 0.07803664 0.23418844 0.033535514 -0.047879424
-0.06424794 -0.2281102 -0.07137495 -0.1219275 -0.13827461 -0.15972759 0.056698456 0.06095139
0.095309384 -0.1354432 -0.1412918 0.016794296 -0.13809516 -0.14956187 -0.10081086 -0.103861965
0.13653177 0.020583749 0.07579786 -0.12476646 -0.055769697 0.19533364 0.030013608 -0.020057315
-0.17496286 -0.029597847 -0.18780497 -0.08618206 0.22732548 0.17570288 0.12472781 0.08854483
0.2227482 -0.11791036 -0.3003761 -0.22325549 -0.20114373 0.29749966 0.082054265 -0.020106155
-0.06840125 0.03439054 0.26817316 -0.1397415 -0.078988284 0.118033625 0.23585916 0.08561564
0.046826802 -0.113576986 0.08262788 0.18969516 0.23786259 0.08851796 0.23545797 0.22893809
-0.16894838 -0.08014378 -0.003501152 -0.17345975 0.18256398 -0.2847802 0.11015963 0.107583374
0.22585562 -0.16542502 -0.061426125 0.14582048 -0.058406405 -0.042312242 0.16628881 -0.06087518
-0.09813813 -0.15220849 0.024537496 0.02018685 -0.08830106 -0.108124025 -0.043177627 0.14245737
-0.21929574 0.18307471 0.089192666 -0.059321083 -0.10944547 -0.10640645 0.07207937 0.15304925
-0.04308032 -0.13995239 -0.18959323 -0.1809856 -0.068321995 0.0031633382 0.2516169 0.1639817
-0.1865291 -0.102119766 -0.10987867 -0.23542993 0.038411826 -0.08275762 0.16992787 -0.20628187
-0.078606136 0.002714748 -0.09025668 0.13788454 0.020828262 -0.19469482 0.015843764 0.07238424
0.12409172 0.031833608 0.194759 0.005045895 -0.19280784 -0.06758233 -0.20359738 0.10426444
0.03845007 0.013742715 -0.03029003 0.21505538 -0.104141325 0.26142925 0.2015426 -0.14194807
0.092082165 0.15916581 0.010188325 0.19074187 0.30332902 -0.13519382 0.22045428 -0.03955878
-0.15802976 -0.09138202 -0.049156558 -0.0006920564 -0.0318184 -0.024689661 0.05992764 -0.18808253
0.12237531 0.23665741 0.14096394 -0.08566839 -0.1563139 -0.18887873 0.06250891 -0.06264568
0.17923069 -0.00866821 -0.16299547 -0.07201443 -0.026529953 -0.2626336 -0.14970882 -0.090739414
0.09040498 -0.028447418 -0.17172575 0.047646448 -0.11782951 0.042623516 0.11267373 0.017037608
0.15086645 0.14282006 0.22849607 0.21508007 0.1303173 0.068737775 -0.049606748 0.20845273
-0.065568276 0.21297531 0.023849666 0.0029634298 -0.03621084 -0.09814177 -0.0550297 -0.01247682
-0.015212141 0.22310211 -0.050526574 0.18210198 0.09576082 -0.11946648 0.011836087 -0.0048559336
0.114238255 0.21560848 -0.014334306 -0.090991594 0.04796245 0.15065455 0.24157976 0.15225948
-0.029435355 0.043059193 0.09600306 0.19870302 0.18424667 -0.118879706 -0.20961262 -0.1556771
0.020442247 -0.038395457 -0.25484166 -0.23613682 0.3231457 0.016675454 -0.041289717 -0.18246624
0.03457151 0.16662373 -0.112101115 0.085687205 0.22380707 0.21740672 0.034025066 0.14688143
-0.045117956 0.1989569 0.19724873 -0.13601021 -0.009536098 0.17981134 -0.0047466275 -0.22720386

w f4 [32]
00000000: 0000 803f 0000 803f 0000 803f 0000 803f
00000010: 0000 803f 0000 803f 0000 803f 0000 803f
00000020: 0000 803f 0000 803f 0000 803f 0000 803f
00000030: 0000 803f 0000 803f 0000 803f 0000 803f
00000040: 0000 803f 0000 803f 0000 803f 0000 803f
00000050: 0000 803f 0000 803f 0000 803f 0000 803f
00000060: 0000 803f 0000 803f 0000 803f 0000 803f
00000070: 0000 803f 0000 803f 0000 803f 0000 803f
1.0 1.0 1.0 1.0 1.0 1.0 1.0 1.0
1.0 1.0 1.0 1.0 1.0 1.0 1.0 1.0
1.0 1.0 1.0 1.0 1.0 1.0 1.0 1.0
1.0 1.0 1.0 1.0 1.0 1.0 1.0 1.0

l1 f4 [1, 32]
00000000: 0000 803f 0000 803f 0000 803f 0000 803f
00000010: 0000 803f 0000 803f 0000 803f 0000 803f
00000020: 0000 803f 0000 803f 0000 803f 0000 803f
00000030: 0000 803f 0000 803f 0000 803f 0000 803f
00000040: 0000 803f 0000 803f 0000 803f 0000 803f
00000050: 0000 803f 0000 803f 0000 803f 0000 803f
00000060: 0000 803f 0000 803f 0000 803f 0000 803f
00000070: 0000 803f 0000 803f 0000 803f 0000 803f
1.0 1.0 1.0 1.0 1.0 1.0 1.0 1.0
1.0 1.0 1.0 1.0 1.0 1.0 1.0 1.0
1.0 1.0 1.0 1.0 1.0 1.0 1.0 1.0
1.0 1.0 1.0 1.0 1.0 1.0 1.0 1.0

b1 f4 [1, 32]
00000000: 0000 0000 0000 0000 0000 0000 0000 0000
00000010: 0000 0000 0000 0000 0000 0000 0000 0000
00000020: 0000 0000 0000 0000 0000 0000 0000 0000
00000030: 0000 0000 0000 0000 0000 0000 0000 0000
00000040: 0000 0000 0000 0000 0000 0000 0000 0000
00000050: 0000 0000 0000 0000 0000 0000 0000 0000
00000060: 0000 0000 0000 0000 0000 0000 0000 0000
00000070: 0000 0000 0000 0000 0000 0000 0000 0000
0.0 0.0 0.0 0.0 0.0 0.0 0.0 0.0
0.0 0.0 0.0 0.0 0.0 0.0 0.0 0.0
0.0 0.0 0.0 0.0 0.0 0.0 0.0 0.0
0.0 0.0 0.0 0.0 0.0 0.0 0.0 0.0

l2 f4 [32, 32]
00000000: c863 45e0 d855 0000 8060 45e0 d855 0000
00000010: 5863 45e0 d855 0000 305f 45e0 d855 0000
00000020: 8060 45e0 d855 0000 a864 45e0 d855 0000
00000030: 8060 45e0 d855 0000 1060 45e0 d855 0000
00000040: 305f 45e0 d855 0000 d85f 45e0 d855 0000
00000050: a05f 45e0 d855 0000 1060 45e0 d855 0000
00000060: d061 45e0 d855 0000 f060 45e0 d855 0000
00000070: 5863 45e0 d855 0000 b062 45e0 d855 0000
00000080: 0064 45e0 d855 0000 7862 45e0 d855 0000
00000090: 4860 45e0 d855 0000 305f 45e0 d855 0000
000000a0: 305f 45e0 d855 0000 2853 45e0 d855 0000
000000b0: 6053 45e0 d855 0000 1857 45e0 d855 0000
000000c0: 984c 45e0 d855 0000 6851 45e0 d855 0000
000000d0: 6851 45e0 d855 0000 6851 45e0 d855 0000
000000e0: 6851 45e0 d855 0000 b860 45e0 d855 0000
000000f0: 5863 45e0 d855 0000 b062 45e0 d855 0000
00000100: 4062 45e0 d855 0000 6851 45e0 d855 0000
00000110: 605a 45e0 d855 0000 e85b 45e0 d855 0000
00000120: e064 45e0 d855 0000 c863 45e0 d855 0000
00000130: 2861 45e0 d855 0000 b062 45e0 d855 0000
00000140: 7862 45e0 d855 0000 7854 45e0 d855 0000
00000150: 4860 45e0 d855 0000 6061 45e0 d855 0000
00000160: 9063 45e0 d855 0000 e862 45e0 d855 0000
00000170: 0862 45e0 d855 0000 a05f 45e0 d855 0000
00000180: e064 45e0 d855 0000 6851 45e0 d855 0000
00000190: 6061 45e0 d855 0000 4062 45e0 d855 0000
000001a0: e862 45e0 d855 0000 b062 45e0 d855 0000
000001b0: 5863 45e0 d855 0000 c863 45e0 d855 0000
000001c0: 6851 45e0 d855 0000 4860 45e0 d855 0000
000001d0: 6061 45e0 d855 0000 9063 45e0 d855 0000
000001e0: e862 45e0 d855 0000 0862 45e0 d855 0000
000001f0: a05f 45e0 d855 0000 e064 45e0 d855 0000
00000200: 984c 45e0 d855 0000 6851 45e0 d855 0000
00000210: 6851 45e0 d855 0000 6851 45e0 d855 0000
00000220: 6851 45e0 d855 0000 b860 45e0 d855 0000
00000230: 5863 45e0 d855 0000 b062 45e0 d855 0000
00000240: 4062 45e0 d855 0000 6851 45e0 d855 0000
00000250: c863 45e0 d855 0000 2861 45e0 d855 0000
00000260: 5863 45e0 d855 0000 8060 45e0 d855 0000
00000270: a05f 45e0 d855 0000 4860 45e0 d855 0000
00000280: 6061 45e0 d855 0000 7862 45e0 d855 0000
00000290: f060 45e0 d855 0000 6851 45e0 d855 0000
000002a0: 6061 45e0 d855 0000 4062 45e0 d855 0000
000002b0: e862 45e0 d855 0000 b062 45e0 d855 0000
000002c0: 5863 45e0 d855 0000 c863 45e0 d855 0000
000002d0: 6851 45e0 d855 0000 c85c 45e0 d855 0000
000002e0: 2861 45e0 d855 0000 5863 45e0 d855 0000
000002f0: 8060 45e0 d855 0000 a05f 45e0 d855 0000
00000300: 4860 45e0 d855 0000 984c 45e0 d855 0000
00000310: 984c 45e0 d855 0000 6851 45e0 d855 0000
00000320: 6851 45e0 d855 0000 6851 45e0 d855 0000
00000330: 6851 45e0 d855 0000 1052 45e0 d855 0000
00000340: 6851 45e0 d855 0000 b859 45e0 d855 0000
00000350: 6061 45e0 d855 0000 5863 45e0 d855 0000
00000360: 9063 45e0 d855 0000 c863 45e0 d855 0000
00000370: 6851 45e0 d855 0000 9063 45e0 d855 0000
00000380: 8060 45e0 d855 0000 7862 45e0 d855 0000
00000390: 4860 45e0 d855 0000 6851 45e0 d855 0000
000003a0: a05f 45e0 d855 0000 6851 45e0 d855 0000
000003b0: 4860 45e0 d855 0000 0064 45e0 d855 0000
000003c0: 4062 45e0 d855 0000 4062 45e0 d855 0000
000003d0: e064 45e0 d855 0000 6851 45e0 d855 0000
000003e0: 5863 45e0 d855 0000 8060 45e0 d855 0000
000003f0: 9063 45e0 d855 0000 e862 45e0 d855 0000
-5.689373e+19 3.0795e-41 -5.6890033e+19 3.0795e-41 -5.6893235e+19 3.0795e-41 -5.6888556e+19 3.0795e-41
-5.6890033e+19 3.0795e-41 -5.6894713e+19 3.0795e-41 -5.6890033e+19 3.0795e-41 -5.688954e+19 3.0795e-41
-5.6888556e+19 3.0795e-41 -5.6889295e+19 3.0795e-41 -5.688905e+19 3.0795e-41 -5.688954e+19 3.0795e-41
-5.689151e+19 3.0795e-41 -5.6890526e+19 3.0795e-41 -5.6893235e+19 3.0795e-41 -5.6892496e+19 3.0795e-41
-5.6893974e+19 3.0795e-41 -5.689225e+19 3.0795e-41 -5.6889787e+19 3.0795e-41 -5.6888556e+19 3.0795e-41
-5.6888556e+19 3.0795e-41 -5.687501e+19 3.0795e-41 -5.6875256e+19 3.0795e-41 -5.6879443e+19 3.0795e-41
-5.686762e+19 3.0795e-41 -5.687304e+19 3.0795e-41 -5.687304e+19 3.0795e-41 -5.687304e+19 3.0795e-41
-5.687304e+19 3.0795e-41 -5.689028e+19 3.0795e-41 -5.6893235e+19 3.0795e-41 -5.6892496e+19 3.0795e-41
-5.6892004e+19 3.0795e-41 -5.687304e+19 3.0795e-41 -5.6883137e+19 3.0795e-41 -5.688486e+19 3.0795e-41
-5.689496e+19 3.0795e-41 -5.689373e+19 3.0795e-41 -5.6890772e+19 3.0795e-41 -5.6892496e+19 3.0795e-41
-5.689225e+19 3.0795e-41 -5.6876487e+19 3.0795e-41 -5.6889787e+19 3.0795e-41 -5.689102e+19 3.0795e-41
-5.689348e+19 3.0795e-41 -5.6892743e+19 3.0795e-41 -5.6891757e+19 3.0795e-41 -5.688905e+19 3.0795e-41
-5.689496e+19 3.0795e-41 -5.687304e+19 3.0795e-41 -5.689102e+19 3.0795e-41 -5.6892004e+19 3.0795e-41
-5.6892743e+19 3.0795e-41 -5.6892496e+19 3.0795e-41 -5.6893235e+19 3.0795e-41 -5.689373e+19 3.0795e-41
-5.687304e+19 3.0795e-41 -5.6889787e+19 3.0795e-41 -5.689102e+19 3.0795e-41 -5.689348e+19 3.0795e-41
-5.6892743e+19 3.0795e-41 -5.6891757e+19 3.0795e-41 -5.688905e+19 3.0795e-41 -5.689496e+19 3.0795e-41
-5.686762e+19 3.0795e-41 -5.687304e+19 3.0795e-41 -5.687304e+19 3.0795e-41 -5.687304e+19 3.0795e-41
-5.687304e+19 3.0795e-41 -5.689028e+19 3.0795e-41 -5.6893235e+19 3.0795e-41 -5.6892496e+19 3.0795e-41
-5.6892004e+19 3.0795e-41 -5.687304e+19 3.0795e-41 -5.689373e+19 3.0795e-41 -5.6890772e+19 3.0795e-41
-5.6893235e+19 3.0795e-41 -5.6890033e+19 3.0795e-41 -5.688905e+19 3.0795e-41 -5.6889787e+19 3.0795e-41
-5.689102e+19 3.0795e-41 -5.689225e+19 3.0795e-41 -5.6890526e+19 3.0795e-41 -5.687304e+19 3.0795e-41
-5.689102e+19 3.0795e-41 -5.6892004e+19 3.0795e-41 -5.6892743e+19 3.0795e-41 -5.6892496e+19 3.0795e-41
-5.6893235e+19 3.0795e-41 -5.689373e+19 3.0795e-41 -5.687304e+19 3.0795e-41 -5.6885847e+19 3.0795e-41
-5.6890772e+19 3.0795e-41 -5.6893235e+19 3.0795e-41 -5.6890033e+19 3.0795e-41 -5.688905e+19 3.0795e-41
-5.6889787e+19 3.0795e-41 -5.686762e+19 3.0795e-41 -5.686762e+19 3.0795e-41 -5.687304e+19 3.0795e-41
-5.687304e+19 3.0795e-41 -5.687304e+19 3.0795e-41 -5.687304e+19 3.0795e-41 -5.687378e+19 3.0795e-41
-5.687304e+19 3.0795e-41 -5.68824e+19 3.0795e-41 -5.689102e+19 3.0795e-41 -5.6893235e+19 3.0795e-41
-5.689348e+19 3.0795e-41 -5.689373e+19 3.0795e-41 -5.687304e+19 3.0795e-41 -5.689348e+19 3.0795e-41
-5.6890033e+19 3.0795e-41 -5.689225e+19 3.0795e-41 -5.6889787e+19 3.0795e-41 -5.687304e+19 3.0795e-41
-5.688905e+19 3.0795e-41 -5.687304e+19 3.0795e-41 -5.6889787e+19 3.0795e-41 -5.6893974e+19 3.0795e-41
-5.6892004e+19 3.0795e-41 -5.6892004e+19 3.0795e-41 -5.689496e+19 3.0795e-41 -5.687304e+19 3.0795e-41
-5.6893235e+19 3.0795e-41 -5.6890033e+19 3.0795e-41 -5.689348e+19 3.0795e-41 -5.6892743e+19 3.0795e-41

b2 f4 [1, 32]
00000000: 0000 0000 0000 0000 0000 0000 0000 0000
00000010: 0000 0000 0000 0000 0000 0000 0000 0000
00000020: 0000 0000 0000 0000 0000 0000 0000 0000
00000030: 0000 0000 0000 0000 0000 0000 0000 0000
00000040: 0000 0000 0000 0000 0000 0000 0000 0000
00000050: 0000 0000 0000 0000 0000 0000 0000 0000
00000060: 0000 0000 0000 0000 0000 0000 0000 0000
00000070: 0000 0000 0000 0000 0000 0000 0000 0000
0.0 0.0 0.0 0.0 0.0 0.0 0.0 0.0
0.0 0.0 0.0 0.0 0.0 0.0 0.0 0.0
0.0 0.0 0.0 0.0 0.0 0.0 0.0 0.0
0.0 0.0 0.0 0.0 0.0 0.0 0.0 0.0

weight f4 [100, 32]
00000000: a702 6cbe 76d2 48be 32d9 6e3e 6cbc 1f3e
00000010: 9e9a 9d3d ef6e a1bd a71e 09be c335 85be
00000020: 458f ffbc c8e4 123e 7ae0 e2bd e822 073e
00000030: 6e76 153e e517 803e 54b9 393e 6634 333e
00000040: 2614 07be 0c73 1cbe 6c4e e0bd d3fb 2e3e
00000050: 11a9 5dbd d8aa d93c 7660 243d 16f7 afbd
00000060: be20 a03d 0c60 aabd be4c d3bd 8778 993d
00000070: 0b99 3d3d fff0 153e de42 5e3c 7699 873c
00000080: 351a bd3d 7574 4ebd a55d 033b 6d14 653e
00000090: 8753 f9bd 7e9d c23c 4101 f8bd 3af0 85bd
000000a0: c4dd 0cbe 4728 263e 065b ff3d afb2 3dbd
000000b0: dd2f 8abd 6b30 06be 36b8 90be 4da3 00be
000000c0: eb9d 8d3d ef55 26be 58ae 5cbc 1ca3 1d3e
000000d0: b7c3 41be 06cb a93c f22f 2cbe 7086 a83e
000000e0: 94f7 e73d ed4a 0ebe dd0e 96bd 46aa a9bd
000000f0: c718 bebe 3dae 473e 98b2 513e a026 f5bd
00000100: a46f 97bd e9fe 4b3e 830c 833e a241 423d
00000110: 6028 dc3d 0c85 003e bab6 633b 8148 903e
00000120: 5cd4 0fbe 89d2 5eba a872 693d 9f84 d23d
00000130: c479 6dbc 2fe7 36be cda8 13bd e487 b33d
00000140: 941e 06be eefb 453d a90b 4bbe c90a 1a3c
00000150: d6f3 6abb 371c a3be 2647 453d c158 643e
00000160: e4d1 10be ee4f 69be 3a29 32bd d1e2 9abd
00000170: f690 73bd 8ab9 bd3c 9e0c cb3d cd46 5c3e
00000180: 4f11 a3bd c0b3 a83d 6414 85ba 9fe4 2dbc
00000190: f7a5 1ebd 1042 4e3e 3f8e f3bd 2038 babc
000001a0: 67d3 b6bd 030c 773e 0717 55be 52dd 063e
000001b0: d371 c33d c1cc ac3d a773 7dbe b46a 203e
000001c0: e104 3ebe 4348 6f3e 55de c63c 0de6 48be
000001d0: d546 463d e11f cebd 1db2 62bd 18b1 49be
000001e0: cf5a 1cbd d279 353e 6c16 15be f5ad 36be
000001f0: cda9 9d3e c6b6 1f3e a77c cb3c acd5 18be
00000200: 863a 953d 5d03 9cbe 986a 513d ec31 863e
00000210: c864 04be 2b96 7c3d 8405 9cbd 8a77 533d
00000220: 53d5 abbd 88d5 e5bd 4f21 36bd 4a96 97bd
00000230: e28d 063e eb69 6c3e 867d 12bd d5af babd
00000240: 5c00 03be 62fd 8dbe d237 1bbd ef21 11be
00000250: 30e0 843d 6b6a 7dbc 7975 abbc 5fe9 403e
00000260: 5e7c 88be 0ee9 2e3e 2534 553e 3334 ab3e
00000270: 5d19 1e3e 7177 1abd 9051 30be d43d 89bc
00000280: 0f9b f63d d4d2 983e 9b95 703c efd9 ba3d
00000290: 5d7e 993e c4c9 4e3e a956 67be f0ad 39be
000002a0: 78d9 0b3e b659 03be 3713 e4bc cefe 1b3e
000002b0: 5328 18bd fbf3 84be e29c 89bd 6745 86bd
000002c0: 9b65 073e 1493 563e 1043 88be 97ad bfbe
000002d0: 43d6 60be be29 763c a2f7 1f3e cc5c 113e
000002e0: 6f93 8fbd 2202 8ebd 88eb 58bd f3fb 4dbe
000002f0: c1c1 05bd cce5 eabd a22d 7dbe b0cb 0abd
00000300: 5a0b 81bd 3c45 43be b4db 81be e8e6 d5bd
00000310: 5825 4e3e 616e d4bd 5d2f 873c a58d 7c3e
00000320: 224c 9fbd 8f92 a2bd 1bf3 ed3c 66bd 00be
00000330: 10a3 1e3c 1afa 093e 4eb7 053e 4c50 1b3e
00000340: deab 50be b3e6 2c3c 45ee f0bc 3e8f aa3e
00000350: 3d52 47be 55ea 553e 9ad8 4c3e e57c 53bd
00000360: 3776 35be 0a21 8dbc ff8b 29be aad1 ab3e
00000370: 38ce 08be a129 ff3c 8964 363e 90c9 43be
00000380: daa8 023e f707 6f3d 8d52 8abe 272d 0cbe
00000390: 5ad6 5b3e 7d1c 223e a0eb 713e ab7f 7b3d
000003a0: c484 1a3e 685a acbe 66ce bc3d 4e0b 14bd
000003b0: 76f7 b6bd ab33 87bd 6442 00be 50c9 89bd
000003c0: 5a15 8f3e fef6 e5bd 96eb e83d a97f 49bd
000003d0: 6dd3 18bb 8556 08be 0074 04be 3c3c 08be
000003e0: ebb0 163e c1e9 5a3e d764 38be 966c 08be
000003f0: 145b d1bd 7cc5 753e 5f1b 703d 96e2 2b3d
-0.23047887 -0.19611534 0.23325041 0.15599221 0.076955065 -0.07882487 -0.13390599 -0.2601758
-0.031196246 0.14345086 -0.11077972 0.1319691 0.14595959 0.2501823 0.18137103 0.17500457
-0.1319128 -0.15278262 -0.10952458 0.17088251 -0.054116312 0.026570722 0.040131055 -0.0859205
0.07818745 -0.08319101 -0.10317372 0.07493692 0.04628853 0.14642714 0.013565747 0.016552668
0.09233514 -0.05040403 0.002004483 0.22371073 -0.12174135 0.023756739 -0.12109614 -0.0653996
-0.13756472 0.16226302 0.12468533 -0.046312984 -0.067474104 -0.13104407 -0.28265542 -0.12562294
0.06914886 -0.16243719 -0.013469301 0.15394253 -0.18922316 0.020726692 -0.16815165 0.32915068
0.11326519 -0.1389577 -0.07327054 -0.0828443 -0.3712828 0.1950006 0.20478284 -0.11970258
-0.07394341 0.1992146 0.25595483 0.047425874 0.107498884 0.12550753 0.0034746365 0.28180316
-0.14045852 -0.00085 0.05699411 0.10279202 -0.014494363 -0.17861627 -0.036049653 0.087661535
-0.13097602 0.048335962 -0.19828667 0.009401985 -0.0035850904 -0.31857464 0.048163556 0.22299482
-0.14142567 -0.22784397 -0.043496348 -0.07562793 -0.059464417 0.023159761 0.09914516 0.21511383
-0.07962286 0.082374096 -0.0010153172 -0.01061359 -0.038732495 0.20142388 -0.11892366 -0.02273184
-0.089270405 0.24125676 -0.20809565 0.13170364 0.095431946 0.08437491 -0.24751149 0.15665704
-0.18556549 0.2336741 0.024275938 -0.19619007 0.048407394 -0.10064674 -0.055345643 -0.19696462
-0.03817254 0.17722252 -0.14559335 -0.17839797 0.3079361 0.15597066 0.024839712 -0.1492526
0.07286553 -0.30471316 0.051127046 0.26209962 -0.1292907 0.06166665 -0.076182395 0.051627673
-0.08390298 -0.112223685 -0.04446536 -0.07401712 0.13140061 0.2308728 -0.03576424 -0.091155685
-0.12793106 -0.27732378 -0.03789503 -0.14173101 0.06488073 -0.015467267 -0.020930039 0.18839024
-0.26657385 0.17081091 0.20820673 0.33438262 0.15439363 -0.037711564 -0.17218614 -0.016753115
0.12041294 0.2984835 0.014684106 0.09123599 0.2997922 0.20194155 -0.22591652 -0.18132758
0.13657176 -0.12827191 -0.027841194 0.15233919 -0.03714783 -0.25967392 -0.06719376 -0.06556206
0.13222353 0.20954543 -0.26613665 -0.37437126 -0.21956734 0.015024601 0.15621808 0.14195555
-0.070105426 -0.069340006 -0.052958995 -0.20115642 -0.03265548 -0.114696115 -0.24724439 -0.033885658
-0.06300993 -0.1906938 -0.25362933 -0.104444325 0.20131433 -0.103726156 0.016502077 0.24663408
-0.07778193 -0.0793811 0.029046586 -0.1257225 0.009682432 0.13474312 0.13058206 0.1516735
-0.20378062 0.01055305 -0.02941049 0.3331241 -0.19464965 0.20890172 0.20004502 -0.05163278
-0.17720877 -0.017227668 -0.1655731 0.33558398 -0.13359916 0.03114778 0.17811789 -0.19119859
0.12759724 0.058357205 -0.27016106 -0.13689099 0.21468487 0.1583118 0.2362504 0.06140105
0.15089709 -0.33662724 0.09219055 -0.036143593 -0.08933918 -0.06601652 -0.12525326 -0.067278504
0.27945977 -0.11228751 0.113730595 -0.04919401 -0.002331938 -0.13314255 -0.12934875 -0.13304228
0.14715926 0.21378233 -0.18007217 -0.13322672 -0.1022245 0.24001116 0.058619853 0.041964136

bias f4 [100]
00000000: 1a6f 9ebe 2eaa 1e3e 2502 ad3e 463f 97bc
00000010: 41be 9dbc fd41 92be 6c53 d53d b16f a83e
00000020: 017f 8f3d 487e 9dbd 4f1b 5ebe 43db f33d
00000030: a935 68be 7b93 07be 9e9e 533e cdd5 8cbd
00000040: d1a5 083e 3c9b 113d 777b 853e 33b4 d13c
00000050: 4c08 58be a40b 993e 09b1 c63d 63ec 62be
00000060: 6728 783d 8b76 1d3d 28f7 b5be cd1a a53e
00000070: dead 95bc 8e52 3a3e e89a 2b3e 74fb 9e3d
00000080: 1d4a 93bd a2ec 813e 4be3 993e 3881 57be
00000090: 6424 863e 9544 a03e 7e18 84bb 2ca5 adbc
000000a0: 3f56 ebbd 8812 0b3e 70c4 ed3d 575b 2abd
000000b0: f1ba 54be adef 67be 13b8 93bd 4c82 92bd
000000c0: a8e3 5ebe 4ee3 833e b149 153e aa6d 943e
000000d0: 3298 bfbe e318 0d3e 16d7 dcbc 6c98 16be
000000e0: a858 3e3e bc34 783d 6d72 9c3e 9848 38be
000000f0: 0533 6d3e 1e76 193d 13fe b73d 2fea 1fbe
00000100: 45d8 a6be c5e5 d33e 224c a8bd 64e5 413e
00000110: e3c3 9b3d c323 813e c666 a43d 5f76 8a3e
00000120: faa8 b03d 27c3 973d 3b6f a23e 9ec2 4bbe
00000130: 8d78 9e3c 34f2 6a3e 7802 73be 5e9d e6bd
00000140: 1b0d a2be 1917 6a3e cc00 eb3c d938 8ebe
00000150: 7f9c 48bd a055 3a3e 9a15 ac3d 24b4 1b3e
00000160: 8e74 98be a1b3 23be 2875 af3d 0f27 ccbd
00000170: 1cc2 7cbd e53e 41bd 0217 54be 9c13 1f3e
00000180: a090 05be 7070 8d3e 084a d7bc 796b 613e
-0.3094414 0.15494606 0.337907 -0.018462788 -0.01925576 -0.2856597 0.10416302 0.32897714
0.07006646 -0.07690102 -0.21690105 0.11907055 -0.2267672 -0.13239853 0.20665976 -0.06876717
0.13344504 0.035548434 0.2607076 0.025598621 -0.21096915 0.29891694 0.097017355 -0.22160487
0.060585406 0.03844313 -0.35540128 0.3224701 -0.018271383 0.18195555 0.16758311 0.077628046
-0.0719187 0.2537585 0.30056223 -0.21045387 0.2619964 0.31302324 -0.00403124 -0.021196924
-0.114910595 0.13581288 0.11609733 -0.041591015 -0.20774437 -0.22650023 -0.07212844 -0.071537584
-0.21766531 0.25759357 0.14578892 0.28989917 -0.37420803 0.13779025 -0.02695803 -0.14706582
0.18588507 0.060597166 0.3055605 -0.17996442 0.23163994 0.03746616 0.08984008 -0.15616678
-0.32586876 0.41386238 -0.08217646 0.18935162 0.07605722 0.25222597 0.08027415 0.27043435
0.0862598 0.07410269 0.31725487 -0.1989846 0.019344592 0.22943956 -0.2373141 -0.11260484
-0.31650624 0.22860374 0.028686903 -0.27777746 -0.04897737 0.18196726 0.08402558 0.15205437
-0.29776424 -0.15986492 0.08567268 -0.09968387 -0.061708555 -0.04717912 -0.20711902 0.15534824
-0.13043451 0.27624846 -0.026280418 0.22013654
