model_path/cortex_seqfish.pth (torch, 269447 bytes, 18 tensors)

q f4 [100, 1]
00000000: 08e5 50bd 5845 6ebe b759 b43c daf3 033e
00000010: 5a2e 9ebd 6098 0ebd 1755 923e 83c4 34be
00000020: ee50 063e 43f5 13be faad 7abe 47f5 b03c
00000030: b25e 45be 94e8 52be a5ac 013e 7235 1d3e
00000040: e4c5 513d 90c4 833e bbbc d9bc 0820 883e
00000050: 9ca9 0c3e febe 703e 633d 6ebd d6f7 493d
00000060: 515c e2bd 7893 ecbd f41d 19bd 6869 5abe
00000070: b830 d5bc 22b5 273e a9f1 203e c9c6 3ebe
00000080: 9008 60be cc6b 183e 1acd 163e b747 723e
00000090: 5d37 59be 4c67 82be 079f 0abe 9fa8 c63d
000000a0: d409 2dbe ba1f d8bd efbb b8bd d0c4 f4bd
000000b0: d616 07bd 53c2 6cbe 8c96 09be 60f7 813d
000000c0: 26a0 f83d 1de4 84bd 07df 053e a1cb 083d
000000d0: f276 963c 2d40 17be ad80 563d 2db2 3c3d
000000e0: 2ecd f3bb 5266 af3d 2f22 343e aa8f 4abd
000000f0: 30d6 883b 8e09 81ba 5249 32be 667f 34bc
00000100: 3257 1b3e 8ee7 153d de49 eabd ce51 10be
00000110: 8069 b03d 3da2 263e 977a 32bc 1c54 31be
00000120: 2b8d 663e c97b eebd dbbd 293e b9e5 2ebe
00000130: 3517 41bc fe35 433d 50e9 113d 633b e73d
00000140: da74 35be 945e de3d 04c5 c43d 2ee5 aabd
00000150: cab9 3f3e 221d 12be b117 0ebe 2445 89be
00000160: a75d 4f3e 00c5 2cbe 685d 74be aafa 493e
00000170: 5e8b 623e e68e 51bd c57d 4e3d 1c21 72be
00000180: f0be 343d 8309 8f3e 913d 703e aea4 2ebe
-0.05099967 -0.2326864 0.022015436 0.1288599 -0.077236846 -0.034813285 0.28580543 -0.17653088
0.1311681 -0.14449029 -0.2448043 0.021601332 -0.19274405 -0.20596534 0.12663515 0.15352419
0.051214114 0.25735903 -0.026579252 0.26586938 0.13736576 0.23510358 -0.05816401 0.04930862
-0.11052764 -0.11551565 -0.03738208 -0.21329272 -0.026024207 0.1637769 0.15717186 -0.18630518
-0.21878266 0.14884871 0.14726678 0.2366017 -0.21212526 -0.25469434 -0.13537227 0.09700131
-0.1689828 -0.10552926 -0.090202205 -0.119516015 -0.032980762 -0.23121004 -0.13436335 0.06346011
0.12139921 -0.06488822 0.1307336 0.03339732 0.018367264 -0.14770575 0.05236881 0.04606836
-0.007440231 0.08564438 0.17591165 -0.049453415 0.0041759238 -0.0009844766 -0.17410782 -0.011016702
0.15169981 0.03659778 -0.1143987 -0.14093706 0.086138725 0.16272826 -0.0108934855 -0.17317241
0.22514789 -0.11644704 0.1657633 -0.1707982 -0.011785318 0.047658913 0.035622895 0.11290624
-0.17720357 0.10857883 0.0960789 -0.08344494 0.18723217 -0.14268926 -0.13876225 -0.26810563
0.2025057 -0.16872025 -0.23863757 0.19724527 0.22123477 -0.05116167 0.050412912 -0.23645443
0.044127405 0.27936944 0.23460986 -0.17055008

k f4 [100, 1]
00000000: 3423 2dbe 6d54 11be 4745 97bd 0039 adbd
00000010: bedd ddbc ddb3 f33d 4702 193e 1e37 85bc
00000020: 7524 17bc fb7e 3cbe 255f 3bbe c181 cf3d
00000030: 4d84 9c3d c32c cb3d 7b8a df3d a719 7a3e
00000040: 4c23 3d3b 7eb1 4bbd 3d1a 5c3e c72c 3cbe
00000050: 1a37 4dbd e68e f9bd b2e4 2bbe 2a47 4bbc
00000060: fe52 c2bd 61d7 44bd 8c08 3f3c 337b 24bb
00000070: 2ac3 dc3d a502 173d 27c5 ce3d a156 753e
00000080: 13ee 033e 89a2 23be 93f7 99bb 46c8 05bd
00000090: 342b 993d 7e1e 2d3e 316e 3ebd 28f2 76bd
000000a0: a285 2fbe 0cca 5b3e c84a c0bd 3306 f73d
000000b0: 8299 b83d 63b7 a63d 6ebc dbbd ea4b 88bd
000000c0: bda3 b83d f256 c7bc 9128 02be 8b40 35be
000000d0: cff4 183e f43c 0fbe 5e85 5b3e 2365 71bd
000000e0: 0f8c 113e 446b 77be 9755 bdbd ec64 79bd
000000f0: a8ef 193d 9fba 24be 20b7 c63d 25d3 223d
00000100: 0a30 823d 9bc2 21bc b1f9 3b3e 38a7 1bbe
00000110: 8ffc 053e 66dc d33d 26d0 a53d 7a78 cebd
00000120: e69f 5a3e 1e0b 0cbe 290d 573e 0b26 19bd
00000130: 5f09 5cbe a4e0 0ebd c9a2 53be d77c 783e
00000140: 5db0 6bbd 1ecf d6bd 1a6f 533e fbc3 c2bd
00000150: 6d2e 9b3c 3076 023e 0aa5 1a3e 35c6 603d
00000160: 32fa 523d 8a9a db3d 50cb ffbd 88b9 33bc
00000170: 7a4e 27be 0fac 55be f9f4 11be e457 72be
00000180: ea0a e4bd bea2 3fbe 41bf 5f3e 322e a1bc
-0.1690796 -0.14192362 -0.073862605 -0.084581375 -0.027083274 0.118995406 0.14942275 -0.016261633
-0.009225001 -0.18407814 -0.18298014 0.101321705 0.07642422 0.09920647 0.10915085 0.24423848
0.002886015 -0.049729817 0.21494384 -0.18376456 -0.050101377 -0.12185459 -0.16786459 -0.012407104
-0.09488486 -0.048056964 0.011659753 -0.0025097847 0.10779412 0.036867756 0.100961976 0.23958828
0.12883787 -0.15979971 -0.0046987026 -0.0326617 0.074789435 0.16906163 -0.046491805 -0.060289532
-0.1714082 0.21463794 -0.093892634 0.12061729 0.09013654 0.08140447 -0.107292995 -0.066551045
0.090156056 -0.024333451 -0.12710787 -0.17700402 0.14937137 -0.13988096 0.21437594 -0.058934342
0.14213584 -0.24162012 -0.092448406 -0.060887262 0.03758207 -0.16086815 0.09702897 0.039752144
0.06356819 -0.009873058 0.18356968 -0.15200508 0.13084625 0.10344772 0.08096342 -0.10081573
0.21350059 -0.13676116 0.21001114 -0.037389796 -0.2148795 -0.034882203 -0.20667566 0.24266373
-0.05754124 -0.10488723 0.2064785 -0.095100366 0.018943036 0.12740397 0.1510202 0.054876525
0.051508136 0.10722835 -0.12489951 -0.010969527 -0.1633853 -0.20866416 -0.14253606 -0.2366634
-0.11134894 -0.18714425 0.21850301 -0.019675348

weight f4 [2, 200, 100]
00000000: 1fa1 a8bb 4f26 e63d 921a bbbb 74fc 73be
00000010: fd84 aabd d1cf 5fbc 2468 2ebd 7dc9 403e
00000020: ecd9 643d db52 5a3d c342 1fbd ace0 a2bd
00000030: e9ae 10bd 917a 8dbd 6e5c c6bd 6ae9 48bd
00000040: d076 2fbd f0df 4a3e 3480 4b3d 846f 08bd
00000050: a122 253c 73d2 673e ba85 74bd 6320 483e
00000060: 1276 273d 2c5a 063c 1a87 803e 75bc 00bd
00000070: f372 6fbe 2118 2bbd 14a1 96bd 7169 863c
00000080: 5fe9 a9bd 2319 c63c 80f5 1dbe 96b2 c1bc
00000090: 4c03 bebe ceaa 7f3d 43e9 ec3d 6cca f23d
000000a0: f56e 04bb 30a6 38be 4cdc 16bd 6be1 c63c
000000b0: f7e2 bcbd 61b4 2fbe c53a 2a3e 322d 8a3c
000000c0: 374c 36be 802f 74bd fc90 98bc 5ff5 1c3e
000000d0: 2aaf c3b9 118d 5c3d e3de 9abc bdbd 053d
000000e0: aebb 853d 2719 4ebe b29d 5abc d560 d6bd
000000f0: 452f 0f3c d339 3f3e b4c9 06be 8033 46bc
00000100: e082 2b3e 1700 7ebd 3e39 80bd 4f99 0a3c
00000110: 095a ac3d 2033 203e 10c7 23be 54ff e8bd
00000120: 6622 85bb 4783 573e 47d7 343e e605 1f3d
00000130: 5462 213d 3ba9 bcbd 6497 de3d 6d0b 04be
00000140: c581 a4be 4034 493e bf07 f83d 3c17 60bb
00000150: b664 b5bc 876f 1bbc 3b2d 5cbe 21eb 66be
00000160: eb45 3e3d 5a39 51be 1784 993d 6db4 393e
00000170: 7067 0e3e d9ba 773d edfe 86be 575e c5bd
00000180: 7044 393d dd95 263e f34d c6bd 9593 fabb
00000190: eb22 383e de6c c83d ea16 9fbc 507b 0c3d
000001a0: 381f 19be f62d 2e3c c8d2 24be 02a2 1abe
000001b0: e707 adbc 3800 943d b5f4 dbbb dc03 873d
000001c0: 38b7 dbbd 04fa 0e3e 2757 813d b1dc 0fbe
000001d0: 55ec dd3c 75ea 85bd c485 cebc 3c25 eabc
000001e0: 1e8b ac3d a188 033b f9d6 71bc c0c2 b03d
000001f0: aab4 2bbe 85f3 db3a b61b b73c 9792 67bd
00000200: 74da 74bc f115 20be a114 1dbd b0fd 833b
00000210: fa1c 8fbd d037 6fbd 3e0b d93d bd89 7ebc
00000220: 27be b23d a536 a43c 458e 463d de53 023e
00000230: 8769 3c3e e20c d63d a402 363e ea73 efbc
00000240: 557b 25be 38b5 05bd 05c1 183e bb61 673d
00000250: 3697 66bd b705 febd ae28 9ebd 1558 39bd
00000260: 1df7 4ebd 129c 7a3d eaa0 ac3d cdf0 83bd
00000270: 366c 033d deff a0bd 29ac 1cbd 6171 053b
00000280: c56b d4bc 354d bfbd a18f e7bd 524f 34be
00000290: e955 36bd 94ec 0dbc c889 12be 8972 893d
000002a0: b3e1 c0bd 12b4 f3bb 4e84 de3d ec5b 093c
000002b0: 263f e73d 7ef5 813d d9ed 1cbe 7c5f 1d3e
000002c0: 24b1 be3c c342 55bd c0dc 123e c0b6 02be
000002d0: bc78 c13d 5c38 bb3c 069e c53c 73ce 003c
000002e0: 07fb 933d 56db 663d da3b 02bd 6342 a1bc
000002f0: 35f7 b7bd bcc9 a03d 78e4 203e 7d29 5d3c
00000300: a1cd f5bd ca6c 8e3d cc75 32bd c394 54bd
00000310: 9229 1ebd b731 0f3d 07b2 cfbd 3572 dc3c
00000320: b900 cd3b ec83 9d3d 65ce e3bd 1421 a8bd
00000330: 9dc6 86bd 9dfc d73d 14f8 3cbd 1b6f bc3d
00000340: d5a6 833d 6566 b23c 0aaf ddbc e530 a4bc
00000350: 9f88 ff3b f357 83bd 24b6 c43a 4ec1 b63c
00000360: 2f06 a5bd c795 91bd 6c57 df3d b0fa a8bd
00000370: c60d c33c a8f0 133e 5e83 4e3d 4fd7 a53c
00000380: 2a70 fcbd 44f2 c43d 4cb0 e9bd 92f3 d1bd
00000390: a5f5 1ebd 0207 92bb 19c5 4e3c 9f10 d03d
000003a0: f507 2cbc 6372 103e 9ee0 983d 77c5 84bd
000003b0: 8f7b 903d d89b 01be f04c 91bd 699e 3f3d
000003c0: 22f0 fe3c 3dda cf3d 0362 e2bc 9a2b 4cbd
000003d0: b940 983d 511f 25be f1b2 e53d e353 abbd
000003e0: 17d7 783b b160 153c c300 39bd f74a 0f3d
000003f0: a10b ed3d 8972 d8bc eab5 cabd 940c 2cbd
-0.0051461603 0.112377755 -0.0057099545 -0.23826772 -0.08326147 -0.013660387 -0.042579785 0.18826862
0.05587189 0.053301673 -0.03888203 -0.07953009 -0.035323057 -0.06908143 -0.09685598 -0.049050726
-0.042837918 0.19811988 0.04968281 -0.033309475 0.010079057 0.22638874 -0.059697844 0.19543605
0.040884085 0.00820021 0.25103074 -0.031429727 -0.23383693 -0.041771058 -0.07354942 0.0164077
-0.08296465 0.024181908 -0.15425682 -0.023644727 -0.3711189 0.06241875 0.11567929 0.11855015
-0.0020207737 -0.18032146 -0.036831185 0.02427741 -0.092229776 -0.17158653 0.16623981 0.016867254
-0.17802511 -0.059615612 -0.018623821 0.15327977 -0.00037323806 0.05384547 -0.018905109 0.03265165
0.06529938 -0.20126782 -0.013343262 -0.10467688 0.008739297 0.18674402 -0.13162881 -0.0120972395
0.16749144 -0.062011804 -0.06260918 0.008459403 0.0841561 0.15644503 -0.15993905 -0.11376825
-0.0040629385 0.21046172 0.17660247 0.038823985 0.039400414 -0.09211966 0.10868719 -0.12894984
-0.32130256 0.19648838 0.121108525 -0.0034193536 -0.02214275 -0.009487039 -0.21501629 -0.22550632
0.046453398 -0.20432034 0.07495897 0.18135233 0.13906646 0.060480926 -0.26366368 -0.096371345
0.045231283 0.16268106 -0.096828364 -0.0076469877 0.1798207 0.0978639 -0.019420106 0.034297287
-0.14953315 0.010631075 -0.16096032 -0.15100864 -0.021121932 0.07226604 -0.006712521 0.06592533
-0.107283056 0.13962561 0.06315451 -0.14049031 0.027090231 -0.0653886 -0.025210269 -0.028582208
0.08424972 0.002007045 -0.014760726 0.086308956 -0.16768137 0.0016780948 0.02235208 -0.056536283
-0.014944661 -0.1563337 -0.03834975 0.0040280446 -0.06987949 -0.058402836 0.105978474 -0.015535769
0.08727675 0.020045588 0.048475523 0.12727305 0.1839963 0.10451676 0.17774445 -0.029230077
-0.16160329 -0.032643527 0.14917381 0.056489687 -0.05629655 -0.12403434 -0.07722603 -0.045250017
-0.050528634 0.061183996 0.084291294 -0.064424135 0.03208562 -0.07861303 -0.038250122 0.0020361769
-0.025930295 -0.09340898 -0.11306692 -0.17608383 -0.044515524 -0.008662362 -0.14310372 0.06711299
-0.09418049 -0.0074372375 0.10865079 0.008383732 0.112913415 0.06345652 -0.15325107 0.15368456
0.023277827 -0.052065622 0.14342022 -0.12765026 0.094468564 0.022854023 0.024123203 0.007861721
0.07225614 0.05636152 -0.03179536 -0.019684976 -0.08982698 0.07850978 0.15712154 0.013498661
-0.12002111 0.069543436 -0.04356937 -0.051899683 -0.038613863 0.03495952 -0.10141378 0.026909927
0.0062561897 0.07691178 -0.11123351 -0.08209434 -0.06580851 0.10546229 -0.046135023 0.09200879
0.06428305 0.021777341 -0.027061004 -0.020042846 0.007798269 -0.06413259 0.0015007895 0.022308972
-0.0805782 -0.07108646 0.10905346 -0.0825094 0.023810279 0.14447272 0.05041825 0.020244269
-0.12326081 0.09616521 -0.11410579 -0.102515355 -0.038808484 -0.004456402 0.012620234 0.1015942
-0.010499944 0.14106135 0.07464717 -0.06482976 0.07054817 -0.12657106 -0.07094753 0.04678193
0.031120364 0.101490475 -0.027634626 -0.04984627 0.0743422 -0.16125228 0.11215771 -0.083656095
0.003797 0.009117291 -0.045166742 0.0349836 0.11574484 -0.026421802 -0.098979786 -0.042004183

w f4 [100]
00000000: 0000 803f 0000 803f 0000 803f 0000 803f
00000010: 0000 803f 0000 803f 0000 803f 0000 803f
00000020: 0000 803f 0000 803f 0000 803f 0000 803f
00000030: 0000 803f 0000 803f 0000 803f 0000 803f
00000040: 0000 803f 0000 803f 0000 803f 0000 803f
00000050: 0000 803f 0000 803f 0000 803f 0000 803f
00000060: 0000 803f 0000 803f 0000 803f 0000 803f
00000070: 0000 803f 0000 803f 0000 803f 0000 803f
00000080: 0000 803f 0000 803f 0000 803f 0000 803f
00000090: 0000 803f 0000 803f 0000 803f 0000 803f
000000a0: 0000 803f 0000 803f 0000 803f 0000 803f
000000b0: 0000 803f 0000 803f 0000 803f 0000 803f
000000c0: 0000 803f 0000 803f 0000 803f 0000 803f
000000d0: 0000 803f 0000 803f 0000 803f 0000 803f
000000e0: 0000 803f 0000 803f 0000 803f 0000 803f
000000f0: 0000 803f 0000 803f 0000 803f 0000 803f
00000100: 0000 803f 0000 803f 0000 803f 0000 803f
00000110: 0000 803f 0000 803f 0000 803f 0000 803f
00000120: 0000 803f 0000 803f 0000 803f 0000 803f
00000130: 0000 803f 0000 803f 0000 803f 0000 803f
00000140: 0000 803f 0000 803f 0000 803f 0000 803f
00000150: 0000 803f 0000 803f 0000 803f 0000 803f
00000160: 0000 803f 0000 803f 0000 803f 0000 803f
00000170: 0000 803f 0000 803f 0000 803f 0000 803f
00000180: 0000 803f 0000 803f 0000 803f 0000 803f
1.0 1.0 1.0 1.0 1.0 1.0 1.0 1.0
1.0 1.0 1.0 1.0 1.0 1.0 1.0 1.0
1.0 1.0 1.0 1.0 1.0 1.0 1.0 1.0
1.0 1.0 1.0 1.0 1.0 1.0 1.0 1.0
1.0 1.0 1.0 1.0 1.0 1.0 1.0 1.0
1.0 1.0 1.0 1.0 1.0 1.0 1.0 1.0
1.0 1.0 1.0 1.0 1.0 1.0 1.0 1.0
1.0 1.0 1.0 1.0 1.0 1.0 1.0 1.0
1.0 1.0 1.0 1.0 1.0 1.0 1.0 1.0
1.0 1.0 1.0 1.0 1.0 1.0 1.0 1.0
1.0 1.0 1.0 1.0 1.0 1.0 1.0 1.0
1.0 1.0 1.0 1.0 1.0 1.0 1.0 1.0
1.0 1.0 1.0 1.0

l1 f4 [1, 100]
00000000: 0000 803f 0000 803f 0000 803f 0000 803f
00000010: 0000 803f 0000 803f 0000 803f 0000 803f
00000020: 0000 803f 0000 803f 0000 803f 0000 803f
00000030: 0000 803f 0000 803f 0000 803f 0000 803f
00000040: 0000 803f 0000 803f 0000 803f 0000 803f
00000050: 0000 803f 0000 803f 0000 803f 0000 803f
00000060: 0000 803f 0000 803f 0000 803f 0000 803f
00000070: 0000 803f 0000 803f 0000 803f 0000 803f
00000080: 0000 803f 0000 803f 0000 803f 0000 803f
00000090: 0000 803f 0000 803f 0000 803f 0000 803f
000000a0: 0000 803f 0000 803f 0000 803f 0000 803f
000000b0: 0000 803f 0000 803f 0000 803f 0000 803f
000000c0: 0000 803f 0000 803f 0000 803f 0000 803f
000000d0: 0000 803f 0000 803f 0000 803f 0000 803f
000000e0: 0000 803f 0000 803f 0000 803f 0000 803f
000000f0: 0000 803f 0000 803f 0000 803f 0000 803f
00000100: 0000 803f 0000 803f 0000 803f 0000 803f
00000110: 0000 803f 0000 803f 0000 803f 0000 803f
00000120: 0000 803f 0000 803f 0000 803f 0000 803f
00000130: 0000 803f 0000 803f 0000 803f 0000 803f
00000140: 0000 803f 0000 803f 0000 803f 0000 803f
00000150: 0000 803f 0000 803f 0000 803f 0000 803f
00000160: 0000 803f 0000 803f 0000 803f 0000 803f
00000170: 0000 803f 0000 803f 0000 803f 0000 803f
00000180: 0000 803f 0000 803f 0000 803f 0000 803f
1.0 1.0 1.0 1.0 1.0 1.0 1.0 1.0
1.0 1.0 1.0 1.0 1.0 1.0 1.0 1.0
1.0 1.0 1.0 1.0 1.0 1.0 1.0 1.0
1.0 1.0 1.0 1.0 1.0 1.0 1.0 1.0
1.0 1.0 1.0 1.0 1.0 1.0 1.0 1.0
1.0 1.0 1.0 1.0 1.0 1.0 1.0 1.0
1.0 1.0 1.0 1.0 1.0 1.0 1.0 1.0
1.0 1.0 1.0 1.0 1.0 1.0 1.0 1.0
1.0 1.0 1.0 1.0 1.0 1.0 1.0 1.0
1.0 1.0 1.0 1.0 1.0 1.0 1.0 1.0
1.0 1.0 1.0 1.0 1.0 1.0 1.0 1.0
1.0 1.0 1.0 1.0 1.0 1.0 1.0 1.0
1.0 1.0 1.0 1.0

b1 f4 [1, 100]
00000000: 0000 0000 0000 0000 0000 0000 0000 0000
00000010: 0000 0000 0000 0000 0000 0000 0000 0000
00000020: 0000 0000 0000 0000 0000 0000 0000 0000
00000030: 0000 0000 0000 0000 0000 0000 0000 0000
00000040: 0000 0000 0000 0000 0000 0000 0000 0000
00000050: 0000 0000 0000 0000 0000 0000 0000 0000
00000060: 0000 0000 0000 0000 0000 0000 0000 0000
00000070: 0000 0000 0000 0000 0000 0000 0000 0000
00000080: 0000 0000 0000 0000 0000 0000 0000 0000
00000090: 0000 0000 0000 0000 0000 0000 0000 0000
000000a0: 0000 0000 0000 0000 0000 0000 0000 0000
000000b0: 0000 0000 0000 0000 0000 0000 0000 0000
000000c0: 0000 0000 0000 0000 0000 0000 0000 0000
000000d0: 0000 0000 0000 0000 0000 0000 0000 0000
000000e0: 0000 0000 0000 0000 0000 0000 0000 0000
000000f0: 0000 0000 0000 0000 0000 0000 0000 0000
00000100: 0000 0000 0000 0000 0000 0000 0000 0000
00000110: 0000 0000 0000 0000 0000 0000 0000 0000
00000120: 0000 0000 0000 0000 0000 0000 0000 0000
00000130: 0000 0000 0000 0000 0000 0000 0000 0000
00000140: 0000 0000 0000 0000 0000 0000 0000 0000
00000150: 0000 0000 0000 0000 0000 0000 0000 0000
00000160: 0000 0000 0000 0000 0000 0000 0000 0000
00000170: 0000 0000 0000 0000 0000 0000 0000 0000
00000180: 0000 0000 0000 0000 0000 0000 0000 0000
0.0 0.0 0.0 0.0 0.0 0.0 0.0 0.0
0.0 0.0 0.0 0.0 0.0 0.0 0.0 0.0
0.0 0.0 0.0 0.0 0.0 0.0 0.0 0.0
0.0 0.0 0.0 0.0 0.0 0.0 0.0 0.0
0.0 0.0 0.0 0.0 0.0 0.0 0.0 0.0
0.0 0.0 0.0 0.0 0.0 0.0 0.0 0.0
0.0 0.0 0.0 0.0 0.0 0.0 0.0 0.0
0.0 0.0 0.0 0.0 0.0 0.0 0.0 0.0
0.0 0.0 0.0 0.0 0.0 0.0 0.0 0.0
0.0 0.0 0.0 0.0 0.0 0.0 0.0 0.0
0.0 0.0 0.0 0.0 0.0 0.0 0.0 0.0
0.0 0.0 0.0 0.0 0.0 0.0 0.0 0.0
0.0 0.0 0.0 0.0

l2 f4 [100, 100]
00000000: 1200 0000 0000 0000 ab01 0000 0000 0000
00000010: 1200 0000 0000 0000 ba01 0000 0000 0000
00000020: 1200 0000 0000 0000 cc01 0000 0000 0000
00000030: 1200 0000 0000 0000 cf01 0000 0000 0000
00000040: 1200 0000 0000 0000 f101 0000 0000 0000
00000050: 1200 0000 0000 0000 2802 0000 0000 0000
00000060: 1200 0000 0000 0000 4c02 0000 0000 0000
00000070: 1200 0000 0000 0000 5a02 0000 0000 0000
00000080: 1200 0000 0000 0000 6102 0000 0000 0000
00000090: 1200 0000 0000 0000 6402 0000 0000 0000
000000a0: 1200 0000 0000 0000 7802 0000 0000 0000
000000b0: 1200 0000 0000 0000 9b02 0000 0000 0000
000000c0: 1200 0000 0000 0000 f102 0000 0000 0000
000000d0: 1200 0000 0000 0000 f502 0000 0000 0000
000000e0: 1200 0000 0000 0000 2e03 0000 0000 0000
000000f0: 1200 0000 0000 0000 4303 0000 0000 0000
00000100: 1200 0000 0000 0000 6103 0000 0000 0000
00000110: 1200 0000 0000 0000 7703 0000 0000 0000
00000120: 1200 0000 0000 0000 7903 0000 0000 0000
00000130: 1300 0000 0000 0000 2900 0000 0000 0000
00000140: 1300 0000 0000 0000 2c00 0000 0000 0000
00000150: 1300 0000 0000 0000 3200 0000 0000 0000
00000160: 1300 0000 0000 0000 4100 0000 0000 0000
00000170: 1300 0000 0000 0000 b001 0000 0000 0000
00000180: 1300 0000 0000 0000 c201 0000 0000 0000
00000190: 1300 0000 0000 0000 ce01 0000 0000 0000
000001a0: 1300 0000 0000 0000 d101 0000 0000 0000
000001b0: 1300 0000 0000 0000 f501 0000 0000 0000
000001c0: 1300 0000 0000 0000 5202 0000 0000 0000
000001d0: 1300 0000 0000 0000 5a02 0000 0000 0000
000001e0: 1300 0000 0000 0000 6402 0000 0000 0000
000001f0: 1300 0000 0000 0000 6702 0000 0000 0000
00000200: 1300 0000 0000 0000 8f02 0000 0000 0000
00000210: 1300 0000 0000 0000 a602 0000 0000 0000
00000220: 1300 0000 0000 0000 b602 0000 0000 0000
00000230: 1300 0000 0000 0000 ea02 0000 0000 0000
00000240: 1300 0000 0000 0000 f402 0000 0000 0000
00000250: 1300 0000 0000 0000 0903 0000 0000 0000
00000260: 1300 0000 0000 0000 1103 0000 0000 0000
00000270: 1300 0000 0000 0000 1f03 0000 0000 0000
00000280: 1400 0000 0000 0000 4b00 0000 0000 0000
00000290: 1400 0000 0000 0000 9100 0000 0000 0000
000002a0: 1400 0000 0000 0000 a400 0000 0000 0000
000002b0: 1400 0000 0000 0000 a900 0000 0000 0000
000002c0: 1400 0000 0000 0000 c300 0000 0000 0000
000002d0: 1400 0000 0000 0000 1201 0000 0000 0000
000002e0: 1400 0000 0000 0000 0b02 0000 0000 0000
000002f0: 1400 0000 0000 0000 3b02 0000 0000 0000
00000300: 1400 0000 0000 0000 3c02 0000 0000 0000
00000310: 1400 0000 0000 0000 3e02 0000 0000 0000
00000320: 1400 0000 0000 0000 6402 0000 0000 0000
00000330: 1400 0000 0000 0000 6902 0000 0000 0000
00000340: 80af 4d47 fa2a 0000 410b 0000 0000 0000
00000350: 78dd 44f7 f82a 0000 2081 c80b 0000 0000
00000360: 2081 c80b 0000 0000 2081 c80b 0000 0000
00000370: c086 4d47 fa2a 0000 40a5 4d47 fa2a 0000
00000380: c0bf 4d47 fa2a 0000 c087 4d47 fa2a 0000
00000390: c0b4 4d47 fa2a 0000 c084 4d47 fa2a 0000
000003a0: 808a 4d47 fa2a 0000 008e 4d47 fa2a 0000
000003b0: 80b3 4d47 fa2a 0000 c09a 4d47 fa2a 0000
000003c0: 80a3 4d47 fa2a 0000 009d 4d47 fa2a 0000
000003d0: c0a6 4d47 fa2a 0000 c080 4d47 fa2a 0000
000003e0: 808b 4d47 fa2a 0000 408f 4d47 fa2a 0000
000003f0: 809d 4d47 fa2a 0000 0095 4d47 fa2a 0000
2.5e-44 0.0 5.98e-43 0.0 2.5e-44 0.0 6.2e-43 0.0
2.5e-44 0.0 6.45e-43 0.0 2.5e-44 0.0 6.49e-43 0.0
2.5e-44 0.0 6.96e-43 0.0 2.5e-44 0.0 7.74e-43 0.0
2.5e-44 0.0 8.24e-43 0.0 2.5e-44 0.0 8.44e-43 0.0
2.5e-44 0.0 8.53e-43 0.0 2.5e-44 0.0 8.58e-43 0.0
2.5e-44 0.0 8.86e-43 0.0 2.5e-44 0.0 9.35e-43 0.0
2.5e-44 0.0 1.055e-42 0.0 2.5e-44 0.0 1.061e-42 0.0
2.5e-44 0.0 1.14e-42 0.0 2.5e-44 0.0 1.17e-42 0.0
2.5e-44 0.0 1.212e-42 0.0 2.5e-44 0.0 1.243e-42 0.0
2.5e-44 0.0 1.246e-42 0.0 2.7e-44 0.0 5.7e-44 0.0
2.7e-44 0.0 6.2e-44 0.0 2.7e-44 0.0 7e-44 0.0
2.7e-44 0.0 9.1e-44 0.0 2.7e-44 0.0 6.05e-43 0.0
2.7e-44 0.0 6.3e-43 0.0 2.7e-44 0.0 6.47e-43 0.0
2.7e-44 0.0 6.52e-43 0.0 2.7e-44 0.0 7.02e-43 0.0
2.7e-44 0.0 8.32e-43 0.0 2.7e-44 0.0 8.44e-43 0.0
2.7e-44 0.0 8.58e-43 0.0 2.7e-44 0.0 8.62e-43 0.0
2.7e-44 0.0 9.18e-43 0.0 2.7e-44 0.0 9.5e-43 0.0
2.7e-44 0.0 9.73e-43 0.0 2.7e-44 0.0 1.045e-42 0.0
2.7e-44 0.0 1.06e-42 0.0 2.7e-44 0.0 1.089e-42 0.0
2.7e-44 0.0 1.1e-42 0.0 2.7e-44 0.0 1.12e-42 0.0
2.8e-44 0.0 1.05e-43 0.0 2.8e-44 0.0 2.03e-43 0.0
2.8e-44 0.0 2.3e-43 0.0 2.8e-44 0.0 2.37e-43 0.0
2.8e-44 0.0 2.73e-43 0.0 2.8e-44 0.0 3.84e-43 0.0
2.8e-44 0.0 7.33e-43 0.0 2.8e-44 0.0 8e-43 0.0
2.8e-44 0.0 8.02e-43 0.0 2.8e-44 0.0 8.04e-43 0.0
2.8e-44 0.0 8.58e-43 0.0 2.8e-44 0.0 8.65e-43 0.0
52655.5 1.5417e-41 4.037e-42 0.0 -3.9928988e+33 1.5414e-41 7.7231483e-32 0.0
7.7231483e-32 0.0 7.7231483e-32 0.0 52614.75 1.5417e-41 52645.25 1.5417e-41
52671.75 1.5417e-41 52615.75 1.5417e-41 52660.75 1.5417e-41 52612.75 1.5417e-41
52618.5 1.5417e-41 52622.0 1.5417e-41 52659.5 1.5417e-41 52634.75 1.5417e-41
52643.5 1.5417e-41 52637.0 1.5417e-41 52646.75 1.5417e-41 52608.75 1.5417e-41
52619.5 1.5417e-41 52623.25 1.5417e-41 52637.5 1.5417e-41 52629.0 1.5417e-41

b2 f4 [1, 100]
00000000: 0000 0000 0000 0000 0000 0000 0000 0000
00000010: 0000 0000 0000 0000 0000 0000 0000 0000
00000020: 0000 0000 0000 0000 0000 0000 0000 0000
00000030: 0000 0000 0000 0000 0000 0000 0000 0000
00000040: 0000 0000 0000 0000 0000 0000 0000 0000
00000050: 0000 0000 0000 0000 0000 0000 0000 0000
00000060: 0000 0000 0000 0000 0000 0000 0000 0000
00000070: 0000 0000 0000 0000 0000 0000 0000 0000
00000080: 0000 0000 0000 0000 0000 0000 0000 0000
00000090: 0000 0000 0000 0000 0000 0000 0000 0000
000000a0: 0000 0000 0000 0000 0000 0000 0000 0000
000000b0: 0000 0000 0000 0000 0000 0000 0000 0000
000000c0: 0000 0000 0000 0000 0000 0000 0000 0000
000000d0: 0000 0000 0000 0000 0000 0000 0000 0000
000000e0: 0000 0000 0000 0000 0000 0000 0000 0000
000000f0: 0000 0000 0000 0000 0000 0000 0000 0000
00000100: 0000 0000 0000 0000 0000 0000 0000 0000
00000110: 0000 0000 0000 0000 0000 0000 0000 0000
00000120: 0000 0000 0000 0000 0000 0000 0000 0000
00000130: 0000 0000 0000 0000 0000 0000 0000 0000
00000140: 0000 0000 0000 0000 0000 0000 0000 0000
00000150: 0000 0000 0000 0000 0000 0000 0000 0000
00000160: 0000 0000 0000 0000 0000 0000 0000 0000
00000170: 0000 0000 0000 0000 0000 0000 0000 0000
00000180: 0000 0000 0000 0000 0000 0000 0000 0000
0.0 0.0 0.0 0.0 0.0 0.0 0.0 0.0
0.0 0.0 0.0 0.0 0.0 0.0 0.0 0.0
0.0 0.0 0.0 0.0 0.0 0.0 0.0 0.0
0.0 0.0 0.0 0.0 0.0 0.0 0.0 0.0
0.0 0.0 0.0 0.0 0.0 0.0 0.0 0.0
0.0 0.0 0.0 0.0 0.0 0.0 0.0 0.0
0.0 0.0 0.0 0.0 0.0 0.0 0.0 0.0
0.0 0.0 0.0 0.0 0.0 0.0 0.0 0.0
0.0 0.0 0.0 0.0 0.0 0.0 0.0 0.0
0.0 0.0 0.0 0.0 0.0 0.0 0.0 0.0
0.0 0.0 0.0 0.0 0.0 0.0 0.0 0.0
0.0 0.0 0.0 0.0 0.0 0.0 0.0 0.0
0.0 0.0 0.0 0.0

q f4 [32, 1]
00000000: 4eba db3e 9fcb 03bd ef7c e23d 27af 1bbe
00000010: ba9e 4bbe 99ba e03e 3a0a 153e b423 c33e
00000020: c5a7 753d 1302 8fbe 6676 6bbe 26f1 6f3d
00000030: d18b 71be 48d2 5dbe 3f69 7fbd 15e0 31be
00000040: 6cb0 953e aeee d7bd 1db8 0e3e d1fc b33e
00000050: 0774 803d d1c4 2a3e 67f8 51be 7f0c 503e
00000060: 00e8 d8be 1295 9cbd fe9f 9a3d 36ef cb3d
00000070: 9ba9 14be 31ee b33e 2e34 753d a5a1 5cbe
0.42915577 -0.03217661 0.110589854 -0.15203534 -0.19884768 0.43892363 0.14554682 0.38113177
0.05997445 -0.2793127 -0.22994384 0.058579586 -0.23588492 -0.21662247 -0.06235623 -0.17370637
0.29236162 -0.105435714 0.13937421 0.3515382 0.062721305 0.16676642 -0.20504914 0.20317267
-0.42364502 -0.076456204 0.07550047 0.09957735 -0.14517824 0.35142663 0.059864216 -0.21546037

k f4 [32, 1]
00000000: 3ab3 4f3d 7613 bdbe f5b4 97be 8e16 fb3d
00000010: e18e b23e 241c 7f3e 5d71 403e 3c8a 5b3e
00000020: 819e cfbe ed5f 0a3e 3ea6 6abc e679 b93e
00000030: e105 a1bc a373 84be a746 61be 1fce 4ebd
00000040: 6817 253e 5f31 b23e c085 89be 3d3f aebe
00000050: 4c84 94bd c021 323e f9da 6c3e d4dc 84be
00000060: 113b e9bb dfec c93b 39da 8cbd 25db a53e
00000070: 3496 a5be d099 e1bd bc0a 863e 8bfb 42be
0.050708033 -0.3692891 -0.29630247 0.12260161 0.34874633 0.24913079 0.18793245 0.21439451
-0.40550616 0.13513155 -0.014321862 0.36225814 -0.019656124 -0.25869474 -0.21999608 -0.05048954
0.1612221 0.34803292 -0.26859856 -0.34032622 -0.07251796 0.17395687 0.23130406 -0.25949728
-0.007117637 0.0061622704 -0.0687756 0.32393757 -0.32341158 -0.110156655 0.26180065 -0.19041269

weight f4 [2, 100, 32]
00000000: 217d 37be 6d13 db3d 4608 09be c28a 41be
00000010: 41c8 bfbd a329 02bb 1759 47bb 7953 16be
00000020: 67bc 4bbd 3e7c 8d3c bf20 18be 9ab0 27be
00000030: 008c b5bb f2f2 62be a4a3 ea3d 70cb 54bd
00000040: ecb9 313d 2e44 123d 87f5 1a3e 23c0 273e
00000050: 4d98 ca3b c220 303e 269a 113d c400 f83c
00000060: 4945 16be c840 55be 9ce1 e33b 0847 b4bd
00000070: 7b95 9cbd 32d4 2fbe 6781 6d3d ce9e 40bd
00000080: ec41 303d 2d8e ffbd b20d 34be ecad e6bb
00000090: eea5 93bd 9bda 00be e5fc 1abe 712f 24be
000000a0: 3259 483d 61f6 68bc ae1e c03c b0ef febd
000000b0: 87b3 81bd 241e 463e ef27 5f3d 51fd 5a3d
000000c0: 6273 2cbe f98e 42bd 1eba f0bd 2f1a abbd
000000d0: 9e44 f93d d80e 233e e960 9d3d 2341 e53c
000000e0: b541 233e 902f 48be d08b 49be 54e5 39be
000000f0: 189f 21be 726a 1c3e 3dcd 333c d7db 95bd
00000100: 6797 02bd 82a7 443c 578c 3a3e 1553 83be
00000110: 0bed a3bd b324 b93d 7ef0 3d3e 3ccb 243d
00000120: 060a 623d e343 13be 0054 b03d 0f69 133e
00000130: fcb0 113e fd18 f33d 4575 683e 42a4 fa3d
00000140: 4320 4fbe 6673 03be ea30 d3bc ecd7 26be
00000150: eceb a03d 00c9 55be 76c4 ac3d 3cc7 ba3d
00000160: 1d19 093e 87de 2abe e0de 13bd 803b a63d
00000170: 6c75 86bd c48e 273c d96f 1d3e 1124 7cbd
00000180: 78f8 57bd c487 2ebe 7dc1 8a3d 8222 9ebd
00000190: 7757 ffbd d3bf d6bd 6095 98bd 8fed df3d
000001a0: a34c 34be 6371 9e3d 00ff 253e fa01 0bbe
000001b0: f40c 0dbe 0c7a cabd db69 103e 641d 2b3e
000001c0: 87c0 c1bd 1327 f3bd abf8 f1bd c930 d5bd
000001d0: 2ae9 e13c 714e 7bbd fb14 193e 272d 4a3e
000001e0: 7a75 48be e0cc b9bd 2eac e7bd e579 5bbe
000001f0: 22be 573d 9e0e 45bd c9a3 ec3d f334 35be
00000200: d543 05be 78c0 11bd f614 9cbd 4d28 de3d
00000210: 3f2b 20bd 1c22 2fbe 5c76 5d3b d7b9 253d
00000220: 03fe b63d e683 88bd f0d4 ed3d ed0e e03b
00000230: affb 49be 47c2 dfbd 140a 47be 65dd e63c
00000240: 9603 373d afa2 9e3c 6cc2 95bc 1d67 c83d
00000250: b552 1bbe 369f 1e3e 6ea3 2c3e c9dc 3bbe
00000260: 78f6 383b 9adb fa3d dc13 af3c 279e 393e
00000270: 38b3 4d3e a98a 3cbe ee91 163e accf ecbd
00000280: 49dc 03be 3b29 1fbe 3da3 ffbd c962 04bd
00000290: a089 4abd f6df a8bb b0e0 8a3d ecef d3bd
000002a0: dd63 623d 43cf da3d c570 6c3d f300 b9bd
000002b0: ab85 6bbe 784c 47be c2ae c4bc f4a4 a0bd
000002c0: ff8b 143e ff0f 51bd 8ec3 0ebe 7aef e4bd
000002d0: 1e8a 1dbd d0b8 4fbe 9e04 52be 60c1 90bd
000002e0: 47b4 253c 14fa 52bd 4a3b 2bbe f916 633d
000002f0: ce78 10be 9a77 00bd 93e7 073e f54e c5bd
00000300: f536 033e 54dd 063e f324 223e d5d6 2f3e
00000310: 9db4 b03d 829d 823d a701 05bd 7fce 323e
00000320: ab73 bcbd ade6 813d f151 86bd 88b5 293c
00000330: 5734 57bc 882e e1bd cb1a 24bd fe47 a9bd
00000340: c237 5abd f37e 493e 7970 9ebd bb93 db3d
00000350: 9b9f c03d ec53 25be c350 b83a 9416 d7bc
00000360: 6298 94bc c494 393e 0852 a6bd 26ec eabd
00000370: d349 4a3c de95 c63d e79f 363e be7a b43c
00000380: bfb1 f8bc 48ab d33d 5658 813d 1dfa 173e
00000390: 2015 0d3e e85a 26be 835f 50be 409d 47be
000003a0: c4ea 8f3d 1eaa 5cbd b8d7 07be 480f 41be
000003b0: 59e7 6e3e 1f34 433d c1d0 60bd 1862 50bd
000003c0: 03e5 3ebd 542f f63d bfc0 20be bc36 ce3d
000003d0: c685 213e e9c5 f23d 9839 d53b 16a3 c13d
000003e0: 3067 66bc a193 f53d 9964 df3c dc74 22be
000003f0: 7a11 913c e937 993d a994 c1bc 6fe6 1dbe
-0.17918827 0.106970645 -0.13382062 -0.18900588 -0.09364367 -0.0019861243 -0.0030418092 -0.1468028
-0.04974022 0.017271157 -0.14856242 -0.16375962 -0.005540371 -0.22162989 0.11456993 -0.051951826
0.0433902 0.035709552 0.15132724 0.16381888 0.0061827064 0.17199996 0.035547398 0.030273803
-0.14674868 -0.20825493 0.006954385 -0.08802611 -0.07645699 -0.1717079 0.057984736 -0.047026448
0.043031618 -0.1247829 -0.1758335 -0.007039776 -0.07209383 -0.12583391 -0.15135534 -0.16033722
0.04891319 -0.014218898 0.02345213 -0.124480605 -0.0633307 0.19347435 0.054481443 0.053464238
-0.1684089 -0.04749963 -0.11754249 -0.083546035 0.12171291 0.15923631 0.076845 0.027985161
0.15943034 -0.19549394 -0.1968224 -0.18153888 -0.15783346 0.1527498 0.010974226 -0.07317322
-0.03188267 0.012002828 0.18217598 -0.25649324 -0.08004197 0.09040203 0.18548772 0.040232882
0.05518534 -0.14381365 0.08609772 0.14395545 0.1422767 0.118700005 0.22700985 0.12238361
-0.2022715 -0.1283699 -0.02578016 -0.16293305 0.078574985 -0.20877457 0.084359095 0.09120032
0.13388486 -0.1668645 -0.036101222 0.081168175 -0.06565365 0.010226909 0.15374698 -0.061557833
-0.052727193 -0.17043978 0.06775186 -0.077214256 -0.124678545 -0.10485806 -0.07450366 0.109339826
-0.1760736 0.077364706 0.16210556 -0.13574973 -0.13774472 -0.0988656 0.1410288 0.1671043
-0.0946055 -0.11872687 -0.11815008 -0.10409696 0.027577002 -0.061354104 0.1494941 0.19743787
-0.19576064 -0.0907228 -0.113121375 -0.21433218 0.05267156 -0.048109643 0.11554677 -0.1769598
-0.13014157 -0.035583943 -0.076211855 0.108475305 -0.039103743 -0.17102855 0.0033792472 0.040460434
0.08935168 -0.06665783 0.1161288 0.006837717 -0.19724916 -0.10925727 -0.19437438 0.028181741
0.044681154 0.019364683 -0.018281184 0.09785292 -0.15168269 0.15490422 0.16859218 -0.18345942
0.0028223079 0.12248917 0.021371774 0.18126737 0.20087898 -0.1841227 0.14704105 -0.11563048
-0.12877001 -0.15543072 -0.12482307 -0.03232077 -0.049447656 -0.0051536513 0.06781137 -0.10348496
0.05527102 0.10684063 0.057724733 -0.09033384 -0.23000209 -0.19462764 -0.024009112 -0.07843962
0.1450653 -0.051040646 -0.13941786 -0.11178489 -0.038461797 -0.20285344 -0.20509574 -0.07068133
0.010113782 -0.051508024 -0.16721836 0.05544183 -0.14108583 -0.03136406 0.13271932 -0.096342005
0.12813933 0.13170367 0.15834408 0.17171796 0.08628199 0.063776985 -0.03247228 0.17461585
-0.092017494 0.06342826 -0.06558598 0.010358222 -0.013135037 -0.10995203 -0.040064614 -0.082656845
-0.05327583 0.19677334 -0.07736296 0.10721537 0.09405442 -0.16145295 0.0014062155 -0.026255883
-0.018139068 0.18123156 -0.08121115 -0.11470823 0.012346703 0.09696554 0.17834435 0.022031184
-0.030358193 0.10335404 0.06315677 0.14841504 0.1377759 -0.16245615 -0.20348935 -0.1949358
0.070272 -0.053873174 -0.13265884 -0.18853486 0.2333044 0.04765713 -0.054886583 -0.0508748
-0.04660512 0.12020746 -0.15698527 0.100690335 0.15773687 0.118541546 0.00650711 0.09454934
-0.014062688 0.119910486 0.027269648 -0.15864891 0.017708529 0.07481367 -0.023630457 -0.15419935

w f4 [32]
00000000: 0000 803f 0000 803f 0000 803f 0000 803f
00000010: 0000 803f 0000 803f 0000 803f 0000 803f
00000020: 0000 803f 0000 803f 0000 803f 0000 803f
00000030: 0000 803f 0000 803f 0000 803f 0000 803f
00000040: 0000 803f 0000 803f 0000 803f 0000 803f
00000050: 0000 803f 0000 803f 0000 803f 0000 803f
00000060: 0000 803f 0000 803f 0000 803f 0000 803f
00000070: 0000 803f 0000 803f 0000 803f 0000 803f
1.0 1.0 1.0 1.0 1.0 1.0 1.0 1.0
1.0 1.0 1.0 1.0 1.0 1.0 1.0 1.0
1.0 1.0 1.0 1.0 1.0 1.0 1.0 1.0
1.0 1.0 1.0 1.0 1.0 1.0 1.0 1.0

l1 f4 [1, 32]
00000000: 0000 803f 0000 803f 0000 803f 0000 803f
00000010: 0000 803f 0000 803f 0000 803f 0000 803f
00000020: 0000 803f 0000 803f 0000 803f 0000 803f
00000030: 0000 803f 0000 803f 0000 803f 0000 803f
00000040: 0000 803f 0000 803f 0000 803f 0000 803f
00000050: 0000 803f 0000 803f 0000 803f 0000 803f
00000060: 0000 803f 0000 803f 0000 803f 0000 803f
00000070: 0000 803f 0000 803f 0000 803f 0000 803f
1.0 1.0 1.0 1.0 1.0 1.0 1.0 1.0
1.0 1.0 1.0 1.0 1.0 1.0 1.0 1.0
1.0 1.0 1.0 1.0 1.0 1.0 1.0 1.0
1.0 1.0 1.0 1.0 1.0 1.0 1.0 1.0

b1 f4 [1, 32]
00000000: 0000 0000 0000 0000 0000 0000 0000 0000
00000010: 0000 0000 0000 0000 0000 0000 0000 0000
00000020: 0000 0000 0000 0000 0000 0000 0000 0000
00000030: 0000 0000 0000 0000 0000 0000 0000 0000
00000040: 0000 0000 0000 0000 0000 0000 0000 0000
00000050: 0000 0000 0000 0000 0000 0000 0000 0000
00000060: 0000 0000 0000 0000 0000 0000 0000 0000
00000070: 0000 0000 0000 0000 0000 0000 0000 0000
0.0 0.0 0.0 0.0 0.0 0.0 0.0 0.0
0.0 0.0 0.0 0.0 0.0 0.0 0.0 0.0
0.0 0.0 0.0 0.0 0.0 0.0 0.0 0.0
0.0 0.0 0.0 0.0 0.0 0.0 0.0 0.0

l2 f4 [32, 32]
00000000: 7043 4d58 0000 0000 0000 0000 0000 0000
00000010: 0000 0000 0000 0000 0000 0000 0000 0000
00000020: 0000 0000 0000 0000 0000 0000 0000 0000
00000030: 0000 0000 0000 0000 f10f 0000 0000 0000
00000040: f01b 5955 0000 0000 c022 225a 0000 0000
00000050: 0000 0000 0000 0000 0000 0000 0000 0000
00000060: 90a8 185a 0000 0000 d07c 6e5a 0000 0000
00000070: 00bd 4d5b 0000 0000 158b 0100 0000 0000
00000080: 1e00 0000 0000 0000 0100 0000 0000 0000
00000090: 0100 0000 0000 0000 0000 0000 0000 0000
000000a0: 0000 0000 0000 0000 0000 0000 0000 0000
000000b0: 0000 0000 0000 0000 0000 0000 0000 0000
000000c0: 20f7 b15a 0000 0000 38f7 b15a 0000 0000
000000d0: 38f7 b15a 0000 0000 0000 0000 0000 0000
000000e0: 0000 0000 0000 0000 0000 0000 0000 0000
000000f0: 0000 0000 0000 0000 0000 0000 0000 0000
00000100: 0000 0000 0000 0000 0000 0000 0000 0000
00000110: 0000 0000 0000 0000 88a6 185a 0000 0000
00000120: 0100 0000 0000 0000 0000 0000 0000 0000
00000130: 0000 0000 0000 0000 0000 803f 0000 0000
00000140: 0000 0000 0000 0000 0000 0000 0000 0000
00000150: 0000 0000 0000 0000 0000 0000 0000 0000
00000160: 0000 0000 0000 0000 b8a6 185a 0000 0000
00000170: 0100 0000 0200 0000 0100 0600 0000 1c00
00000180: d0a6 185a 0000 0000 0200 0000 0500 0000
00000190: 3036 0000 0000 0000 0100 0000 0000 0000
000001a0: 0000 0000 0000 0000 0000 0000 0000 0000
000001b0: 0000 0000 0000 0000 0000 0000 0000 0000
000001c0: 0100 0000 0000 0000 0000 0000 0000 0000
000001d0: 0000 0000 0000 0000 0000 0000 0000 0000
000001e0: 0000 0000 0000 0000 0000 0000 0000 0000
000001f0: 0000 0000 0000 0000 0000 0000 0000 0000
00000200: 0000 0000 0000 0000 0000 0000 0000 0000
00000210: 0000 0000 0000 0000 0000 0000 0000 0000
00000220: 0000 0000 0000 0000 0000 0000 0000 0000
00000230: 0000 0000 0000 0000 c02f 225a 0000 0000
00000240: d02f 225a 0000 0000 d02f 225a 0000 0000
00000250: 0000 0000 0000 0000 6098 25e6 f92a 0000
00000260: 0000 0000 0000 0000 0000 0000 0000 0000
00000270: 0000 0000 0000 0000 0000 0000 0000 0000
00000280: 0000 0000 0000 0000 0000 0000 0000 0000
00000290: 0000 0101 0000 0000 0000 0000 0000 0000
000002a0: 0000 0000 0000 0000 0000 0000 0000 0000
000002b0: 0000 0000 0000 0000 0000 0000 0000 0000
000002c0: 9002 0000 0000 0000 3000 0000 0000 0000
000002d0: 20b9 245b 0000 0000 0000 0000 0000 0000
000002e0: 307a ed97 f92a 0000 f09e c55a 0000 0000
000002f0: 3f03 0000 0000 003f 2100 0000 0000 0000
00000300: d0ba 245b 0000 0000 d0fb f65b 0000 0000
00000310: e002 0000 0000 0000 4000 0000 0000 0000
00000320: 50df 2b5b 0000 0000 0000 0000 0000 0000
00000330: 0000 0000 0000 0000 0000 0000 0000 0000
00000340: 0000 0000 0000 0000 0000 0000 0000 0000
00000350: 9000 0000 0000 0000 d10c 0000 0000 0000
00000360: 20a9 035a 0000 0000 f01b 5955 0000 0000
00000370: 0000 0000 0000 0000 0000 0000 0000 0000
00000380: 1f00 0000 0000 0000 0100 0000 0000 0000
00000390: 0100 0000 0000 0000 0000 0000 0000 0000
000003a0: 0000 0000 0000 0000 0000 0000 0000 0000
000003b0: 0000 0000 0000 0000 0000 0000 0000 0000
000003c0: 8092 595b 0000 0000 b092 595b 0000 0000
000003d0: b092 595b 0000 0000 0000 0000 0000 0000
000003e0: 0000 0000 0000 0000 0000 0000 0000 0000
000003f0: 0000 0000 0000 0000 0000 0000 0000 0000
9.027581e+14 0.0 0.0 0.0 0.0 0.0 0.0 0.0
0.0 0.0 0.0 0.0 0.0 0.0 5.719e-42 0.0
1.4919626e+13 0.0 1.1409289e+16 0.0 0.0 0.0 0.0 0.0
1.0742383e+16 0.0 1.6782069e+16 0.0 5.791018e+16 0.0 1.41729e-40 0.0
4.2e-44 0.0 1e-45 0.0 1e-45 0.0 0.0 0.0
0.0 0.0 0.0 0.0 0.0 0.0 0.0 0.0
2.5046394e+16 0.0 2.5046445e+16 0.0 2.5046445e+16 0.0 0.0 0.0
0.0 0.0 0.0 0.0 0.0 0.0 0.0 0.0
0.0 0.0 0.0 0.0 0.0 0.0 1.0741825e+16 0.0
1e-45 0.0 0.0 0.0 0.0 0.0 1.0 0.0
0.0 0.0 0.0 0.0 0.0 0.0 0.0 0.0
0.0 0.0 1.0741876e+16 0.0 1e-45 3e-45 5.51014e-40 2.571394e-39
1.0741902e+16 0.0 3e-45 7e-45 1.9439e-41 0.0 1e-45 0.0
0.0 0.0 0.0 0.0 0.0 0.0 0.0 0.0
1e-45 0.0 0.0 0.0 0.0 0.0 0.0 0.0
0.0 0.0 0.0 0.0 0.0 0.0 0.0 0.0
0.0 0.0 0.0 0.0 0.0 0.0 0.0 0.0
0.0 0.0 0.0 0.0 0.0 0.0 1.1412862e+16 0.0
1.1412879e+16 0.0 1.1412879e+16 0.0 0.0 0.0 -1.9550032e+23 1.5416e-41
0.0 0.0 0.0 0.0 0.0 0.0 0.0 0.0
0.0 0.0 0.0 0.0 2.3693558e-38 0.0 0.0 0.0
0.0 0.0 0.0 0.0 0.0 0.0 0.0 0.0
9.19e-43 0.0 6.7e-44 0.0 4.6365443e+16 0.0 0.0 0.0
-1.534661e-24 1.5416e-41 2.7812662e+16 0.0 1.164e-42 0.5 4.6e-44 0.0
4.63673e+16 0.0 1.3903943e+17 0.0 1.031e-42 0.0 9e-44 0.0
4.8377756e+16 0.0 0.0 0.0 0.0 0.0 0.0 0.0
0.0 0.0 0.0 0.0 2.02e-43 0.0 4.598e-42 0.0
9.264794e+15 0.0 1.4919626e+13 0.0 0.0 0.0 0.0 0.0
4.3e-44 0.0 1e-45 0.0 1e-45 0.0 0.0 0.0
0.0 0.0 0.0 0.0 0.0 0.0 0.0 0.0
6.124115e+16 0.0 6.1241355e+16 0.0 6.1241355e+16 0.0 0.0 0.0
0.0 0.0 0.0 0.0 0.0 0.0 0.0 0.0

b2 f4 [1, 32]
00000000: 0000 0000 0000 0000 0000 0000 0000 0000
00000010: 0000 0000 0000 0000 0000 0000 0000 0000
00000020: 0000 0000 0000 0000 0000 0000 0000 0000
00000030: 0000 0000 0000 0000 0000 0000 0000 0000
00000040: 0000 0000 0000 0000 0000 0000 0000 0000
00000050: 0000 0000 0000 0000 0000 0000 0000 0000
00000060: 0000 0000 0000 0000 0000 0000 0000 0000
00000070: 0000 0000 0000 0000 0000 0000 0000 0000
0.0 0.0 0.0 0.0 0.0 0.0 0.0 0.0
0.0 0.0 0.0 0.0 0.0 0.0 0.0 0.0
0.0 0.0 0.0 0.0 0.0 0.0 0.0 0.0
0.0 0.0 0.0 0.0 0.0 0.0 0.0 0.0

weight f4 [200, 32]
00000000: 82ac e2be 16d3 743e ca53 193e f33b e43e
00000010: 5eb8 0e3e b558 a7be 129b d6be 0d6c dcbe
00000020: efb9 29be 8e13 663e f46e 98be 6b17 c53e
00000030: b8e5 df3e 08b9 ad3e 0dc8 023e 5beb dc3e
00000040: 7dd0 cfbb a460 92be fc09 e0be 7a72 073e
00000050: 3bb1 a63e c88f a2be 257c 59be cca9 233e
00000060: 67f3 a23e d3c1 9e3d 6ba5 b7be d525 b1bd
00000070: ffd7 b23e d3c0 c03e 7e01 30be 673a 923e
00000080: 5d50 de3d 63e5 83be fc70 86bd be1a dc3d
00000090: b2e0 b0be acc4 b53e 46fb 9d3d b68e 76be
000000a0: 1092 1b3c 19e9 dd3e ff1d c93e bd35 543d
000000b0: b9c6 0fbe c595 acbe 063b 253d 288f 68be
000000c0: 4fcf d73d 1d27 5ebe cd56 e43d c1e0 d13d
000000d0: 8225 43be 2bc7 123e 28a5 79be ff84 ab3e
000000e0: 9d46 3c3e 1639 8bbe e237 303e c6c7 c1bd
000000f0: 05c9 d3bd 0a8b 533e 0a86 343e c5de c1bd
00000100: 525f 6a3e 563d 1b3e a31d fdbd 858f 1bbe
00000110: e8d6 a03e 3239 a23e 3150 1cbb 0561 54bd
00000120: 1699 ecbd 0e94 1cbe 337d a13e 247d 7f3e
00000130: b08f 1c3e a3f6 c93d d1b1 a3bd 078b 20bc
00000140: fc5f 22be 4a03 bc3d 7ed3 f9bd 7f6f bcbb
00000150: 6d7c 88be 1747 edbc dda0 a53e a617 2e3e
00000160: 27fd 81be 5376 36be 45d4 683c 15c7 8dbd
00000170: a3b0 6d3e adc8 4abd db4f ac3d 6f06 3b3d
00000180: c476 3ebe f865 3abd 43e4 293e c27e 173e
00000190: b142 9fbc 2eeb 39bd 9d06 9fbd 145d 803c
000001a0: 3c9b 02bd 3359 3abd 2257 b63c c9e0 e4bc
000001b0: 2b7f 01bc 2b47 01be 01fb f7bd 8ff2 55bc
000001c0: 7815 88bd e483 243d 7f0f 133e e391 28be
000001d0: de8c 2d3e 3008 3d3c 2153 86bd 8a45 40bd
000001e0: 2939 dbbd 6cc3 3a3e 5116 fd3d 9942 82bd
000001f0: 3997 0b3e ec97 5b3e a591 33bd 00ca bf3c
00000200: 9b59 393e de49 ea3d 9244 c43d 915e 2c3e
00000210: 2ce5 49be a909 8c3e 8367 8fbe 9199 11be
00000220: 4cbd dbbc 1f3a 2abd 45eb d43d 322b 803e
00000230: 0dce 96bc f5fc 0b3e bd05 2c3e c54d 9dbe
00000240: 0938 79bd cade 62bd eb5c a4be 90b9 51be
00000250: 4cb5 5a3e 0af6 ce3c 151a 8a3e a5cd 073e
00000260: 8aec 9cbe 6b99 f73a 953d 973d 0b21 4bbe
00000270: 67f5 433e 329c d83c 5cdf 36be d784 c7bd
00000280: 803b 7d3e 9f9b f43c 3590 1fbd 5d6a 81be
00000290: 8bf6 973e caf1 a83e 73c6 96bd b324 5fbe
000002a0: e94b c93c a4ef c4bd 2b0a b43d c02d 923e
000002b0: 11eb d03d c874 dfbc ec71 ba3d 23f8 24bd
000002c0: 0870 51bd 0fb4 4a3d 4247 b5bc 44eb 17bc
000002d0: 513d b1be 558d 703c d96e 893e e5c6 1a3e
000002e0: a61a d2bd d1ce ff3c f3d3 c9bd ffbb d1bd
000002f0: 2191 553e f0f4 36be 2cc4 a23c 741a 61bc
00000300: 469f c23d 4a82 2fbd 2e0e 09be f9f6 a0bd
00000310: fdfb b83d 992a 463d a6bf 673e da6f 0f3e
00000320: 725e d4bc 6eda 4d3c d3af ad3d 0fff 99bd
00000330: eb00 623e e1d1 d53d 386f 693d e48b d23e
00000340: 56b6 a7be 0413 40bd fc5f 67bd 6025 d43e
00000350: fa2d adbe e5a3 b8bc 8840 033d 436e 05bc
00000360: ca1c 613e f2ca 8ebe ced2 29be 2587 e23e
00000370: 6f84 7abe 7fa6 2abb a3aa 8f3e 8d03 fbbd
00000380: b017 1a3e 852a 063e 9ca6 e2bc 3b73 263d
00000390: fee5 853d cbe0 463e a473 963d 9e96 10be
000003a0: be1c 0f3e 0071 cdbd 2844 c03d bf5f fd3d
000003b0: b032 02be f5e4 293e 93dc 513e e8be 7bbe
000003c0: 53d0 783e 7fec fe3d 5988 fabd b22d d0bd
000003d0: 419c e13d 7bc0 8e3d fa58 af3d df0c 87bd
000003e0: 3c45 6cbd c380 613d 7f86 2abe 3a66 a7be
000003f0: 8ae8 63be eb0a 903d e5e2 06bd f9e1 11be
-0.44272238 0.23908648 0.14973369 0.44576988 0.13937518 -0.32684866 -0.41915184 -0.43051186
-0.16574834 0.22468397 -0.2977215 0.3849443 0.4372995 0.3393023 0.12771626 0.43148312
-0.0063419924 -0.28589356 -0.43757617 0.13227263 0.3255709 -0.3175032 -0.21238764 0.15982741
0.31826326 0.07751813 -0.3586839 -0.08649794 0.34930417 0.37647113 -0.17188069 0.28560182
0.10855172 -0.25760946 -0.06564519 0.10747288 -0.3454643 0.3550161 0.07713942 -0.24077877
0.009495273 0.43341902 0.39280698 0.05180906 -0.1404065 -0.33708015 0.040339492 -0.2271086
0.10537588 -0.21694608 0.111493684 0.102479465 -0.19057277 0.14333789 -0.24379408 0.33499905
0.18386312 -0.2719199 0.17208818 -0.09461932 -0.10341076 0.20658508 0.17629257 -0.09466318
0.22887924 0.15160117 -0.123591684 -0.15191467 0.3141396 0.31684262 -0.0023851509 -0.051850338
-0.11552636 -0.15290853 0.31540832 0.24950081 0.15289187 0.09861495 -0.079929 -0.009798772
-0.15856928 0.09180315 -0.12198542 -0.005750596 -0.2665743 -0.028964562 0.3234929 0.17001209
-0.25388452 -0.17818575 0.014210765 -0.069227375 0.23211913 -0.049507786 0.08413669 0.045660432
-0.18599993 -0.0455074 0.16590981 0.14794448 -0.01944098 -0.0453903 -0.07764933 0.015669383
-0.031886324 -0.045495223 0.022258345 -0.027939217 -0.007903854 -0.12624805 -0.12108422 -0.013058319
-0.0664472 0.040164843 0.1436138 -0.16461901 0.16948268 0.011537597 -0.06558824 -0.046941318
-0.10704262 0.1823861 0.12357772 -0.06360359 0.13631906 0.21444672 -0.04384007 0.02341175
0.18100588 0.1143987 0.09583391 0.16832949 -0.19716328 0.2735112 -0.2800866 -0.14218737
-0.026823662 -0.041559335 0.103964366 0.25032955 -0.0184088 0.13670714 0.16799064 -0.30723396
-0.060844455 -0.05538825 -0.3210214 -0.20480943 0.21358222 0.025263805 0.26973024 0.13262041
-0.30649215 0.0018890327 0.07384793 -0.19836824 0.19136582 0.026441667 -0.17858642 -0.09742134
0.24729729 0.029859362 -0.038955886 -0.2527646 0.29680285 0.3299697 -0.0736207 -0.21791343
0.02457233 -0.0961602 0.08791002 0.2855053 0.10201085 -0.027277365 0.0910376 -0.040275704
-0.051132232 0.049488124 -0.022128705 -0.0092724 -0.34617093 0.014682134 0.26842383 0.15114935
-0.10258989 0.031226547 -0.09854879 -0.102409355 0.20856144 -0.17866874 0.019868933 -0.013739217
0.09503035 -0.042848863 -0.13384315 -0.07859606 0.09032438 0.048380468 0.22631702 0.14007512
-0.025923941 0.012564285 0.084808014 -0.07519352 0.22070663 0.10440422 0.056990832 0.41122353
-0.327563 -0.046893135 -0.056488022 0.41434765 -0.3382414 -0.022539089 0.032043964 -0.008143964
0.21983638 -0.2788921 -0.16584322 0.44243732 -0.24464582 -0.002603918 0.28059873 -0.12256537
0.15048099 0.13102157 -0.027667336 0.040637236 0.06538008 0.19421689 0.073462754 -0.14119956
0.13975808 -0.10031319 0.09388 0.12371778 -0.12714648 0.16591246 0.20494299 -0.24584544
0.2429822 0.12447452 -0.122330375 -0.10164966 0.11016131 0.069703065 0.08561893 -0.06594252
-0.057683215 0.055054437 -0.16652869 -0.3269518 -0.22256675 0.070333324 -0.032931227 -0.14246358

bias f4 [200]
00000000: 6917 0a3f 49f2 543e 5dc7 45be 92e8 72bc
00000010: 05aa 733e db64 42be 4d94 7fbe 25d3 923d
00000020: 498f 72bb 76e9 873b 23cc 9ebd b030 4cbd
00000030: 6255 a63b b4af 6c3d b42f f43d 8342 413e
00000040: 8b62 4ebe 3835 b5bc a9d6 743d fafc e9bd
00000050: e8a6 a7bd 5af7 bdbd 06c9 7a3c d42a d1bd
00000060: 2413 3dbd a9bf 293e 91a4 1ebc 7900 353e
00000070: 56e0 8fbb 2471 fcbc 5c45 ed3d 94f0 30be
00000080: 76ef bbbd 67ee 83bd c1e0 9dbd f066 42be
00000090: 69d3 f13d c8c7 c8bc 693e 5ebd cd87 98bb
000000a0: ec63 b83c 361f 70bd 276a 03bd 26ed 25be
000000b0: 6e91 babd 5908 f0bd 15ff 06be 6ff9 8c3d
000000c0: 2d6a 0e3d 370d 79bd 9d50 5a3d 353a 503d
000000d0: caec 0ebd 04d0 f6bd 3ca6 22bd 1f21 68bc
000000e0: 3148 833d 2423 033e b3c3 a5bc 2381 f23d
000000f0: f87d 3c3e b51e 29bd ecaa dcbc 3af4 31be
00000100: 3295 a53d 1970 613e 4d8e 2abd b46b 843d
00000110: cce5 ef3c 2bc7 17bd d2fa ec3c 4179 d53d
00000120: 93d8 463d ff31 b7bd 7785 ccbc ca27 22bc
00000130: ec0a bf3d 86f4 88bd b3e0 09be d8a8 23bd
00000140: 4e15 ccbc caef ce3c e635 86bd 6db9 7dbd
00000150: 90d0 ccbd 80cc c4bd f5c5 4b3b fabe 21bd
00000160: bcc4 7d3d 7305 c7bd 771a dcbd a0e4 3cbe
00000170: fd3f 3abd 6e9e dbbc 6bed 953d 059d 3cbd
00000180: b86d 183d ed9b 083c c32e 32bd c624 0a3c
00000190: f35d 06be 093a 2d3d 3899 b13c 9350 803d
000001a0: f8a3 8abc 27a2 143e 4ba4 f13c 8bb7 81bd
000001b0: cbce 86bd 8ca3 98bd e2d6 343d 6327 61bd
000001c0: 842c 0cbd 7bd7 e53c 1cac 34bd 8497 c4bd
000001d0: 41d1 583c e3b8 a8bb 367a 6cbd 4ae9 0e3e
000001e0: 3315 9c3d f880 4cbe b6df eebb 8afa 7abe
000001f0: d260 183b 9d03 aabc 2fce a63d 26d1 74bd
00000200: 77e3 d23d bf7a 1bbe 651e a63c abac 79bd
00000210: 86d5 b23c 88dc 72bc 8436 303e a1ad ecbd
00000220: c30a b13d 0d6c 28be 6158 c03c 4130 cbbc
00000230: 5c45 02be 3eff 553d bf3b 54bc b25d 1f3e
00000240: 9659 4f3d 5880 dfbd a0c8 0bbe b24e 97bd
00000250: ba1e 64bc 6988 06be 60b7 38bc 0d94 3dbd
00000260: f90c df3d 8344 723e 54d8 dabd 71fd d23d
00000270: fa03 1fbd 7e8c fdbd 04c0 97bd 9c71 1a3d
00000280: 6a88 0f3d db2f c0bd 0c75 2d3c bc03 293c
00000290: 3fa0 ff3d 1eda a9bc 46c9 4fbd 8e77 0bbe
000002a0: b51b da3d e80a e83d eb7b 68bd b2f3 4ebd
000002b0: d24d afbd 6fdd df3d 0e7c 413d 5732 e23c
000002c0: db1d 07bd fce3 013e 4fe7 0d3c 4710 273d
000002d0: db02 cb3c dfe5 75bd fcb7 23be 25c7 48bc
000002e0: b1d9 29bc 4ada 17be 4900 e5bd 3424 1abe
000002f0: 235e 86bd e277 843d 7903 723a b690 30bd
00000300: 67cc 0ebd c27f f4bd 24f7 21be ecd1 a93d
00000310: 4055 b5bd 0c8d 11bd 9508 a7bd 4b8e 383e
0.5394197 0.2079555 -0.19314332 -0.014825957 0.23795326 -0.18983786 -0.24958916 0.07169179
-0.0037011674 0.0041477038 -0.0775378 -0.04985112 0.0050760964 0.05778475 0.11923161 0.18873028
-0.20154779 -0.022120103 0.05977503 -0.114252046 -0.08186132 -0.09275694 0.015306717 -0.10213247
-0.046160832 0.16577019 -0.00968279 0.17675962 -0.0043907566 -0.030815668 0.11585495 -0.17279273
-0.09176533 -0.06441956 -0.07708884 -0.1898458 0.118079014 -0.024509326 -0.054258738 -0.0046548606
0.022508584 -0.058623515 -0.032083657 -0.16203746 -0.0910977 -0.11720342 -0.13183244 0.06883513
0.034769226 -0.06080362 0.053299535 0.05083676 -0.03489379 -0.120513946 -0.039709315 -0.014168053
0.06410254 0.12806374 -0.020234918 0.11841037 0.18407428 -0.04128905 -0.02693697 -0.17378321
0.080850974 0.22015418 -0.041639615 0.06465855 0.02928438 -0.037055176 0.028928194 0.10423518
0.048546385 -0.08945083 -0.024965985 -0.009897182 0.09328255 -0.06687264 -0.13464622 -0.039955944
-0.024912503 0.025260825 -0.06553249 -0.061944414 -0.10000718 -0.09609318 0.0031093333 -0.03948877
0.0619552 -0.09717836 -0.10747235 -0.18446589 -0.04547118 -0.026808944 0.073206745 -0.046048183
0.03721401 0.008337957 -0.043501627 0.008431619 -0.13121776 0.042291675 0.021679506 0.06265368
-0.01692389 0.14514981 0.029497286 -0.06333836 -0.065824114 -0.07453069 0.04415024 -0.054969203
-0.03422214 0.02805685 -0.04410945 -0.09599212 0.013233484 -0.0051489933 -0.057733737 0.1395618
0.07621231 -0.19971073 -0.007289852 -0.24509636 0.0023251069 -0.020753676 0.08144795 -0.059769772
0.10297292 -0.15183543 0.020278165 -0.060955685 0.021830332 -0.014823087 0.17208296 -0.115565546
0.08644631 -0.16447468 0.023479642 -0.024803283 -0.12721771 0.05224537 -0.012953698 0.15563086
0.050622545 -0.109131515 -0.13650751 -0.07388057 -0.013923341 -0.13137974 -0.011274189 -0.04628377
0.10891146 0.23658948 -0.106857926 0.10302246 -0.03882215 -0.123803124 -0.07409671 0.037706003
0.035042204 -0.09384128 0.010586988 0.010315832 0.124817364 -0.02073389 -0.05072906 -0.13619825
0.10649816 0.11330205 -0.056758802 -0.050525375 -0.08559765 0.10930907 0.04723745 0.027611895
-0.032987457 0.12684625 0.008661105 0.040787008 0.024781635 -0.060033675 -0.15988153 -0.012254511
-0.010366843 -0.14829364 -0.11181695 -0.15052873 -0.06560924 0.06468178 0.0009232085 -0.043106757
-0.034862902 -0.1193843 -0.15816933 0.082919925 -0.08854151 -0.035534903 -0.08155934 0.1802303
