model_path/DLPFC_151675.pth (torch, 270271 bytes, 18 tensors)

q f4 [100, 1]
-0.054945745 -0.1760428 -0.05977333 0.1689662 -0.095709026 -0.049736492 0.24966587 -0.12246027
0.09142977 -0.1511479 -0.25295314 0.053959366 -0.18002011 -0.1559179 0.064423196 0.11842111
0.03470898 0.22371142 -0.02684699 0.2788234 0.09989202 0.16992433 -0.10569667 0.025760656
-0.12328656 -0.10135455 -0.04424592 -0.16317952 -0.026801191 0.10171616 0.07482622 -0.16398786
-0.18281665 0.14498153 0.14359215 0.21368138 -0.23311488 -0.2432393 -0.10577267 0.060086608
-0.1360206 -0.07483381 -0.071437135 -0.103554025 0.016005622 -0.2664219 -0.08503408 0.04947327
0.10975796 -0.064216554 0.14542273 0.022024155 0.056433138 -0.11304567 0.053873632 0.10154256
-0.019172763 0.10330869 0.18713161 -0.11077913 0.03130017 2.019782e-06 -0.1941309 0.06890476
0.14171574 0.0040631113 -0.047782764 -0.1260843 0.07401458 0.20760533 0.0076840017 -0.13890676
0.14672112 -0.1283768 0.19961539 -0.12623678 0.037554096 0.051005453 0.031061767 0.06348896
-0.17782092 0.09134517 0.17665318 -0.04131562 0.19088618 -0.18734495 -0.19645965 -0.24078016
0.15671125 -0.14488705 -0.19847354 0.17921148 0.19749403 -0.052077893 -0.0047093844 -0.20536172
0.07768662 0.23719478 0.2125683 -0.12493234
00000000: ca0e 61bd 9044 34be e1d4 74bd 7a05 2d3e
00000010: 1803 c4bd 7eb8 4bbd 69a8 7f3e 73cc fabd
00000020: 883f bb3d 84c6 1abe 1383 81be 7f04 5d3d
00000030: 3157 38be f1a8 1fbe 4ff0 833d c486 f23d
00000040: 012b 0e3d 9b14 653e 38ee dbbc f1c1 8e3e
00000050: 3094 cc3d a500 2e3e 7f77 d8bd 0308 d33c
00000060: aa7d fcbd f992 cfbd 363b 35bd 8818 27be
00000070: 2c8e dbbc 9050 d03d 7d3e 993d 6fec 27be
00000080: 4a34 3bbe 0a76 143e d209 133e 4bcf 5a3e
00000090: abb5 6ebe b913 79be 579f d8bd 601d 763d
000000a0: fc48 0bbe 7842 99bd a24d 92bd 2214 d4bd
000000b0: 391e 833c 7468 88be 5926 aebd 7ca4 4a3d
000000c0: c8c8 e03d f883 83bd b2e9 143e 006c b43c
000000d0: 6f26 673d 7d84 e7bd 99aa 5c3d 8cf5 cf3d
000000e0: 3310 9dbc 8293 d33d 6e9f 3f3e 2be0 e2bd
000000f0: 9b34 003d 978b 0736 40ca 46be f01d 8d3d
00000100: ee1d 113e d923 853b dcb7 43bd 3e1c 01be
00000110: f594 973d 7e96 543e 14ca fb3b 933d 0ebe
00000120: 103e 163e 3575 03be fa67 4c3e 3744 01be
00000130: 53d2 193d 18eb 503d 3f75 fe3c 8006 823d
00000140: b016 36be 2d13 bb3d 92e4 343e 913a 29bd
00000150: ab77 433e 5bd7 3fbe b82c 49be 138f 76be
00000160: ea78 203e 455d 14be a63c 4bbe 3783 373e
00000170: e03b 4a3e a14f 55bd 2e51 9abb 584a 52be
00000180: 2a1a 9f3d 30e3 723e 81ab 593e 87dc ffbd

k f4 [100, 1]
-0.12408003 -0.10853308 -0.06376122 -0.08515151 -0.0027957447 0.08584182 0.1339597 -0.00818223
-0.00046648926 -0.11941586 -0.11213122 0.09288792 0.0637074 0.07900163 0.09380924 0.13754255
-0.0018266097 -0.056046754 0.1670416 -0.15820162 -0.053290606 -0.0966365 -0.12119746 -0.02127168
-0.042536967 8.392819e-05 -0.0008760539 -0.000572963 0.08296802 0.028523881 0.07314744 0.19622485
0.12677014 -0.09438386 -0.026743345 -0.04277372 0.064108565 0.1326537 -0.031176269 -0.08477362
-0.14886433 0.18564714 -0.057184104 0.10276829 0.10260475 0.060203925 -0.091330834 -0.037337776
0.05061275 -0.002658249 -0.08640364 -0.12334071 0.11033188 -0.09838252 0.16244017 -0.05639042
0.11675066 -0.17984785 -0.03769866 -0.016959943 0.014083641 -0.12025212 0.068166696 0.038234085
0.0157038 -0.0062441533 0.18029644 -0.12999883 0.09698882 0.06306189 0.09904182 -0.053321652
0.14101608 -0.112250365 0.18526335 -0.03093541 -0.148196 -0.030886417 -0.18220809 0.17839603
-0.029861884 -0.05910803 0.12601663 -0.07747162 0.019393912 0.13161446 0.12343069 0.062569916
0.04514703 0.100722 -0.08066532 -0.007669306 -0.14361988 -0.18782638 -0.101511225 -0.17971992
-0.087605484 -0.16920252 0.17446454 -0.033969596
00000000: ac1d febd 9746 debd 3e95 82bd ea63 aebd
00000010: d038 37bb d6cd af3d bb2c 093e c30e 06bc
00000020: 2193 f4b9 4d90 f4bd 0ea5 e5bd 063c be3d
00000030: 0679 823d 9bcb a13d 0f1f c03d f4d7 0c3e
00000040: da6a efba 4891 65bd f40c 2b3e 9bff 21be
00000050: 4047 5abd 5be9 c5bd 6036 f8bd f241 aebc
00000060: 3e3b 2ebd 9b02 b038 fba6 65ba e532 16ba
00000070: 23eb a93d eaaa e93c 53ce 953d 2bef 483e
00000080: 08d0 013e 534c c1bd dc14 dbbc 7f33 2fbd
00000090: 5a4b 833d 5fd6 073e 6065 ffbc cb9d adbd
000000a0: e46f 18be 491a 3e3e e139 6abd 2e78 d23d
000000b0: 7022 d23d 6498 763d a90b bbbd 7fef 18bd
000000c0: 514f 4f3d 0536 2ebb 64f4 b0bd 0e9a fcbd
000000d0: aef5 e13d c67c c9bd b756 263e a4f9 66bd
000000e0: f81a ef3d 092a 38be e969 1abd 94ef 8abc
000000f0: 12bf 663c be46 f6bd fb9a 8b3d 589b 1c3d
00000100: 41a5 803c c19b ccbb a19f 383e 6a1e 05be
00000110: 13a2 c63d 9826 813d 70d6 ca3d ce67 5abd
00000120: 8566 103e 85e3 e5bd adb5 3d3e 426c fdbc
00000130: b1c0 17be 8305 fdbc c294 3abe 73ad 363e
00000140: e9a0 f4bc 431b 72bd 810a 013e 71a9 9ebd
00000150: fbdf 9e3c f1c5 063e 3bc9 fc3d a824 803d
00000160: 18ec 383d 5647 ce3d dc33 a5bd cd4e fbbb
00000170: 1711 13be 8f55 40be 1ee5 cfbd 8008 38be
00000180: 816a b3bd 6d43 2dbe d5a6 323e b423 0bbd

weight f4 [2, 200, 100]
-0.012631537 0.10715572 -0.19755402 0.1363045 -0.14711274 0.1526837 0.15143137 0.10795683
0.00878671 0.006847036 -0.15538414 -0.0029077155 -0.10322532 -0.04039886 -0.07438934 0.11071077
0.13234755 0.26495606 -0.13908155 0.20676897 0.22637658 0.15511279 -0.17634118 0.07269353
-0.13636196 -0.124100044 0.15817882 -0.0060110954 -0.115841635 -0.0025535417 -0.12902413 -0.018515754
-0.204 -0.16860783 -0.06939953 -0.007187206 -0.19567189 -0.01953953 -0.024604382 0.12534964
0.0688488 -0.071600385 0.053057726 -0.21025135 0.054616246 -0.20744744 0.05335432 -0.013536559
-0.12419415 -0.12941417 -0.022804556 0.10634548 0.14154743 -0.10548261 0.15351462 0.19469768
0.027880019 0.09426596 0.0661847 -0.34468707 0.2046315 0.13934253 -0.21677005 0.19363508
0.15490323 -0.11549758 -0.013931953 0.013753236 0.19367142 0.24972722 -0.18304697 -0.0659309
0.043503758 0.15456124 0.13983233 0.08829968 0.03354774 -0.088908315 0.15428892 -0.121627845
-0.14264768 0.24621251 0.21619509 -0.017960291 0.040950708 -0.14527059 -0.30572227 -0.25481838
0.07067184 -0.143583 -0.029491581 0.14446995 0.3293761 0.07120087 -0.22734313 -0.13994873
0.13642006 0.22596227 -0.06368703 -0.037671607 0.28457963 0.21238744 0.021954436 0.02495621
-0.12340493 0.04064735 -0.14409837 -0.0350088 -0.053671036 0.07902635 0.012679523 0.02437288
-0.14822444 0.07972027 -0.029796453 -0.17531002 0.023787327 0.0660252 0.03232142 0.073531635
0.18113376 0.10952081 -0.013790759 0.20504323 -0.10520642 -0.07967842 0.030453762 -0.0023178232
-0.18986073 -0.13054898 -0.032904785 -0.13069963 -0.12647893 0.06148586 0.1808085 -0.029059928
-0.0384367 -0.038214013 0.1640569 0.17104255 0.24742174 -0.03317891 0.20475705 0.041600607
-0.15907803 -0.13095261 0.15437953 0.0799544 -0.1471919 -0.1561664 -0.06466299 0.0052084406
-0.058766004 0.05189019 0.015491341 -0.050663933 0.08890835 0.032058623 0.028660502 -0.050430838
-0.035130847 0.07090041 -0.06829748 -0.25132397 -0.019090444 -0.03018059 -0.15321025 0.18610525
-0.19839454 0.04131113 0.10114476 -0.01846491 0.08603842 0.13591327 -0.1898969 0.10166777
0.06383652 -0.0749947 0.2277746 -0.18907434 0.036963034 0.10034434 -0.0003234495 0.17561154
0.024374874 -0.08292925 -0.13003512 -0.09965129 -0.1699999 0.008043828 0.09577766 0.15259187
-0.029280767 0.08378253 -0.092590176 -0.040485863 -0.034204163 0.15892677 -0.08841599 0.019945601
0.043894697 0.10084405 -0.121923566 -0.057830617 -0.052606255 0.07103326 -0.027283538 0.106965
0.017556956 0.028239256 -0.03853973 -0.008901516 -0.025148565 -0.013833888 -0.001186895 -2.8449567e-05
-0.07497795 -0.07061085 0.06537563 -0.08970477 -0.026077213 0.11865888 0.028074192 -0.0010891188
-0.17122316 0.10041243 -0.09091965 -0.034579206 -0.052131604 0.025826372 -0.010369061 0.06230242
-0.0026146201 0.121078655 0.09533161 -0.11304579 -0.0028365294 -0.11913998 -0.018094053 0.024547681
0.04796303 0.09188826 -0.032527562 -0.03954774 0.1158366 -0.13649848 0.074368566 0.0013023224
0.015840692 -0.009982308 0.030222332 0.042922836 0.1086302 -0.030806443 -0.0729199 -0.0339195
00000000: 82f4 4ebc 7574 db3d 9a4b 4abe 6893 0b3e
00000010: b9a4 16be 1e59 1c3e d310 1b3e 7818 dd3d
00000020: 22f6 0f3c 1a5d e03b 051d 1fbe 5f8f 3ebb
00000030: cc67 d3bd 4679 25bd 7059 98bd 54bc e23d
00000040: 1e86 073e 52a8 873e 656b 0ebe 3fbb 533e
00000050: 43cf 673e e3d5 1e3e c892 34be 58e0 943d
00000060: 78a2 0bbe 2a28 febd a1f9 213e b9f8 c4bb
00000070: 613e edbd 5259 27bb e71e 04be 5aae 97bc
00000080: 60e5 50be 88a7 2cbe 5721 8ebd a782 ebbb
00000090: 365e 48be 5d11 a0bc 218f c9bc a85b 003e
000000a0: 9a00 8d3d 39a3 92bd 0f53 593d 214c 57be
000000b0: 49b5 5f3d 1a6d 54be 0f8a 5a3d 72c8 5dbc
000000c0: 8159 febd 2685 04be 9fd0 babc a9cb d93d
000000d0: cff1 103e 4407 d8bd f032 1d3e d45e 473e
000000e0: a364 e43c 830e c13d d88b 873d d37a b0be
000000f0: ec8a 513e cfaf 0e3e f8f8 5dbe 4648 463e
00000100: f49e 1e3e ff89 ecbd d942 64bc 4155 613c
00000110: cd51 463e 7eb8 7f3e aa70 3bbe c806 87bd
00000120: ff30 323d 4d45 1e3e 3530 0f3e 76d6 b43d
00000130: 5b69 093d 9015 b6bd eafd 1d3e 0518 f9bd
00000140: 3c12 12be 221f 7c3e 3f62 5d3e 7621 93bc
00000150: eebb 273d d0c1 14be a187 9cbe 8e77 82be
00000160: 66bc 903d 6c07 13be 5498 f1bc eeef 133e
00000170: fca3 a83e c3d1 913d a3cc 68be b84e 0fbe
00000180: b3b1 0b3e a762 673e 586e 82bd 8b4d 1abd
00000190: 6cb4 913e 187c 593e cad9 b33c f770 cc3c
000001a0: b9bb fcbd d67d 263d 868e 13be 6365 0fbd
000001b0: 29d6 5bbd 91d8 a13d c6bd 4f3c a2a9 c73c
000001c0: 26c8 17be 6244 a33d b117 f4bc 7884 33be
000001d0: a4dd c23c 3838 873d 7763 043d c197 963d
000001e0: 217b 393e 724c e03d a3f2 61bc daf6 513e
000001f0: 7776 d7bd 712e a3bd 2b7a f93c 9fe6 17bb
00000200: da6a 42be a2ae 05be 2bc7 06bd 20d6 05be
00000210: b183 01be 99d8 7b3d dd25 393e 160f eebc
00000220: cd6f 1dbd 4c86 1cbd 88fe 273e c725 2f3e
00000230: 205c 7d3e 9ce6 07bd d5ab 513e 6665 2a3d
00000240: 5ae5 22be 7118 06be ab15 1e3e 22bf a33d
00000250: 79b9 16be 16ea 1fbe 086e 84bd 91ab aa3b
00000260: 9fb4 70bd cf8a 543d 65cf 7d3c fc84 4fbd
00000270: 9515 b63d e74f 033d 6ec9 ea3c 9190 4ebd
00000280: 5de5 0fbd 3c34 913d 8ddf 8bbd 89ad 80be
00000290: 9063 9cbc 493d f7bc 26e3 1cbe 6092 3e3e
000002a0: f027 4bbe dc35 293d fc24 cf3d b943 97bc
000002b0: e934 b03d d92c 0b3e 5574 42be 3137 d03d
000002c0: b9bc 823d d296 99bd bf3d 693e b49c 41be
000002d0: 8d66 173d 5581 cd3d a894 a9b9 83d3 333e
000002e0: d1ad c73c d0d6 a9bd ed27 05be fa15 ccbd
000002f0: 7414 2ebe 43ca 033c 1427 c43d 0b41 1c3e
00000300: 38de efbc 2d96 ab3d eb9f bdbd 81d4 25bd
00000310: aa19 0cbd b3bd 223e 7113 b5bd f564 a33c
00000320: edca 333d 5387 ce3d 10b3 f9bd ccdf 6cbd
00000330: a879 57bd e379 913d ba81 dfbc 7710 db3d
00000340: 9bd3 8f3c 0356 e73c d6db 1dbd aad7 11bc
00000350: 5d04 cebc 88a7 62bc 9691 9bba fba6 eeb7
00000360: 0a8e 99bd 6c9c 90bd a9e3 853d 22b7 b7bd
00000370: e19f d5bc 6d03 f33d d9fb e53c c3c0 8eba
00000380: 2055 2fbe 08a5 cd3d 1534 babd eda2 0dbd
00000390: f387 55bd d491 d33c fee2 29bc d330 7f3d
000003a0: 0c5a 2bbb 16f8 f73d 383d c33d 8d84 e7bd
000003b0: 11e5 39bb a9ff f3bd fb39 94bc 3818 c93c
000003c0: e274 443d e92f bc3d 9f3b 05bd d0fc 21bd
000003d0: bd3b ed3d 42c6 0bbe 8c4e 983d b0b2 aa3a
000003e0: 57c4 813c d68c 23bc d394 f73c dbcf 2f3d
000003f0: 8379 de3d cb5d fcbc 0757 95bd 2cef 0abd

w f4 [100]
1.0 1.0 1.0 1.0 1.0 1.0 1.0 1.0
1.0 1.0 1.0 1.0 1.0 1.0 1.0 1.0
1.0 1.0 1.0 1.0 1.0 1.0 1.0 1.0
1.0 1.0 1.0 1.0 1.0 1.0 1.0 1.0
1.0 1.0 1.0 1.0 1.0 1.0 1.0 1.0
1.0 1.0 1.0 1.0 1.0 1.0 1.0 1.0
1.0 1.0 1.0 1.0 1.0 1.0 1.0 1.0
1.0 1.0 1.0 1.0 1.0 1.0 1.0 1.0
1.0 1.0 1.0 1.0 1.0 1.0 1.0 1.0
1.0 1.0 1.0 1.0 1.0 1.0 1.0 1.0
1.0 1.0 1.0 1.0 1.0 1.0 1.0 1.0
1.0 1.0 1.0 1.0 1.0 1.0 1.0 1.0
1.0 1.0 1.0 1.0
00000000: 0000 803f 0000 803f 0000 803f 0000 803f
00000010: 0000 803f 0000 803f 0000 803f 0000 803f
00000020: 0000 803f 0000 803f 0000 803f 0000 803f
00000030: 0000 803f 0000 803f 0000 803f 0000 803f
00000040: 0000 803f 0000 803f 0000 803f 0000 803f
00000050: 0000 803f 0000 803f 0000 803f 0000 803f
00000060: 0000 803f 0000 803f 0000 803f 0000 803f
00000070: 0000 803f 0000 803f 0000 803f 0000 803f
00000080: 0000 803f 0000 803f 0000 803f 0000 803f
00000090: 0000 803f 0000 803f 0000 803f 0000 803f
000000a0: 0000 803f 0000 803f 0000 803f 0000 803f
000000b0: 0000 803f 0000 803f 0000 803f 0000 803f
000000c0: 0000 803f 0000 803f 0000 803f 0000 803f
000000d0: 0000 803f 0000 803f 0000 803f 0000 803f
000000e0: 0000 803f 0000 803f 0000 803f 0000 803f
000000f0: 0000 803f 0000 803f 0000 803f 0000 803f
00000100: 0000 803f 0000 803f 0000 803f 0000 803f
00000110: 0000 803f 0000 803f 0000 803f 0000 803f
00000120: 0000 803f 0000 803f 0000 803f 0000 803f
00000130: 0000 803f 0000 803f 0000 803f 0000 803f
00000140: 0000 803f 0000 803f 0000 803f 0000 803f
00000150: 0000 803f 0000 803f 0000 803f 0000 803f
00000160: 0000 803f 0000 803f 0000 803f 0000 803f
00000170: 0000 803f 0000 803f 0000 803f 0000 803f
00000180: 0000 803f 0000 803f 0000 803f 0000 803f

l1 f4 [1, 100]
1.0 1.0 1.0 1.0 1.0 1.0 1.0 1.0
1.0 1.0 1.0 1.0 1.0 1.0 1.0 1.0
1.0 1.0 1.0 1.0 1.0 1.0 1.0 1.0
1.0 1.0 1.0 1.0 1.0 1.0 1.0 1.0
1.0 1.0 1.0 1.0 1.0 1.0 1.0 1.0
1.0 1.0 1.0 1.0 1.0 1.0 1.0 1.0
1.0 1.0 1.0 1.0 1.0 1.0 1.0 1.0
1.0 1.0 1.0 1.0 1.0 1.0 1.0 1.0
1.0 1.0 1.0 1.0 1.0 1.0 1.0 1.0
1.0 1.0 1.0 1.0 1.0 1.0 1.0 1.0
1.0 1.0 1.0 1.0 1.0 1.0 1.0 1.0
1.0 1.0 1.0 1.0 1.0 1.0 1.0 1.0
1.0 1.0 1.0 1.0
00000000: 0000 803f 0000 803f 0000 803f 0000 803f
00000010: 0000 803f 0000 803f 0000 803f 0000 803f
00000020: 0000 803f 0000 803f 0000 803f 0000 803f
00000030: 0000 803f 0000 803f 0000 803f 0000 803f
00000040: 0000 803f 0000 803f 0000 803f 0000 803f
00000050: 0000 803f 0000 803f 0000 803f 0000 803f
00000060: 0000 803f 0000 803f 0000 803f 0000 803f
00000070: 0000 803f 0000 803f 0000 803f 0000 803f
00000080: 0000 803f 0000 803f 0000 803f 0000 803f
00000090: 0000 803f 0000 803f 0000 803f 0000 803f
000000a0: 0000 803f 0000 803f 0000 803f 0000 803f
000000b0: 0000 803f 0000 803f 0000 803f 0000 803f
000000c0: 0000 803f 0000 803f 0000 803f 0000 803f
000000d0: 0000 803f 0000 803f 0000 803f 0000 803f
000000e0: 0000 803f 0000 803f 0000 803f 0000 803f
000000f0: 0000 803f 0000 803f 0000 803f 0000 803f
00000100: 0000 803f 0000 803f 0000 803f 0000 803f
00000110: 0000 803f 0000 803f 0000 803f 0000 803f
00000120: 0000 803f 0000 803f 0000 803f 0000 803f
00000130: 0000 803f 0000 803f 0000 803f 0000 803f
00000140: 0000 803f 0000 803f 0000 803f 0000 803f
00000150: 0000 803f 0000 803f 0000 803f 0000 803f
00000160: 0000 803f 0000 803f 0000 803f 0000 803f
00000170: 0000 803f 0000 803f 0000 803f 0000 803f
00000180: 0000 803f 0000 803f 0000 803f 0000 803f

b1 f4 [1, 100]
0.0 0.0 0.0 0.0 0.0 0.0 0.0 0.0
0.0 0.0 0.0 0.0 0.0 0.0 0.0 0.0
0.0 0.0 0.0 0.0 0.0 0.0 0.0 0.0
0.0 0.0 0.0 0.0 0.0 0.0 0.0 0.0
0.0 0.0 0.0 0.0 0.0 0.0 0.0 0.0
0.0 0.0 0.0 0.0 0.0 0.0 0.0 0.0
0.0 0.0 0.0 0.0 0.0 0.0 0.0 0.0
0.0 0.0 0.0 0.0 0.0 0.0 0.0 0.0
0.0 0.0 0.0 0.0 0.0 0.0 0.0 0.0
0.0 0.0 0.0 0.0 0.0 0.0 0.0 0.0
0.0 0.0 0.0 0.0 0.0 0.0 0.0 0.0
0.0 0.0 0.0 0.0 0.0 0.0 0.0 0.0
0.0 0.0 0.0 0.0
00000000: 0000 0000 0000 0000 0000 0000 0000 0000
00000010: 0000 0000 0000 0000 0000 0000 0000 0000
00000020: 0000 0000 0000 0000 0000 0000 0000 0000
00000030: 0000 0000 0000 0000 0000 0000 0000 0000
00000040: 0000 0000 0000 0000 0000 0000 0000 0000
00000050: 0000 0000 0000 0000 0000 0000 0000 0000
00000060: 0000 0000 0000 0000 0000 0000 0000 0000
00000070: 0000 0000 0000 0000 0000 0000 0000 0000
00000080: 0000 0000 0000 0000 0000 0000 0000 0000
00000090: 0000 0000 0000 0000 0000 0000 0000 0000
000000a0: 0000 0000 0000 0000 0000 0000 0000 0000
000000b0: 0000 0000 0000 0000 0000 0000 0000 0000
000000c0: 0000 0000 0000 0000 0000 0000 0000 0000
000000d0: 0000 0000 0000 0000 0000 0000 0000 0000
000000e0: 0000 0000 0000 0000 0000 0000 0000 0000
000000f0: 0000 0000 0000 0000 0000 0000 0000 0000
00000100: 0000 0000 0000 0000 0000 0000 0000 0000
00000110: 0000 0000 0000 0000 0000 0000 0000 0000
00000120: 0000 0000 0000 0000 0000 0000 0000 0000
00000130: 0000 0000 0000 0000 0000 0000 0000 0000
00000140: 0000 0000 0000 0000 0000 0000 0000 0000
00000150: 0000 0000 0000 0000 0000 0000 0000 0000
00000160: 0000 0000 0000 0000 0000 0000 0000 0000
00000170: 0000 0000 0000 0000 0000 0000 0000 0000
00000180: 0000 0000 0000 0000 0000 0000 0000 0000

l2 f4 [100, 100]
4.673e-42 0.0 4.673e-42 0.0 4.673e-42 0.0 5.751e-41 0.0
-1.2451606e+36 1.5459e-41 3.8153138e-33 0.0 2.6728743e-33 0.0 3.8153138e-33 0.0
4.675e-42 0.0 4.675e-42 0.0 4.676e-42 0.0 4.676e-42 0.0
4.676e-42 0.0 4.676e-42 0.0 4.676e-42 0.0 4.676e-42 0.0
4.678e-42 0.0 4.678e-42 0.0 4.678e-42 0.0 4.678e-42 0.0
4.678e-42 0.0 4.678e-42 0.0 4.679e-42 0.0 4.679e-42 0.0
4.679e-42 0.0 4.679e-42 0.0 4.679e-42 0.0 4.679e-42 0.0
4.68e-42 0.0 4.68e-42 0.0 4.68e-42 0.0 4.68e-42 0.0
4.68e-42 0.0 4.68e-42 0.0 4.682e-42 0.0 4.682e-42 0.0
4.682e-42 0.0 4.682e-42 0.0 4.682e-42 0.0 4.682e-42 0.0
4.683e-42 0.0 4.683e-42 0.0 4.683e-42 0.0 4.683e-42 0.0
4.683e-42 0.0 4.683e-42 0.0 4.685e-42 0.0 4.685e-42 0.0
4.685e-42 0.0 4.685e-42 0.0 4.685e-42 0.0 4.685e-42 0.0
4.686e-42 0.0 4.686e-42 0.0 4.686e-42 0.0 4.686e-42 0.0
4.686e-42 0.0 4.686e-42 0.0 4.687e-42 0.0 4.687e-42 0.0
4.687e-42 0.0 4.687e-42 0.0 4.687e-42 0.0 4.687e-42 0.0
4.689e-42 0.0 4.689e-42 0.0 4.689e-42 0.0 4.689e-42 0.0
4.689e-42 0.0 4.689e-42 0.0 4.69e-42 0.0 4.69e-42 0.0
4.69e-42 0.0 4.69e-42 0.0 4.69e-42 0.0 4.69e-42 0.0
4.692e-42 0.0 4.692e-42 0.0 4.692e-42 0.0 4.692e-42 0.0
4.692e-42 0.0 4.692e-42 0.0 4.693e-42 0.0 4.693e-42 0.0
4.693e-42 0.0 4.693e-42 0.0 4.693e-42 0.0 4.693e-42 0.0
4.694e-42 0.0 4.694e-42 0.0 4.694e-42 0.0 4.694e-42 0.0
4.694e-42 0.0 4.694e-42 0.0 4.696e-42 0.0 4.696e-42 0.0
4.696e-42 0.0 4.696e-42 0.0 4.696e-42 0.0 4.696e-42 0.0
4.697e-42 0.0 4.697e-42 0.0 4.697e-42 0.0 4.697e-42 0.0
4.697e-42 0.0 4.697e-42 0.0 4.699e-42 0.0 4.699e-42 0.0
4.699e-42 0.0 4.699e-42 0.0 4.699e-42 0.0 4.699e-42 0.0
4.7e-42 0.0 4.7e-42 0.0 4.7e-42 0.0 4.7e-42 0.0
4.7e-42 0.0 4.7e-42 0.0 4.701e-42 0.0 4.701e-42 0.0
4.701e-42 0.0 4.701e-42 0.0 4.701e-42 0.0 4.701e-42 0.0
4.703e-42 0.0 4.703e-42 0.0 4.703e-42 0.0 4.703e-42 0.0
00000000: 070d 0000 0000 0000 070d 0000 0000 0000
00000010: 070d 0000 0000 0000 51a0 0000 0000 0000
00000020: 28cf 6ffb 182b 0000 607b 9e09 0000 0000
00000030: c00d 5e09 0000 0000 607b 9e09 0000 0000
00000040: 080d 0000 0000 0000 080d 0000 0000 0000
00000050: 090d 0000 0000 0000 090d 0000 0000 0000
00000060: 090d 0000 0000 0000 090d 0000 0000 0000
00000070: 090d 0000 0000 0000 090d 0000 0000 0000
00000080: 0a0d 0000 0000 0000 0a0d 0000 0000 0000
00000090: 0a0d 0000 0000 0000 0a0d 0000 0000 0000
000000a0: 0a0d 0000 0000 0000 0a0d 0000 0000 0000
000000b0: 0b0d 0000 0000 0000 0b0d 0000 0000 0000
000000c0: 0b0d 0000 0000 0000 0b0d 0000 0000 0000
000000d0: 0b0d 0000 0000 0000 0b0d 0000 0000 0000
000000e0: 0c0d 0000 0000 0000 0c0d 0000 0000 0000
000000f0: 0c0d 0000 0000 0000 0c0d 0000 0000 0000
00000100: 0c0d 0000 0000 0000 0c0d 0000 0000 0000
00000110: 0d0d 0000 0000 0000 0d0d 0000 0000 0000
00000120: 0d0d 0000 0000 0000 0d0d 0000 0000 0000
00000130: 0d0d 0000 0000 0000 0d0d 0000 0000 0000
00000140: 0e0d 0000 0000 0000 0e0d 0000 0000 0000
00000150: 0e0d 0000 0000 0000 0e0d 0000 0000 0000
00000160: 0e0d 0000 0000 0000 0e0d 0000 0000 0000
00000170: 0f0d 0000 0000 0000 0f0d 0000 0000 0000
00000180: 0f0d 0000 0000 0000 0f0d 0000 0000 0000
00000190: 0f0d 0000 0000 0000 0f0d 0000 0000 0000
000001a0: 100d 0000 0000 0000 100d 0000 0000 0000
000001b0: 100d 0000 0000 0000 100d 0000 0000 0000
000001c0: 100d 0000 0000 0000 100d 0000 0000 0000
000001d0: 110d 0000 0000 0000 110d 0000 0000 0000
000001e0: 110d 0000 0000 0000 110d 0000 0000 0000
000001f0: 110d 0000 0000 0000 110d 0000 0000 0000
00000200: 120d 0000 0000 0000 120d 0000 0000 0000
00000210: 120d 0000 0000 0000 120d 0000 0000 0000
00000220: 120d 0000 0000 0000 120d 0000 0000 0000
00000230: 130d 0000 0000 0000 130d 0000 0000 0000
00000240: 130d 0000 0000 0000 130d 0000 0000 0000
00000250: 130d 0000 0000 0000 130d 0000 0000 0000
00000260: 140d 0000 0000 0000 140d 0000 0000 0000
00000270: 140d 0000 0000 0000 140d 0000 0000 0000
00000280: 140d 0000 0000 0000 140d 0000 0000 0000
00000290: 150d 0000 0000 0000 150d 0000 0000 0000
000002a0: 150d 0000 0000 0000 150d 0000 0000 0000
000002b0: 150d 0000 0000 0000 150d 0000 0000 0000
000002c0: 160d 0000 0000 0000 160d 0000 0000 0000
000002d0: 160d 0000 0000 0000 160d 0000 0000 0000
000002e0: 160d 0000 0000 0000 160d 0000 0000 0000
000002f0: 170d 0000 0000 0000 170d 0000 0000 0000
00000300: 170d 0000 0000 0000 170d 0000 0000 0000
00000310: 170d 0000 0000 0000 170d 0000 0000 0000
00000320: 180d 0000 0000 0000 180d 0000 0000 0000
00000330: 180d 0000 0000 0000 180d 0000 0000 0000
00000340: 180d 0000 0000 0000 180d 0000 0000 0000
00000350: 190d 0000 0000 0000 190d 0000 0000 0000
00000360: 190d 0000 0000 0000 190d 0000 0000 0000
00000370: 190d 0000 0000 0000 190d 0000 0000 0000
00000380: 1a0d 0000 0000 0000 1a0d 0000 0000 0000
00000390: 1a0d 0000 0000 0000 1a0d 0000 0000 0000
000003a0: 1a0d 0000 0000 0000 1a0d 0000 0000 0000
000003b0: 1b0d 0000 0000 0000 1b0d 0000 0000 0000
000003c0: 1b0d 0000 0000 0000 1b0d 0000 0000 0000
000003d0: 1b0d 0000 0000 0000 1b0d 0000 0000 0000
000003e0: 1c0d 0000 0000 0000 1c0d 0000 0000 0000
000003f0: 1c0d 0000 0000 0000 1c0d 0000 0000 0000

b2 f4 [1, 100]
0.0 0.0 0.0 0.0 0.0 0.0 0.0 0.0
0.0 0.0 0.0 0.0 0.0 0.0 0.0 0.0
0.0 0.0 0.0 0.0 0.0 0.0 0.0 0.0
0.0 0.0 0.0 0.0 0.0 0.0 0.0 0.0
0.0 0.0 0.0 0.0 0.0 0.0 0.0 0.0
0.0 0.0 0.0 0.0 0.0 0.0 0.0 0.0
0.0 0.0 0.0 0.0 0.0 0.0 0.0 0.0
0.0 0.0 0.0 0.0 0.0 0.0 0.0 0.0
0.0 0.0 0.0 0.0 0.0 0.0 0.0 0.0
0.0 0.0 0.0 0.0 0.0 0.0 0.0 0.0
0.0 0.0 0.0 0.0 0.0 0.0 0.0 0.0
0.0 0.0 0.0 0.0 0.0 0.0 0.0 0.0
0.0 0.0 0.0 0.0
00000000: 0000 0000 0000 0000 0000 0000 0000 0000
00000010: 0000 0000 0000 0000 0000 0000 0000 0000
00000020: 0000 0000 0000 0000 0000 0000 0000 0000
00000030: 0000 0000 0000 0000 0000 0000 0000 0000
00000040: 0000 0000 0000 0000 0000 0000 0000 0000
00000050: 0000 0000 0000 0000 0000 0000 0000 0000
00000060: 0000 0000 0000 0000 0000 0000 0000 0000
00000070: 0000 0000 0000 0000 0000 0000 0000 0000
00000080: 0000 0000 0000 0000 0000 0000 0000 0000
00000090: 0000 0000 0000 0000 0000 0000 0000 0000
000000a0: 0000 0000 0000 0000 0000 0000 0000 0000
000000b0: 0000 0000 0000 0000 0000 0000 0000 0000
000000c0: 0000 0000 0000 0000 0000 0000 0000 0000
000000d0: 0000 0000 0000 0000 0000 0000 0000 0000
000000e0: 0000 0000 0000 0000 0000 0000 0000 0000
000000f0: 0000 0000 0000 0000 0000 0000 0000 0000
00000100: 0000 0000 0000 0000 0000 0000 0000 0000
00000110: 0000 0000 0000 0000 0000 0000 0000 0000
00000120: 0000 0000 0000 0000 0000 0000 0000 0000
00000130: 0000 0000 0000 0000 0000 0000 0000 0000
00000140: 0000 0000 0000 0000 0000 0000 0000 0000
00000150: 0000 0000 0000 0000 0000 0000 0000 0000
00000160: 0000 0000 0000 0000 0000 0000 0000 0000
00000170: 0000 0000 0000 0000 0000 0000 0000 0000
00000180: 0000 0000 0000 0000 0000 0000 0000 0000

q f4 [32, 1]
0.39894748 -0.004475862 0.13509105 -0.116318814 -0.15482323 0.47269443 0.16349483 0.49511856
0.09147101 -0.30400315 -0.21407896 0.07484131 -0.19857231 -0.22595195 -0.024819093 -0.15629905
0.28472564 -0.041139673 0.19249476 0.33415854 0.092825435 0.14384727 -0.18582487 0.121374495
-0.34273785 -0.054434124 0.21856025 0.2088771 -0.09810933 0.3792886 0.07221868 -0.21139808
00000000: d842 cc3e 40aa 92bb 4f55 0a3e 8f38 eebd
00000010: fb89 1ebe 0105 f23e 306b 273e 2e80 fd3e
00000020: 2755 bb3d 4da6 9bbe 8437 5bbe 6746 993d
00000030: 8a56 4bbe f35f 67be 6951 cbbc dc0c 20be
00000040: 8fc7 913e 1382 28bd 591d 453e d416 ab3e
00000050: 431b be3d b34c 133e e048 3ebe 3193 f83d
00000060: 567b afbe 51f6 5ebd 42ce 5f3e e1e3 553e
00000070: 8bed c8bd 1e32 c23e 63e7 933d bd78 58be

k f4 [32, 1]
0.03125268 -0.33524838 -0.27985132 0.106933765 0.30862147 0.22187121 0.15079054 0.18487473
-0.40406945 0.12562826 0.0060287896 0.34167674 -0.0075710155 -0.21645364 -0.21331112 -0.011098601
0.14788015 0.31032288 -0.3028524 -0.3011189 -0.07245871 0.11974792 0.20004451 -0.23116253
-0.019295909 0.008156566 -0.12561595 0.27151567 -0.29791763 -0.08387513 0.21518914 -0.1346502
00000000: cf02 003d ada5 abbe ac48 8fbe 1700 db3d
00000010: a203 9e3e 3532 633e d668 1a3e cd4f 3d3e
00000020: 31e2 cebe b2a4 003e 278d c53b 41f0 ae3e
00000030: 4816 f8bb 06a6 5dbe 3b6e 5abe e8d6 35bc
00000040: e56d 173e a4e2 9e3e 780f 9bbe 422c 9abe
00000050: 3b65 94bd 663e f53d 78d8 4c3e dfb5 6cbe
00000060: 7412 9ebc 1ea3 053c 78a1 00be 1a04 8b3e
00000070: a988 98be b9c6 abbd 8b5a 5c3e bee1 09be

weight f4 [2, 100, 32]
-0.19496478 0.13110493 -0.085202776 -0.18514132 -0.08003596 -0.04978049 0.0075482456 -0.18970284
-0.030323474 0.093893774 -0.095359914 -0.18595314 -0.05156842 -0.19801928 0.13515455 -0.0496822
0.07271204 0.028595721 0.12582597 0.18229778 0.0155369835 0.15111108 0.027214173 0.072690465
-0.12916952 -0.1525044 -0.054064132 -0.13135913 -0.07673182 -0.15070462 0.044504657 -0.042694107
0.01197832 -0.123227574 -0.17801869 -0.012027214 -0.10683408 -0.14959659 -0.16120104 -0.15655418
0.07299194 0.04699656 0.09079294 -0.1551558 -0.07525818 0.20282003 -0.0056872703 0.022958748
-0.18882841 -0.050447594 -0.16862819 -0.109550886 0.12554032 0.160655 0.09387468 0.14031075
0.22055827 -0.2867904 -0.15416925 -0.21505858 -0.1398474 0.19242476 0.046522487 -0.002887271
0.018656723 -0.009622049 0.20228483 -0.19659029 -0.08681117 0.11387957 0.20237985 0.04793312
0.052988097 -0.107492685 0.20986743 0.15839066 0.074524514 0.09607988 0.17041321 0.052329715
-0.18230428 -0.1274758 -0.006047269 -0.13290492 0.084324256 -0.20634009 0.08244406 0.10101083
0.11517103 -0.10645997 0.0063391887 0.10667153 -0.073418826 0.024799459 0.18655626 -0.079587534
-0.075070225 -0.18343791 0.042052083 0.02228556 -0.064032026 -0.11225213 -0.07799676 0.10091812
-0.2046893 0.19127081 0.07915367 -0.059957717 -0.015536787 -0.0417978 0.1590896 0.23447114
-0.10601856 -0.122294344 -0.1766549 -0.17260091 0.055396408 -0.06796665 0.19418882 0.06311634
-0.14647572 -0.06820328 -0.2884159 -0.19558206 0.041548386 -0.11123186 0.111883216 -0.12680121
-0.14415534 -0.052375574 -0.09184908 0.12563561 -0.026974913 -0.1711955 0.0018938141 0.060356196
0.09025994 -0.027556138 0.1151439 0.015046636 -0.20073006 -0.117528774 -0.21052524 -0.00023323501
0.049240697 0.014791906 0.02301941 0.13029495 -0.17973039 0.1644417 0.14478724 -0.17781287
0.026360223 0.10604509 0.11861621 0.20847517 0.21704875 -0.1628487 0.1595938 -0.05985347
-0.12767811 -0.13372958 -0.0932215 -0.025115076 -0.065716214 -0.012232073 0.05442579 -0.11139317
0.096462734 0.12725836 0.06383374 -0.09457282 -0.2597417 -0.19338487 0.018210946 -0.10030419
0.13306573 -0.05965488 -0.13072842 -0.09466283 -0.05625453 -0.19913067 -0.23488908 -0.03993964
0.01614131 -0.07348204 -0.15802753 0.052578714 -0.13447587 -0.025496298 0.13499424 -0.074472636
0.087676294 0.14832364 0.14651176 0.17388794 0.0724707 0.043061722 -0.07249792 0.16085932
-0.055358514 0.03598157 -0.082390785 0.036902547 0.035560243 -0.055459414 0.019561417 -0.015273983
-0.055871896 0.16301082 -0.016250968 0.1269154 0.186978 -0.19295204 -0.019506698 -0.016268874
0.0017483714 0.15722343 -0.0658734 -0.11395555 0.031658422 0.08195094 0.13251361 0.100938044
-0.0069298837 0.08681595 0.062089674 0.16964228 0.09893655 -0.16055883 -0.18151622 -0.14319983
0.06300512 -0.071199395 -0.0914488 -0.24439667 0.12020224 0.019752117 -0.10645876 -0.13903737
-0.02507115 0.12302012 -0.111333884 0.124563634 0.07633496 0.1487996 -0.026793698 0.115211114
-0.015625736 0.06280972 0.068903424 -0.15201183 0.004915009 0.08923378 -0.0011103854 -0.20130369
00000000: d9a4 47be 5f40 063e cb7e aebd b095 3dbe
00000010: e5e9 a3bd a1e6 4bbd 4657 f73b 7641 42be
00000020: ef68 f8bc 614b c03d 0f4c c3bd 806a 3ebe
00000030: 6839 53bd 91c5 4abe f465 0a3e 907f 4bbd
00000040: 0dea 943d 9341 ea3c 86d8 003e 45ac 3a3e
00000050: d58e 7e3c ddbc 1a3e 42f0 de3c bdde 943d
00000060: 0445 04be 1d2a 1cbe 5a72 5dbd 0283 06be
00000070: 9325 9dbd 5052 1abe 844a 363d 04e0 2ebd
00000080: b740 443c bd5e fcbd 884a 36be cb0d 45bc
00000090: d3cb dabd d92f 19be e311 25be bd4f 20be
000000a0: cc7c 953d 777f 403d a6f1 b93d 29e1 1ebe
000000b0: f620 9abd 0eb0 4f3e 485c babb fc13 bc3c
000000c0: 3c5c 41be 23a2 4ebd deac 2cbe 375c e0bd
000000d0: a48d 003e bf82 243e 5e41 c03d 9fad 0f3e
000000e0: 07da 613e 31d6 92be 8bde 1dbe 5138 5cbe
000000f0: 2834 0fbe ff0a 453e 5d8e 3e3d 5f38 3dbb
00000100: fcd5 983c cca5 1dbc c123 4f3e f74e 49be
00000110: 0eca b1bd b139 e93d aa3c 4f3e 8555 443d
00000120: 0c0a 593d 2025 dcbd 7de7 563e 2931 223e
00000130: 4fa0 983d 87c5 c43d cd80 2e3e af57 563d
00000140: f9ad 3abe 0489 02be 2b28 c6bb 3a18 08be
00000150: 32b2 ac3d d14a 53be 6ed8 a83d c4de ce3d
00000160: cade eb3d af07 dabd f8b8 cf3b 9a76 da3d
00000170: 9c5c 96bd 3c28 cb3c 9b08 3f3e cafe a2bd
00000180: 6bbe 99bd 26d7 3bbe ce3e 2c3d 3590 b63c
00000190: 3923 83bd 72e4 e5bd c4bc 9fbd 29ae ce3d
000001a0: 129a 51be 7fdc 433e 521b a23d 3996 75bd
000001b0: 028e 7ebc 2c34 2bbd 62e8 223e 3419 703e
000001c0: 4220 d9bd 7575 fabd 06e5 34be 4bbe 30be
000001d0: 58e7 623d 1932 8bbd 6fd9 463e 2443 813d
000001e0: bbfd 15be 29ae 8bbd 40ab 93be aa46 48be
000001f0: a42e 2a3d 88cd e3bd 0723 e53d 2dd8 01be
00000200: 759d 13be c587 56bd 5f1b bcbd 9fa6 003e
00000210: 7efa dcbc e04d 2fbe db39 f83a 0f38 773d
00000220: 34da b83d 69bd e1bc 91d0 eb3d 2a86 763c
00000230: 2e8c 4dbe edb2 f0bd ee93 57be 8c90 74b9
00000240: 9db0 493d c059 723c 3493 bc3c 0a6c 053e
00000250: 3e0b 38be 6863 283e 1b43 143e 9414 36be
00000260: 65f1 d73c 2b2e d93d 0eed f23d 847a 553e
00000270: 0742 5e3e cfc1 26be 8f6c 233e ea28 75bd
00000280: 0dbe 02be 68f0 08be eaea bebd 22be cdbc
00000290: 3996 86bd 0869 48bc 94ed 5e3d 1a22 e4bd
000002a0: 418e c53d 0450 023e 44bb 823d 65af c1bd
000002b0: ddfc 84be af06 46be 1f2f 953c 486c cdbd
000002c0: 6242 083e ad58 74bd acdd 05be 96de c1bd
000002d0: 266b 66bd e9e8 4bbe c386 70be bf97 23bd
000002e0: c83a 843c c07d 96bd f8d1 21be c75c 573d
000002f0: 0bb4 09be 9ddd d0bc ee3b 0a3e 1c85 98bd
00000300: a18f b33d 27e2 173e 2e07 163e ae0f 323e
00000310: 856b 943d 7d61 303d ca79 94bd 4eb8 243e
00000320: 9cbf 62bd 6961 133d 80bc a8bd 2027 173d
00000330: 9ea7 113d 6929 63bd 443f a03c ba3f 7abc
00000340: eed9 64bd 4fec 263e c020 85bc 1cf6 013e
00000350: 2977 3f3e 3895 45be 83cc 9fbc 4d46 85bc
00000360: 9c29 e53a 2eff 203e a2e8 86bd 8761 e9bd
00000370: 43ac 013d e5d5 a73d a6b1 073e 9bb8 ce3d
00000380: 1414 e3bb 90cc b13d be51 7e3d b5b6 2d3e
00000390: 3f9f ca3d 8969 24be 63df 39be faa2 12be
000003a0: d408 813d fdd0 91bd 8249 bbbd 1f43 7abe
000003b0: 982c f63d 31cf a13c 0d07 dabd d05f 0ebe
000003c0: 0362 cdbc f9f1 fb3d 0503 e4bd 381b ff3d
000003d0: 8155 9c3d ec5e 183e 757e dbbc cef3 eb3d
000003e0: 8b01 80bc 62a2 803d 3d1d 8d3d fda8 1bbe
000003f0: 150e a13b 33c0 b63d 5a8a 91ba 8e22 4ebe

w f4 [32]
1.0 1.0 1.0 1.0 1.0 1.0 1.0 1.0
1.0 1.0 1.0 1.0 1.0 1.0 1.0 1.0
1.0 1.0 1.0 1.0 1.0 1.0 1.0 1.0
1.0 1.0 1.0 1.0 1.0 1.0 1.0 1.0
00000000: 0000 803f 0000 803f 0000 803f 0000 803f
00000010: 0000 803f 0000 803f 0000 803f 0000 803f
00000020: 0000 803f 0000 803f 0000 803f 0000 803f
00000030: 0000 803f 0000 803f 0000 803f 0000 803f
00000040: 0000 803f 0000 803f 0000 803f 0000 803f
00000050: 0000 803f 0000 803f 0000 803f 0000 803f
00000060: 0000 803f 0000 803f 0000 803f 0000 803f
00000070: 0000 803f 0000 803f 0000 803f 0000 803f

l1 f4 [1, 32]
1.0 1.0 1.0 1.0 1.0 1.0 1.0 1.0
1.0 1.0 1.0 1.0 1.0 1.0 1.0 1.0
1.0 1.0 1.0 1.0 1.0 1.0 1.0 1.0
1.0 1.0 1.0 1.0 1.0 1.0 1.0 1.0
00000000: 0000 803f 0000 803f 0000 803f 0000 803f
00000010: 0000 803f 0000 803f 0000 803f 0000 803f
00000020: 0000 803f 0000 803f 0000 803f 0000 803f
00000030: 0000 803f 0000 803f 0000 803f 0000 803f
00000040: 0000 803f 0000 803f 0000 803f 0000 803f
00000050: 0000 803f 0000 803f 0000 803f 0000 803f
00000060: 0000 803f 0000 803f 0000 803f 0000 803f
00000070: 0000 803f 0000 803f 0000 803f 0000 803f

b1 f4 [1, 32]
0.0 0.0 0.0 0.0 0.0 0.0 0.0 0.0
0.0 0.0 0.0 0.0 0.0 0.0 0.0 0.0
0.0 0.0 0.0 0.0 0.0 0.0 0.0 0.0
0.0 0.0 0.0 0.0 0.0 0.0 0.0 0.0
00000000: 0000 0000 0000 0000 0000 0000 0000 0000
00000010: 0000 0000 0000 0000 0000 0000 0000 0000
00000020: 0000 0000 0000 0000 0000 0000 0000 0000
00000030: 0000 0000 0000 0000 0000 0000 0000 0000
00000040: 0000 0000 0000 0000 0000 0000 0000 0000
00000050: 0000 0000 0000 0000 0000 0000 0000 0000
00000060: 0000 0000 0000 0000 0000 0000 0000 0000
00000070: 0000 0000 0000 0000 0000 0000 0000 0000

l2 f4 [32, 32]
4.1215632e+21 7.7155135e+31 5.405606e-14 1.3555853e-19 1.3563156e-19 1.3563156e-19 1.3563156e-19 1.6611329e+22
1.6245716e+19 8.3012524e+11 1.1030275e+21 1.6019659e-19 7.142961e+31 53855.38 4.8277164e-11 5.533923e-11
1.8061175e+28 1.1095513e+27 2.7229844e+20 5.2490462e-14 1.3555853e-19 1.3563156e-19 1.3563156e-19 1.3563156e-19
1.1027717e+21 2.6961507e+23 1.8474272e+20 2.8175146e+20 12.45761 5.3952333e+28 1.2872191e+22 1.8602783e+28
3.0823904e+32 7.2715834e+31 1.10955284e+27 2.7229844e+20 1.7034129e+19 5.5377073e-14 1.3555853e-19 1.3563156e-19
1.3563156e-19 1.3563156e-19 2.0736691e+11 1.6019605e-19 2.971273e+32 1.6930782e+22 1.7443098e+28 4.4894324e+21
1.27368675e-14 1.7537702e+19 3.0447861e-15 1.7221598e+22 7.540432e+17 1.1027725e+21 2.6961507e+23 1.10955505e+27
2.7229844e+20 1.7034129e+19 1.1231805e+18 1.1693409e-19 1.3563156e-19 1.3563156e-19 1.3563156e-19 1.209874e+25
7.2643738e+22 1.8965998e+31 6.799886e-33 1.3563156e-19 1.3563156e-19 1.3563156e-19 1.3563156e-19 1.3563156e-19
1.8062088e+28 3.1940842e-15 4.4168707e+21 7.414946e+22 4.2961314e+24 1.8975694e+37 861202.75 2.0774902e+11
3.7190117e-14 1.3555853e-19 1.3563156e-19 1.3563156e-19 1.3563156e-19 2.75226e+23 861202.0 1.6028816e-19
1.3787891e-14 1.4506729e+19 7.714028e+31 6.799842e-33 1.3563156e-19 1.3563156e-19 1.3563156e-19 1.3563156e-19
1.3563156e-19 1.7110703e+19 1.1285587e+27 1.6023192e-19 1.1693419e-19 1.3563156e-19 1.3563156e-19 1.3563156e-19
1.3563156e-19 1.209874e+25 3.0186127e+32 2.656017e+20 4.433642e-08 1.7589295e+22 7.4398655e+28 1.6880213e+25
7.0498777e-07 5.737368e-31 1.3563128e-19 1.3563156e-19 1.3563156e-19 1.3563156e-19 1.3563156e-19 1.3563156e-19
7.1538923e+22 6.809099e-33 1.3563156e-19 1.3563156e-19 1.3563156e-19 1.3563156e-19 7.184591e+22 1.1693431e-19
1.3563156e-19 1.3563156e-19 1.3563156e-19 1.3563156e-19 1.238911e+28 2.6377671e+23 2.0024845e-19 5.4272993e-31
1.3563128e-19 1.3563156e-19 1.3563156e-19 1.3563156e-19 1.3563156e-19 4.7428674e+30 1.3818006e+31 1.2737723e-14
6.7422188e+22 3.1942993e-15 1.1095574e+27 2.8036889e+20 2.7655126e+29 1.9311573e+37 1.7666557e+22 2.765848e+29
4.3607752e+27 4.617307e+24 6.796643e-33 1.3563156e-19 1.3563156e-19 1.3563156e-19 1.3563156e-19 1.3563156e-19
2.7908747e+23 2.6330376e+20 5.3968205e+28 3.0454904e-15 1.7221598e+22 7.540432e+17 1.8474272e+20 2.8175146e+20
12.45761 5.3952333e+28 3.0454904e-15 1.7221598e+22 7.540432e+17 1.3555853e-19 1.3563156e-19 1.3563156e-19
1.3563156e-19 2.0736691e+11 1.7859779e+25 2.0113278e+20 1.7751999e+28 2.0740158e+11 6.796668e-33 1.3555853e-19
1.3563156e-19 1.3563156e-19 1.3563156e-19 652.50195 2.031572e+32 7.142968e+31 1.1693487e-19 1.3563156e-19
1.3563156e-19 1.3563156e-19 2.0785477e+35 7.1462885e+22 1.8890775e+31 1.601966e-19 6.7422188e+22 2.6304815e+20
1.4147441e+34 2.63011e+20 5.146809e+22 1.6530291e+19 6.7421017e+22 4.7274934e+22 1.6530291e+19 7.0975523e+22
1.1693409e-19 1.3563156e-19 1.3563156e-19 1.3563156e-19 7.92903e+29 2.331781e-09 1.4569032e-10 4.028078e-11
1.4494913e-19 4.472143e+21 3.0826889e+32 7.5563214e+28 5.2839018e-11 1.37354185e-14 1.8970004e+28 7.2442035e+22
1.2738594e-14 9.104093e-12 2.9965638e+32 4.544822e+30 7.315405e+34 1.4606817e-19 1.4582597e-19 5.2126733e-31
1.3563128e-19 1.3563156e-19 1.3563156e-19 1.3563156e-19 0.039170384 5.4832694e-11 1.4328242e-19 7.555325e+28
5.2839018e-11 1.3181611e-14 2.3308326e-09 5.5193755e+31 6.796644e-33 1.3563156e-19 1.3563156e-19 1.3563156e-19
1.3563156e-19 1.7324631e+19 1.6019655e-19 1.1446104e+24 1.6488044e+22 4.8418473e+30 7.7765425e+31 1.3235812e-14
00000000: 2e6e 5f63 6c75 7374 6572 7329 0d0a 2020
00000010: 2020 2020 2020 2020 2020 2020 2020 6164
00000020: 6174 615f 5247 4153 542e 6f62 7320 3d20
00000030: 6164 6174 615f 5247 4153 542e 6f62 732e
00000040: 6a6f 696e 2873 656c 662e 6c61 6265 6c29
00000050: 0d0a 2020 2020 2020 2020 2020 2020 2020
00000060: 2020 6f62 735f 6466 203d 2061 6461 7461
00000070: 5f52 4741 5354 2e6f 6273 2e64 726f 706e
00000080: 6128 7375 6273 6574 3d73 656c 662e 6c61
00000090: 6265 6c5f 6b65 7929 0d0a 2020 2020 2020
000000a0: 2020 2020 2020 2020 2020 4152 4920 3d20
000000b0: 6164 6a75 7374 6564 5f72 616e 645f 7363
000000c0: 6f72 6528 6f62 735f 6466 5b27 6c65 6964
000000d0: 656e 275d 2c20 6f62 735f 6466 5b73 656c
000000e0: 662e 6c61 6265 6c5f 6b65 795d 290d 0a20
000000f0: 2020 2020 2020 2020 2020 2020 2020 2069
00000100: 6620 7665 7262 6f73 653a 0d0a 2020 2020
00000110: 2020 2020 2020 2020 2020 2020 2020 2020
00000120: 7072 696e 7428 6627 6570 6f63 683a 7b65
00000130: 706f 6368 5f69 647d 2c41 5249 3a7b 4152
00000140: 497d 2729 0d0a 2020 2020 2020 2020 2020
00000150: 2020 2020 2020 6966 2041 5249 203c 3d20
00000160: 6d61 7828 4152 495f 6c69 7374 293a 0d0a
00000170: 2020 2020 2020 2020 2020 2020 2020 2020
00000180: 2020 2020 6e75 6d5f 6661 696c 202b 3d20
00000190: 310d 0a20 2020 2020 2020 2020 2020 2020
000001a0: 2020 2020 2020 2069 6620 6e75 6d5f 6661
000001b0: 696c 3e33 2061 6e64 2065 706f 6368 5f69
000001c0: 643e 3d35 3030 3a0d 0a20 2020 2020 2020
000001d0: 2020 2020 2020 2020 2020 2020 2020 2020
000001e0: 2062 7265 616b 0d0a 2020 2020 2020 2020
000001f0: 2020 2020 2020 2020 656c 7365 3a0d 0a20
00000200: 2020 2020 2020 2020 2020 2020 2020 2020
00000210: 2020 206e 756d 5f66 6169 6c20 3d20 300d
00000220: 0a20 2020 2020 2020 2020 2020 2020 2020
00000230: 2020 2020 2074 6f72 6368 2e73 6176 6528
00000240: 6d6f 6465 6c2c 6627 7b73 656c 662e 7361
00000250: 7665 5f70 6174 687d 2f6d 6f64 656c 5f70
00000260: 6172 616d 2e70 7468 2729 0d0a 2020 2020
00000270: 2020 2020 2020 2020 2020 2020 2020 2020
00000280: 7365 6c66 2e61 6461 7461 2e6f 6273 5b27
00000290: 6c65 6964 656e 275d 203d 2061 6461 7461
000002a0: 5f52 4741 5354 2e6f 6273 5b27 6c65 6964
000002b0: 656e 275d 0d0a 2020 2020 2020 2020 2020
000002c0: 2020 2020 2020 4152 495f 6c69 7374 2e61
000002d0: 7070 656e 6428 4152 4929 0d0a 0d0a 2020
000002e0: 2020 2020 2020 2020 2020 2020 2020 2344
000002f0: 4543 2075 7064 6174 650d 0a20 2020 2020
00000300: 2020 2020 2020 2020 2020 207a 2c20 7265
00000310: 636f 6e73 7420 3d20 6d6f 6465 6c28 6461
00000320: 7461 2e78 2c20 6461 7461 2e65 6467 655f
00000330: 696e 6465 782c 2065 6467 655f 7479 7065
00000340: 290d 0a20 2020 2020 2020 2020 2020 2020
00000350: 2020 2071 203d 2031 2e30 202f 2028 312e
00000360: 3020 2b20 746f 7263 682e 7375 6d28 746f
00000370: 7263 682e 706f 7728 7a2e 756e 7371 7565
00000380: 657a 6528 3129 202d 2063 6c75 7374 6572
00000390: 5f6c 6179 6572 2c20 3229 2c20 3229 290d
000003a0: 0a20 2020 2020 2020 2020 2020 2020 2020
000003b0: 2071 203d 2028 712e 7428 2920 2f20 746f
000003c0: 7263 682e 7375 6d28 712c 2031 2929 2e74
000003d0: 2829 0d0a 2020 2020 2020 2020 2020 2020
000003e0: 2020 2020 746d 705f 7020 3d20 7461 7267
000003f0: 6574 5f64 6973 7472 6962 7574 696f 6e28

b2 f4 [1, 32]
0.0 0.0 0.0 0.0 0.0 0.0 0.0 0.0
0.0 0.0 0.0 0.0 0.0 0.0 0.0 0.0
0.0 0.0 0.0 0.0 0.0 0.0 0.0 0.0
0.0 0.0 0.0 0.0 0.0 0.0 0.0 0.0
00000000: 0000 0000 0000 0000 0000 0000 0000 0000
00000010: 0000 0000 0000 0000 0000 0000 0000 0000
00000020: 0000 0000 0000 0000 0000 0000 0000 0000
00000030: 0000 0000 0000 0000 0000 0000 0000 0000
00000040: 0000 0000 0000 0000 0000 0000 0000 0000
00000050: 0000 0000 0000 0000 0000 0000 0000 0000
00000060: 0000 0000 0000 0000 0000 0000 0000 0000
00000070: 0000 0000 0000 0000 0000 0000 0000 0000

weight f4 [200, 32]
-0.3691846 0.13334106 0.22225843 0.41168723 -0.054122966 -0.42053178 -0.113196395 -0.45867506
-0.07462617 0.17718653 -0.323059 0.29857442 0.32362247 0.23187016 -0.028109634 0.32958755
-0.24406506 -0.5006029 -0.41984916 -0.019794712 0.26575565 -0.14616604 -0.13937174 0.01646729
0.062376607 -0.201606 -0.32095298 0.016227778 0.16974808 0.32280245 -0.0053015584 0.19256747
-0.21938923 0.2629441 -0.3015779 0.24816656 -0.08551605 -0.3000157 -0.2565242 -0.20919296
-0.18618678 0.5082385 0.4263639 -0.17179209 -0.13578025 0.041813586 0.13345686 -0.012711698
0.18204637 -0.099208765 -0.42386508 0.047211263 -0.52335036 -0.06259041 -0.3431956 0.55849946
0.34573835 -0.26215795 -0.061539102 -0.36774904 -0.27729544 0.18899819 0.43801665 -0.1044096
-0.0032903538 0.0023423554 0.01445164 0.006230339 -0.14534307 -0.03350164 0.08805128 -0.123743534
-0.034004565 0.017520363 -0.037878457 -0.028347414 -0.09027302 0.007149475 -0.017976066 0.06825226
-0.029566871 -0.00021768096 0.099055216 0.031094402 -0.012669785 0.0038924846 0.09537779 0.06111853
-0.02918389 0.028553415 -0.07722557 -0.09842825 -0.03778965 0.035706628 -0.0049487543 -0.005300081
-0.025985891 0.0051880754 -0.03306055 -0.032259494 -0.076349474 -0.026224477 -0.043980654 0.06960298
-0.004460464 0.030472757 -0.069631554 -0.03951759 0.004940466 0.0020190857 0.058044076 -0.03887067
-0.06875645 0.0074669044 0.13283966 0.04306984 0.057903863 -0.04028442 0.015593509 -0.057123907
-0.033658907 -0.0032330079 -0.022982243 0.071625575 0.06626356 0.04065801 0.0013800082 0.009137329
0.021415433 0.005149911 -0.0018081095 -0.016999846 0.061655156 -0.026002156 0.08853878 0.096568495
0.0056457873 -0.006724215 -0.0004358645 0.03223528 0.1298029 0.024622392 -0.038469486 -0.039534695
0.016497156 -0.04401103 -0.042757384 -0.069422744 -0.08867483 -0.037941746 -0.04811481 0.052861087
0.035898913 -0.00018332801 0.0352265 -0.060982645 0.009160354 0.019054553 -0.001645341 -0.021475703
0.07312761 0.1020445 -0.11384472 0.033261873 0.6312125 -0.04580944 -0.0676476 0.040548794
0.07283123 -0.23186761 -0.13191068 0.16510731 0.1820436 0.17627119 0.0343893 -0.051996816
-0.06498608 -0.13640544 0.031344958 -0.015646642 -0.1876171 0.18955508 -0.010820139 0.1378056
-0.048795156 0.1217073 -0.054578785 0.10150894 -0.07015192 -0.08677444 -0.22456911 -0.08672179
0.03263468 0.070860066 -0.26183262 0.12583406 0.16358283 -0.054910135 0.28612304 0.15775609
-0.01106796 -0.20351118 -0.16435276 0.11254282 0.103085674 0.3359274 -0.012878997 0.07877877
-0.20577185 -0.16330884 -0.0270906 0.2383018 -0.3765226 0.38103002 0.21582645 0.12261173
0.02499843 0.1895584 -0.2699748 0.1404057 -0.2145721 -0.0033587397 -0.36910078 -0.28150728
0.07845803 -0.022402702 0.108372994 -0.18106036 0.37533647 0.057273164 0.29199377 0.07816981
0.043977387 -0.016988741 -0.0047361925 -0.012838653 0.09762857 0.1415183 -0.040691085 -0.015016731
-0.028646585 -0.013224258 -0.032446608 0.042098604 -0.039443713 -0.18519552 0.0736891 -0.10323219
0.042583097 0.0055545084 0.0042330013 -0.10969915 -0.020497436 0.052147426 -0.03755115 -0.014524181
00000000: c405 bdbe 8f8a 083e b797 633e abc8 d23e
00000010: 0bb0 5dbd f14f d7be 83d3 e7bd 75d7 eabe
00000020: 9bd5 98bd 6370 353e fd67 a5be bfde 983e
00000030: d8b1 a53e 5f6f 6d3e 2d46 e6bc b3bf a83e
00000040: 31ec 79be 8327 00bf 78f6 d6be 8528 a2bc
00000050: 2011 883e 8dac 15be 77b7 0ebe 69e6 863c
00000060: 9d7e 7f3d ce71 4ebe f353 a4be 1ef0 843c
00000070: 71d2 2d3e 5d46 a53e b2b8 adbb 6830 453e
00000080: 92a7 60be 9ca0 863e 6b68 9abe 601f 7e3e
00000090: 0a23 afbd a89b 99be 2457 83be ae36 56be
000000a0: bfa7 3ebe eb1b 023f 5e4c da3e 44ea 2fbe
000000b0: fa09 0bbe b944 2b3d eaa8 083e ba44 50bc
000000c0: 5d6a 3a3e f72d cbbd d804 d9be 9960 413d
000000d0: 4afa 05bf 672f 80bd 55b7 afbe d2f9 0e3f
000000e0: 9e04 b13e 9139 86be 6d10 7cbd 9a49 bcbe
000000f0: abf9 8dbe be88 413e b843 e03e b3d4 d5bd
00000100: faa2 57bb 3482 193b 92c6 6c3c df27 cc3b
00000110: d0d4 14be 0439 09bd 3b54 b43d 406d fdbd
00000120: 5f48 0bbd dd86 8f3c 7126 1bbd d638 e8bc
00000130: 10e1 b8bd 2546 ea3b 8b42 93bc d7c7 8b3d
00000140: 3936 f2bc 4a41 64b9 76dd ca3d b0b9 fe3c
00000150: ee94 4fbc 0e19 7f3b 6e55 c33d 6c57 7a3d
00000160: 0e13 efbc dae8 e93c 7128 9ebd c094 c9bd
00000170: 52c9 1abd 1d41 123d 2929 a2bb 4dac adbb
00000180: 5de0 d4bc bb00 aa3b 806a 07bd 8822 04bd
00000190: 1d5d 9cbd b7d4 d6bc 0f25 34bd 028c 8e3d
000001a0: 1629 92bb 01a2 f93c fd9a 8ebd 32dd 21bd
000001b0: a2e3 a13b a352 043b a0bf 6d3d da36 1fbd
000001c0: 2fd0 8cbd efac f43b 1f07 083e 006a 303d
000001d0: 9a2c 6d3d 4701 25bd eb7b 7f3c c2fa 69bd
000001e0: ecdd 09bd dfe0 53bb 4245 bcbc 6eb0 923d
000001f0: 30b5 873d 0389 263d 64e1 b43a bcb4 153c
00000200: 6b6f af3c 96c0 a83b 16fe ecba 4343 8bbc
00000210: 1e8a 7c3d 7902 d5bc d253 b53d b4c5 c53d
00000220: 4c00 b93b ce56 dcbb be84 e4b9 2409 043d
00000230: 0deb 043e e6b4 c93c 2e92 1dbd 22ef 21bd
00000240: 0b25 873c e944 34bd 5e22 2fbd 832d 8ebd
00000250: 269b b5bd ce68 1bbd 0914 45bd de84 583d
00000260: bd0a 133d bd3b 40b9 aa49 103d f0c8 79bd
00000270: 4f15 163c 4b18 9c3c 7ca8 d7ba d0ed afbc
00000280: eec3 953d b5fc d03d 6c27 e9bd 9a3d 083d
00000290: 2497 213f aea2 3bbd d38a 8abd 7e16 263d
000002a0: 8a28 953d b46e 6dbe 9813 07be e411 293e
000002b0: a369 3a3e 6f80 343e cbdb 0c3d 9dfa 54bd
000002c0: 6c17 85bd dead 0bbe 9263 003d 632d 80bc
000002d0: b21e 40be ba1a 423e f446 31bc e91c 0d3e
000002e0: 6edd 47bd ad41 f93d 018e 5fbd ebe3 cf3d
000002f0: cfab 8fbd ccb6 b1bd 72f5 65be 329b b1bd
00000300: f1ab 053d 151f 913d ed0e 86be a5da 003e
00000310: 4282 273e 73e9 60bd b87e 923e d08a 213e
00000320: 6456 35bc 3c65 50be 174c 28be da7c e63d
00000330: 951e d33d adfe ab3e 6e02 53bc c456 a13d
00000340: dbb5 52be 6f3a 27be 1bed ddbc 6305 743e
00000350: 92c7 c0be 5e16 c33e 9c01 5d3e dc1b fb3d
00000360: 82c9 cc3c 991b 423e 233a 8abe 83c6 0f3e
00000370: cab8 5bbe 4d1e 5cbb c7fa bcbe b921 90be
00000380: 9bae a03d df85 b7bc a9f2 dd3d e367 39be
00000390: 1a2c c03e 4497 6a3d 3580 953e 7e17 a03d
000003a0: a221 343d f92b 8bbc 1032 9bbb 3759 52bc
000003b0: 7df1 c73d 2cea 103e b2ab 26bd bc08 76bc
000003c0: 3eac eabc 8faa 58bc bce6 04bd 966f 2c3d
000003d0: bb8f 21bd e5a3 3dbe 50ea 963d 666b d3bd
000003e0: 9d6b 2e3d 9802 b63b fdb4 8a3b f3a9 e0bd
000003f0: 3dea a7bc 8a98 553d 3ccf 19bd d5f6 6dbc
