model_path/Mouse_Stereo.pth (torch, 270271 bytes, 18 tensors)

q f4 [100, 1]
0	0xbd2b7247	-0.04185703
1	0xbe623fd7	-0.22094665
2	0x3cda15af	0.026621668
3	0x3dd35eaf	0.10320794
4	0xbd9a945d	-0.07547829
5	0xbc94c4d3	-0.01816026
6	0x3e757654	0.2397092
7	0xbe227335	-0.1586426
8	0x3e0ba775	0.13638099
9	0xbe0f9b7e	-0.1402416
10	0xbe7dbd9d	-0.24779363
11	0x3d42a1f5	0.047517736
12	0xbe4defbb	-0.20110981
13	0xbe820d27	-0.2540066
14	0x3de19251	0.11014236
15	0x3e06fee1	0.13183166
16	0x3d5e27e1	0.05423725
17	0x3e614a0b	0.22000901
18	0xbd9f8013	-0.077881
19	0x3e6aa7ac	0.22915524
20	0x3e0c3870	0.13693404
21	0x3e4a90b2	0.1978176
22	0xbd9d8c79	-0.07692809
23	0x3cb4bb30	0.022061914
24	0xbdf54c9d	-0.119775034
25	0xbdd6991e	-0.104784235
26	0xbd7537ff	-0.059867855
27	0xbe5ff7a1	-0.21871807
28	0x399d9ba8	0.00030061346
29	0x3e351608	0.17684186
30	0x3e39eefc	0.18157572
31	0xbe2a2ee3	-0.16619448
32	0xbe46f4cb	-0.19429319
33	0x3e120405	0.14259346
34	0x3e34becd	0.1765091
35	0x3e4b7625	0.19869287
36	0xbe11dd4b	-0.14244573
37	0xbe740af7	-0.23832308
38	0xbe22f042	-0.15911964
39	0x3d6c0053	0.057617497
40	0xbe055d50	-0.13023877
41	0xbdfafdf6	-0.122554705
42	0xbd9e35e7	-0.07725125
43	0xbda8dca9	-0.082452126
44	0xbd18414c	-0.037171647
45	0xbe500209	-0.20313276
46	0xbd753d9a	-0.0598732
47	0x3dac8e5a	0.08425589
48	0x3e271a47	0.16318618
49	0xbc4fd3ba	-0.012684757
50	0x3e1925e1	0.14955856
51	0x3d0bd4d2	0.03413851
52	0x3cf797e5	0.030223796
53	0xbdbaffe4	-0.091308385
54	0x3d36cd6c	0.0446295
55	0x3b66c967	0.003521526
56	0xbbfb4b03	-0.007668854
57	0x3d828602	0.06373216
58	0x3e25915b	0.1616873
59	0xbc92e449	-0.01793112
60	0x3ca3b1af	0.019982187
61	0xbd0b12ac	-0.033953354
62	0xbe1e8425	-0.15480097
63	0x3b75c68d	0.0037502379
64	0x3d96d9cd	0.07365761
65	0x3d216cb5	0.03941031
66	0xbda53644	-0.08066991
67	0xbe373b98	-0.17893827
68	0x3cb0b735	0.021571735
69	0x3e1fd18a	0.15607277
70	0x3cb4d49a	0.022074033
71	0xbe3c68d6	-0.18399367
72	0x3e5fe071	0.21862961
73	0xbe021bad	-0.1270587
74	0x3e223583	0.15840726
75	0xbe22547e	-0.15852544
76	0x3c229337	0.009922794
77	0x3d57af77	0.05265757
78	0x3c6389e7	0.013887859
79	0x3d96cedd	0.07363675
80	0xbe175a04	-0.14780432
81	0x3d94e993	0.07271113
82	0x3e10ec0e	0.14152548
83	0xbd96ec36	-0.073692724
84	0x3e243ee6	0.16039619
85	0xbe17eae6	-0.148357
86	0xbdd26b18	-0.10274333
87	0xbe551116	-0.20807299
88	0x3e08b376	0.13349709
89	0xbe218d64	-0.15776592
90	0xbe75ef20	-0.24017
91	0x3e36a18c	0.17835063
92	0x3e273d28	0.16331923
93	0xbd7df248	-0.061998636
94	0x3d8d6317	0.069036655
95	0xbe52618a	-0.2054502
96	0x3c767bcf	0.015044167
97	0x3e5da73e	0.21645829
98	0x3e572fe1	0.21014358
99	0xbe0c26d1	-0.13686682

k f4 [100, 1]
0	0xbe300aeb	-0.17191665
1	0xbe019f99	-0.12658538
2	0xbdcf6c73	-0.10128107
3	0xbdf3ec86	-0.11910348
4	0xbca35597	-0.019938273
5	0x3db5df1b	0.088804446
6	0x3e0188f5	0.12649901
7	0xbce8aa00	-0.028401375
8	0xbd012fb7	-0.031539645
9	0xbe48792a	-0.1957747
10	0xbe31664e	-0.17324182
11	0x3e0a989d	0.1353478
12	0x3d8af16f	0.06784331
13	0x3da3a780	0.079909325
14	0x3df8be28	0.121456444
15	0x3e6d3860	0.23166037
16	0x3c3dae21	0.01157716
17	0xbd4c21e9	-0.049837027
18	0x3e32f74c	0.17477149
19	0xbe314792	-0.17312458
20	0xbd54e45b	-0.05197559
21	0xbe0e1b6d	-0.1387765
22	0xbe3d1e23	-0.18468527
23	0xbc9d17cd	-0.019176388
24	0xbd941e80	-0.0723238
25	0xbd86de5a	-0.06585379
26	0x3c41af4d	0.01182158
27	0xbc0185ee	-0.0079054665
28	0x3dd68405	0.104743995
29	0x3d2daf7e	0.04240369
30	0x3dc16ee1	0.094449766
31	0x3e7e7fa3	0.24853377
32	0x3e14d0ea	0.1453282
33	0xbe098722	-0.13430455
34	0xbd4043db	-0.046939712
35	0xbd88eec4	-0.06686166
36	0x3da967bc	0.08271739
37	0x3e3012c1	0.17194654
38	0xbd631eab	-0.05544917
39	0xbd2af9d9	-0.04174218
40	0xbe26fc9b	-0.16307299
41	0x3e5a0321	0.21290256
42	0xbd9d9984	-0.076952964
43	0x3deb3e33	0.11486473
44	0x3daf5bc8	0.08562428
45	0x3dd91906	0.10600476
46	0xbdc1883e	-0.09449814
47	0xbd650dbc	-0.0559213
48	0x3d23d306	0.03999617
49	0xbd22a027	-0.039703514
50	0xbdf8a5b0	-0.121409774
51	0xbe3c6e07	-0.18401347
52	0x3e2b825a	0.16748944
53	0xbdf65370	-0.12027633
54	0x3e68b28a	0.22724357
55	0xbd71d87d	-0.05904435
56	0x3e0c803f	0.13720797
57	0xbe6e3d8f	-0.2326567
58	0xbd6e04d5	-0.058110077
59	0xbc9e143d	-0.01929676
60	0x3d9b640f	0.07587444
61	0xbe139613	-0.14412718
62	0x3dad37b0	0.08457887
63	0x3cdc876c	0.026920043
64	0x3d94a11c	0.07257292
65	0xbc645ab6	-0.013937643
66	0x3e694673	0.2278078
67	0xbe1dd1e0	-0.15412092
68	0x3df46428	0.11933166
69	0x3dcbadaa	0.09945233
70	0x3d9a4225	0.07532147
71	0xbdc65f5e	-0.096861586
72	0x3e4369f6	0.1908339
73	0xbe0eb25a	-0.13935223
74	0x3e52c013	0.20581083
75	0xbd0b1886	-0.033958934
76	0xbe4e23ae	-0.20130798
77	0xbd4115ab	-0.047139805
78	0xbe7e712a	-0.24847856
79	0x3e5f4fa0	0.21807718
80	0xbd28756c	-0.041127607
81	0xbdb0104f	-0.085968606
82	0x3e3bd850	0.18344235
83	0xbdf3c0c7	-0.11902004
84	0x3c693470	0.0142336935
85	0x3e2829be	0.16422173
86	0x3e0189f0	0.12650275
87	0x3d884e75	0.066555895
88	0x3da961b5	0.08270589
89	0x3dd05620	0.10172677
90	0xbe114782	-0.14187434
91	0x3ca6f39d	0.020379836
92	0xbe242606	-0.1603013
93	0xbe509dd8	-0.20372713
94	0xbdf306fe	-0.11866568
95	0xbe6dec55	-0.23234685
96	0xbe059732	-0.13045958
97	0xbe381668	-0.17977297
98	0x3e5d51a7	0.21613179
99	0xbc45d8a4	-0.012075577

weight f4 [2, 200, 100]
0	0xbb274e6e	-0.0025528925
1	0x3d80db69	0.06291849
2	0xbd9629de	-0.07332204
3	0xbd9106ba	-0.07081361
4	0xbd8c9fb7	-0.06866401
5	0x3d5e0af7	0.054209676
6	0xbb27bdf0	-0.002559539
7	0x3dede5dc	0.11616108
8	0x3d984ac1	0.07436133
9	0x3d2eabaa	0.04264418
10	0xbd50f423	-0.051014077
11	0xbd349e40	-0.04409623
12	0xbe0c736e	-0.13715908
13	0xbde2a791	-0.11067117
14	0xbd85c0d4	-0.0653092
15	0x3c6c469a	0.01442113
16	0x3d7f8e3e	0.062391512
17	0x3db85ddd	0.09002278
18	0xbda62aa7	-0.08113604
19	0xbd544f02	-0.05183316
20	0x3d955a36	0.07292597
21	0x3e0e7fc8	0.13915932
22	0xbc54937f	-0.012974619
23	0x3dffd33e	0.12491463
24	0xbcbda6e0	-0.023150861
25	0x3bcdae0c	0.0062768515
26	0x3dc8f343	0.098120235
27	0xbe01795c	-0.12643951
28	0xbd8dad07	-0.06917768
29	0x3c84eb51	0.016225489
30	0xbd1ba398	-0.037997812
31	0x3dca6c26	0.09883909
32	0xbdba586d	-0.09098897
33	0xbd139675	-0.03603216
34	0xbd311697	-0.043234434
35	0xbc084690	-0.008317605
36	0xbdbacc46	-0.09120993
37	0x3da7d48d	0.08194838
38	0x3ce4c408	0.027925506
39	0x3df31c57	0.1187064
40	0x3cb462b2	0.022019718
41	0xbd9854bd	-0.074380375
42	0x3c0f7289	0.008755335
43	0xbe032a5b	-0.12809126
44	0xbdbf5ebe	-0.093442425
45	0xbd3a90da	-0.045548297
46	0x3d7d23c0	0.061801672
47	0x3d901a1e	0.070362315
48	0xbd880190	-0.06640923
49	0xbc303a15	-0.010756035
50	0x3db4554b	0.08805331
51	0x3df0b98b	0.117541395
52	0x3d139a43	0.036035787
53	0xba32ab51	-0.0006815689
54	0x3db04973	0.08607759
55	0xbd518c88	-0.05115941
56	0x3cb38873	0.02191565
57	0xbdc1df11	-0.09466375
58	0xbd3b1e61	-0.04568327
59	0xbda0a935	-0.07844774
60	0x3da2fe7c	0.07958695
61	0x3d8dc6eb	0.06922706
62	0xbdbc3a06	-0.091907546
63	0x3d2a01b2	0.041505523
64	0x3dd47cd0	0.103753686
65	0xbc590ddd	-0.013247934
66	0xbc0c858f	-0.008576765
67	0x3c73c000	0.014877319
68	0x3d43ae7d	0.047773827
69	0x3e0a2f0e	0.13494512
70	0xbde23623	-0.11045482
71	0xbd7d9a11	-0.061914507
72	0x3d8fe68a	0.07026394
73	0x3e0342a3	0.12818389
74	0x3e08d791	0.13363482
75	0x3d831300	0.06400108
76	0x3d0a5bd8	0.033778995
77	0xbd8e3c17	-0.06945055
78	0x3cb3c9f9	0.021946894
79	0xbd9fa726	-0.07795553
80	0xbe0fdea6	-0.14049777
81	0x3e181d5b	0.14854948
82	0x3dc53f81	0.09631253
83	0xbde5e336	-0.11224978
84	0x3cc23210	0.023705512
85	0xbcc575ae	-0.024103966
86	0xbd3f9592	-0.0467735
87	0xbda187d7	-0.078872375
88	0x3d32bcf4	0.04363723
89	0xbdb7b0ef	-0.08969294
90	0x3cf5b22e	0.02999219
91	0x3de98c95	0.11403767
92	0x3db66385	0.089057006
93	0x3d6a78e1	0.057244185
94	0xbe08a41d	-0.13343854
95	0xbdb26ef7	-0.08712571
96	0x3d2b09da	0.041757442
97	0x3d578ab6	0.05262252
98	0xbd8fee0c	-0.07027826
99	0xbd8f07ca	-0.069839075
100	0x3e01011a	0.12598076
101	0x3db6943f	0.089149944
102	0xbd003974	-0.03130479
103	0xbc8ed8fa	-0.017437447
104	0xbdf8cbb7	-0.121482305
105	0x3932fa55	0.00017068659
106	0xbde1bb0e	-0.11022006
107	0xbdc0be15	-0.09411255
108	0xbc1f2f34	-0.009715844
109	0x3c73ddb1	0.014884398
110	0xbd53c054	-0.05169709
111	0x3d9349ca	0.071918085
112	0xbd9c8b90	-0.07643807
113	0x3dd3552d	0.1031898
114	0x3dab6c8a	0.083703116
115	0xbdf611d2	-0.12015118
116	0xbcff37d1	-0.031154545
117	0x3c0a47bf	0.008439957
118	0x3caee81f	0.021350918
119	0x3cc3c7ed	0.023899043
120	0x3d732957	0.059365597
121	0x3cb6eee0	0.022330701
122	0xbd67e6b7	-0.05661651
123	0x3d74bde3	0.059751403
124	0xbdfbc6fd	-0.122938134
125	0xbd8b2bd9	-0.06795473
126	0xbcd31528	-0.025766924
127	0xbd670325	-0.056399483
128	0xbd4a243d	-0.049350966
129	0xbde7c0ec	-0.11316094
130	0xbd1b8a8b	-0.03797392
131	0x3cb5e007	0.022201551
132	0xbdaafe35	-0.083492674
133	0xbbfb43db	-0.007668001
134	0x3dc314bf	0.095254414
135	0xbcab651b	-0.020922234
136	0x3bd208be	0.0064097336
137	0xbc9574dd	-0.018244201
138	0x3cba4be9	0.022741275
139	0x3d9c5b33	0.07634582
140	0x3e119805	0.14218147
141	0x3d9ff8cc	0.07811126
142	0x3df83ec7	0.12121349
143	0xbca4b12d	-0.020104015
144	0xbdf70614	-0.12061706
145	0xbd53c525	-0.051701684
146	0x3db5815a	0.088625625
147	0x3bd980ec	0.006637683
148	0xbd992a3e	-0.0747876
149	0xbdb560ff	-0.08856391
150	0xbd8a2f1f	-0.06747269
151	0xbdd9bab5	-0.10631315
152	0xbd19f762	-0.03758944
153	0x3d856e6c	0.06515202
154	0x3d82943a	0.06375928
155	0xbdcf3c46	-0.10118918
156	0x3db11eac	0.08648428
157	0xbdbbc0a7	-0.09167605
158	0xbcf6414b	-0.030060431
159	0xbd5d3171	-0.05400223
160	0xbcd3fe15	-0.025877992
161	0xbc89c445	-0.016817221
162	0xbdfe43f9	-0.124153085
163	0xbddf678b	-0.10908421
164	0xbcd9401f	-0.026519833
165	0x3b43b55f	0.0029862744
166	0xbd868a41	-0.065693386
167	0x3d7a3876	0.061089
168	0xbe07c55e	-0.13258883
169	0xbc85c61f	-0.016329823
170	0x3de387bb	0.11109873
171	0xbd31c7b1	-0.04340333
172	0x3dfa170e	0.122114286
173	0x3d7d454b	0.06183366
174	0xbe05d560	-0.13069677
175	0x3da2408d	0.07922468
176	0xbbcf6152	-0.00632874
177	0x3c193b1d	0.009352473
178	0x3df744cb	0.12073668
179	0xbdf49bb4	-0.119437605
180	0x3b995405	0.0046792054
181	0xbc28a168	-0.0102923885
182	0x3dbba280	0.09161854
183	0x3d30e7fd	0.04318999
184	0x3d65d16e	0.05610793
185	0x3d752648	0.05985096
186	0xbd4f211d	-0.05056869
187	0xbcf5abf1	-0.029989215
188	0xbdfc749d	-0.1232693
189	0x3d8c79a4	0.068591386
190	0x3ddbe781	0.10737515
191	0x3dc1daac	0.094655365
192	0xbda08eae	-0.07839714
193	0x3c3f9785	0.01169384
194	0xbdac888b	-0.08424481
195	0xbd852a74	-0.06502238
196	0xbd94bd57	-0.07262676
197	0x3d6ad3c6	0.05733087
198	0xbdb3c619	-0.087780185
199	0x3a763440	0.0009391941
200	0xba61d059	-0.0008614115
201	0x3d91944a	0.07108362
202	0xbd9a84e0	-0.07544875
203	0xbd9e1a8f	-0.077199094
204	0xbda13596	-0.07871549
205	0x3db4e388	0.08832461
206	0xbd175532	-0.036946483
207	0x3dde1266	0.10843353
208	0x3d9ad4dd	0.07560132
209	0x3cea0df8	0.028571114
210	0x3b02c813	0.001995568
211	0xbcc157af	-0.023601381
212	0x3c5ab942	0.013349833
213	0xbd1a54c6	-0.037678503
214	0x3bcce9f4	0.0062534753
215	0x3c450847	0.012025899
216	0xbdbdf253	-0.09274735
217	0xbd6a52e9	-0.057207976
218	0x3de3b8bc	0.1111922
219	0xbdc718df	-0.09721541
220	0x3c994095	0.018707553
221	0x3e0fd728	0.1404692
222	0x3d6adb1d	0.05733787
223	0x3ce4c18b	0.02792432
224	0xbde90c6c	-0.113793224
225	0x3d83b3ce	0.064307794
226	0xbda6bb20	-0.0814116
227	0xbcbd299f	-0.023091136
228	0xbd2423dd	-0.040073264
229	0xbbb0f3fd	-0.0054001794
230	0x3afbad3a	0.0019201406
231	0x3ddad6f6	0.10685532
232	0x3c9a6cab	0.018850645
233	0x3ddf1225	0.10892133
234	0x3d9dd0ca	0.07705839
235	0xbd48a86b	-0.04898874
236	0x3d3e1014	0.046402052
237	0xbdc567b3	-0.0963892
238	0xbd4e04ef	-0.050297674
239	0x3d8f1966	0.06987266
240	0x3d1eab1d	0.038737405
241	0x3dc26d08	0.09493452
242	0xbd0dec21	-0.03464902
243	0xbbb70b91	-0.0055860956
244	0x3d6ada00	0.057336807
245	0xbdf92a9a	-0.12166329
246	0x3da93f4d	0.08264027
247	0xbde664ed	-0.11249719
248	0x3ba9d9ef	0.0051834504
249	0xbce2b9cc	-0.027676485
250	0xbd7f8f1e	-0.062392347
251	0x3b48623d	0.0030576133
252	0x3de3da7f	0.11125659
253	0xbd230c25	-0.039806504
254	0xbda90c92	-0.08254351
255	0xbd3d66c7	-0.046240594

w f4 [100]
0	0x3f800000	1.0
1	0x3f800000	1.0
2	0x3f800000	1.0
3	0x3f800000	1.0
4	0x3f800000	1.0
5	0x3f800000	1.0
6	0x3f800000	1.0
7	0x3f800000	1.0
8	0x3f800000	1.0
9	0x3f800000	1.0
10	0x3f800000	1.0
11	0x3f800000	1.0
12	0x3f800000	1.0
13	0x3f800000	1.0
14	0x3f800000	1.0
15	0x3f800000	1.0
16	0x3f800000	1.0
17	0x3f800000	1.0
18	0x3f800000	1.0
19	0x3f800000	1.0
20	0x3f800000	1.0
21	0x3f800000	1.0
22	0x3f800000	1.0
23	0x3f800000	1.0
24	0x3f800000	1.0
25	0x3f800000	1.0
26	0x3f800000	1.0
27	0x3f800000	1.0
28	0x3f800000	1.0
29	0x3f800000	1.0
30	0x3f800000	1.0
31	0x3f800000	1.0
32	0x3f800000	1.0
33	0x3f800000	1.0
34	0x3f800000	1.0
35	0x3f800000	1.0
36	0x3f800000	1.0
37	0x3f800000	1.0
38	0x3f800000	1.0
39	0x3f800000	1.0
40	0x3f800000	1.0
41	0x3f800000	1.0
42	0x3f800000	1.0
43	0x3f800000	1.0
44	0x3f800000	1.0
45	0x3f800000	1.0
46	0x3f800000	1.0
47	0x3f800000	1.0
48	0x3f800000	1.0
49	0x3f800000	1.0
50	0x3f800000	1.0
51	0x3f800000	1.0
52	0x3f800000	1.0
53	0x3f800000	1.0
54	0x3f800000	1.0
55	0x3f800000	1.0
56	0x3f800000	1.0
57	0x3f800000	1.0
58	0x3f800000	1.0
59	0x3f800000	1.0
60	0x3f800000	1.0
61	0x3f800000	1.0
62	0x3f800000	1.0
63	0x3f800000	1.0
64	0x3f800000	1.0
65	0x3f800000	1.0
66	0x3f800000	1.0
67	0x3f800000	1.0
68	0x3f800000	1.0
69	0x3f800000	1.0
70	0x3f800000	1.0
71	0x3f800000	1.0
72	0x3f800000	1.0
73	0x3f800000	1.0
74	0x3f800000	1.0
75	0x3f800000	1.0
76	0x3f800000	1.0
77	0x3f800000	1.0
78	0x3f800000	1.0
79	0x3f800000	1.0
80	0x3f800000	1.0
81	0x3f800000	1.0
82	0x3f800000	1.0
83	0x3f800000	1.0
84	0x3f800000	1.0
85	0x3f800000	1.0
86	0x3f800000	1.0
87	0x3f800000	1.0
88	0x3f800000	1.0
89	0x3f800000	1.0
90	0x3f800000	1.0
91	0x3f800000	1.0
92	0x3f800000	1.0
93	0x3f800000	1.0
94	0x3f800000	1.0
95	0x3f800000	1.0
96	0x3f800000	1.0
97	0x3f800000	1.0
98	0x3f800000	1.0
99	0x3f800000	1.0

l1 f4 [1, 100]
0	0x3f800000	1.0
1	0x3f800000	1.0
2	0x3f800000	1.0
3	0x3f800000	1.0
4	0x3f800000	1.0
5	0x3f800000	1.0
6	0x3f800000	1.0
7	0x3f800000	1.0
8	0x3f800000	1.0
9	0x3f800000	1.0
10	0x3f800000	1.0
11	0x3f800000	1.0
12	0x3f800000	1.0
13	0x3f800000	1.0
14	0x3f800000	1.0
15	0x3f800000	1.0
16	0x3f800000	1.0
17	0x3f800000	1.0
18	0x3f800000	1.0
19	0x3f800000	1.0
20	0x3f800000	1.0
21	0x3f800000	1.0
22	0x3f800000	1.0
23	0x3f800000	1.0
24	0x3f800000	1.0
25	0x3f800000	1.0
26	0x3f800000	1.0
27	0x3f800000	1.0
28	0x3f800000	1.0
29	0x3f800000	1.0
30	0x3f800000	1.0
31	0x3f800000	1.0
32	0x3f800000	1.0
33	0x3f800000	1.0
34	0x3f800000	1.0
35	0x3f800000	1.0
36	0x3f800000	1.0
37	0x3f800000	1.0
38	0x3f800000	1.0
39	0x3f800000	1.0
40	0x3f800000	1.0
41	0x3f800000	1.0
42	0x3f800000	1.0
43	0x3f800000	1.0
44	0x3f800000	1.0
45	0x3f800000	1.0
46	0x3f800000	1.0
47	0x3f800000	1.0
48	0x3f800000	1.0
49	0x3f800000	1.0
50	0x3f800000	1.0
51	0x3f800000	1.0
52	0x3f800000	1.0
53	0x3f800000	1.0
54	0x3f800000	1.0
55	0x3f800000	1.0
56	0x3f800000	1.0
57	0x3f800000	1.0
58	0x3f800000	1.0
59	0x3f800000	1.0
60	0x3f800000	1.0
61	0x3f800000	1.0
62	0x3f800000	1.0
63	0x3f800000	1.0
64	0x3f800000	1.0
65	0x3f800000	1.0
66	0x3f800000	1.0
67	0x3f800000	1.0
68	0x3f800000	1.0
69	0x3f800000	1.0
70	0x3f800000	1.0
71	0x3f800000	1.0
72	0x3f800000	1.0
73	0x3f800000	1.0
74	0x3f800000	1.0
75	0x3f800000	1.0
76	0x3f800000	1.0
77	0x3f800000	1.0
78	0x3f800000	1.0
79	0x3f800000	1.0
80	0x3f800000	1.0
81	0x3f800000	1.0
82	0x3f800000	1.0
83	0x3f800000	1.0
84	0x3f800000	1.0
85	0x3f800000	1.0
86	0x3f800000	1.0
87	0x3f800000	1.0
88	0x3f800000	1.0
89	0x3f800000	1.0
90	0x3f800000	1.0
91	0x3f800000	1.0
92	0x3f800000	1.0
93	0x3f800000	1.0
94	0x3f800000	1.0
95	0x3f800000	1.0
96	0x3f800000	1.0
97	0x3f800000	1.0
98	0x3f800000	1.0
99	0x3f800000	1.0

b1 f4 [1, 100]
0	0x00000000	0.0
1	0x00000000	0.0
2	0x00000000	0.0
3	0x00000000	0.0
4	0x00000000	0.0
5	0x00000000	0.0
6	0x00000000	0.0
7	0x00000000	0.0
8	0x00000000	0.0
9	0x00000000	0.0
10	0x00000000	0.0
11	0x00000000	0.0
12	0x00000000	0.0
13	0x00000000	0.0
14	0x00000000	0.0
15	0x00000000	0.0
16	0x00000000	0.0
17	0x00000000	0.0
18	0x00000000	0.0
19	0x00000000	0.0
20	0x00000000	0.0
21	0x00000000	0.0
22	0x00000000	0.0
23	0x00000000	0.0
24	0x00000000	0.0
25	0x00000000	0.0
26	0x00000000	0.0
27	0x00000000	0.0
28	0x00000000	0.0
29	0x00000000	0.0
30	0x00000000	0.0
31	0x00000000	0.0
32	0x00000000	0.0
33	0x00000000	0.0
34	0x00000000	0.0
35	0x00000000	0.0
36	0x00000000	0.0
37	0x00000000	0.0
38	0x00000000	0.0
39	0x00000000	0.0
40	0x00000000	0.0
41	0x00000000	0.0
42	0x00000000	0.0
43	0x00000000	0.0
44	0x00000000	0.0
45	0x00000000	0.0
46	0x00000000	0.0
47	0x00000000	0.0
48	0x00000000	0.0
49	0x00000000	0.0
50	0x00000000	0.0
51	0x00000000	0.0
52	0x00000000	0.0
53	0x00000000	0.0
54	0x00000000	0.0
55	0x00000000	0.0
56	0x00000000	0.0
57	0x00000000	0.0
58	0x00000000	0.0
59	0x00000000	0.0
60	0x00000000	0.0
61	0x00000000	0.0
62	0x00000000	0.0
63	0x00000000	0.0
64	0x00000000	0.0
65	0x00000000	0.0
66	0x00000000	0.0
67	0x00000000	0.0
68	0x00000000	0.0
69	0x00000000	0.0
70	0x00000000	0.0
71	0x00000000	0.0
72	0x00000000	0.0
73	0x00000000	0.0
74	0x00000000	0.0
75	0x00000000	0.0
76	0x00000000	0.0
77	0x00000000	0.0
78	0x00000000	0.0
79	0x00000000	0.0
80	0x00000000	0.0
81	0x00000000	0.0
82	0x00000000	0.0
83	0x00000000	0.0
84	0x00000000	0.0
85	0x00000000	0.0
86	0x00000000	0.0
87	0x00000000	0.0
88	0x00000000	0.0
89	0x00000000	0.0
90	0x00000000	0.0
91	0x00000000	0.0
92	0x00000000	0.0
93	0x00000000	0.0
94	0x00000000	0.0
95	0x00000000	0.0
96	0x00000000	0.0
97	0x00000000	0.0
98	0x00000000	0.0
99	0x00000000	0.0

l2 f4 [100, 100]
0	0x00000004	6e-45
1	0x00000000	0.0
2	0x00000005	7e-45
3	0x00000000	0.0
4	0x00000006	8e-45
5	0x00000000	0.0
6	0x00000007	1e-44
7	0x00000000	0.0
8	0x00000008	1.1e-44
9	0x00000000	0.0
10	0x00000009	1.3e-44
11	0x00000000	0.0
12	0x0000000a	1.4e-44
13	0x00000000	0.0
14	0x0000000b	1.5e-44
15	0x00000000	0.0
16	0x0000000c	1.7e-44
17	0x00000000	0.0
18	0x0000000d	1.8e-44
19	0x00000000	0.0
20	0x0000000e	2e-44
21	0x00000000	0.0
22	0x0000000f	2.1e-44
23	0x00000000	0.0
24	0x00000010	2.2e-44
25	0x00000000	0.0
26	0x00000011	2.4e-44
27	0x00000000	0.0
28	0x00000012	2.5e-44
29	0x00000000	0.0
30	0x00000013	2.7e-44
31	0x00000000	0.0
32	0x00000014	2.8e-44
33	0x00000000	0.0
34	0x00000015	3e-44
35	0x00000000	0.0
36	0x00000016	3.1e-44
37	0x00000000	0.0
38	0x00000017	3.2e-44
39	0x00000000	0.0
40	0x00000018	3.4e-44
41	0x00000000	0.0
42	0x00000019	3.5e-44
43	0x00000000	0.0
44	0x0000001a	3.6e-44
45	0x00000000	0.0
46	0x0000001b	3.8e-44
47	0x00000000	0.0
48	0x0000001c	3.9e-44
49	0x00000000	0.0
50	0x0000001d	4e-44
51	0x00000000	0.0
52	0x0000001e	4.2e-44
53	0x00000000	0.0
54	0x0000001f	4.3e-44
55	0x00000000	0.0
56	0x00000020	4.5e-44
57	0x00000000	0.0
58	0x00000021	4.6e-44
59	0x00000000	0.0
60	0x00000022	4.8e-44
61	0x00000000	0.0
62	0x00000023	4.9e-44
63	0x00000000	0.0
64	0x00000024	5e-44
65	0x00000000	0.0
66	0x00000025	5.2e-44
67	0x00000000	0.0
68	0x00000026	5.3e-44
69	0x00000000	0.0
70	0x00000027	5.5e-44
71	0x00000000	0.0
72	0x00000028	5.6e-44
73	0x00000000	0.0
74	0x00000029	5.7e-44
75	0x00000000	0.0
76	0x0000002a	5.9e-44
77	0x00000000	0.0
78	0x0000002b	6e-44
79	0x00000000	0.0
80	0x0000002c	6.2e-44
81	0x00000000	0.0
82	0x0000002d	6.3e-44
83	0x00000000	0.0
84	0x0000002e	6.4e-44
85	0x00000000	0.0
86	0x0000002f	6.6e-44
87	0x00000000	0.0
88	0x00000030	6.7e-44
89	0x00000000	0.0
90	0x00000031	6.9e-44
91	0x00000000	0.0
92	0x00000032	7e-44
93	0x00000000	0.0
94	0x00000033	7.1e-44
95	0x00000000	0.0
96	0x00000034	7.3e-44
97	0x00000000	0.0
98	0x00000035	7.4e-44
99	0x00000000	0.0
100	0x00000036	7.6e-44
101	0x00000000	0.0
102	0x00000037	7.7e-44
103	0x00000000	0.0
104	0x00000038	7.8e-44
105	0x00000000	0.0
106	0x00000039	8e-44
107	0x00000000	0.0
108	0x0000003a	8.1e-44
109	0x00000000	0.0
110	0x0000003b	8.3e-44
111	0x00000000	0.0
112	0x0000003c	8.4e-44
113	0x00000000	0.0
114	0x0000003d	8.5e-44
115	0x00000000	0.0
116	0x0000003e	8.7e-44
117	0x00000000	0.0
118	0x0000003f	8.8e-44
119	0x00000000	0.0
120	0x00000040	9e-44
121	0x00000000	0.0
122	0x00000041	9.1e-44
123	0x00000000	0.0
124	0x00000042	9.2e-44
125	0x00000000	0.0
126	0x00000043	9.4e-44
127	0x00000000	0.0
128	0x00000044	9.5e-44
129	0x00000000	0.0
130	0x00000045	9.7e-44
131	0x00000000	0.0
132	0x00000046	9.8e-44
133	0x00000000	0.0
134	0x00000047	1e-43
135	0x00000000	0.0
136	0x00000048	1.01e-43
137	0x00000000	0.0
138	0x00000049	1.02e-43
139	0x00000000	0.0
140	0x0000004a	1.04e-43
141	0x00000000	0.0
142	0x0000004b	1.05e-43
143	0x00000000	0.0
144	0x0000004c	1.06e-43
145	0x00000000	0.0
146	0x0000004d	1.08e-43
147	0x00000000	0.0
148	0x0000004e	1.1e-43
149	0x00000000	0.0
150	0x0000004f	1.11e-43
151	0x00000000	0.0
152	0x00000050	1.12e-43
153	0x00000000	0.0
154	0x00000051	1.14e-43
155	0x00000000	0.0
156	0x00000052	1.15e-43
157	0x00000000	0.0
158	0x00000053	1.16e-43
159	0x00000000	0.0
160	0x00000054	1.18e-43
161	0x00000000	0.0
162	0x00000055	1.19e-43
163	0x00000000	0.0
164	0x00000056	1.2e-43
165	0x00000000	0.0
166	0x00000057	1.22e-43
167	0x00000000	0.0
168	0x00000058	1.23e-43
169	0x00000000	0.0
170	0x00000059	1.25e-43
171	0x00000000	0.0
172	0x0000005a	1.26e-43
173	0x00000000	0.0
174	0x0000005b	1.28e-43
175	0x00000000	0.0
176	0x0000005c	1.29e-43
177	0x00000000	0.0
178	0x0000005d	1.3e-43
179	0x00000000	0.0
180	0x0000005e	1.32e-43
181	0x00000000	0.0
182	0x0000005f	1.33e-43
183	0x00000000	0.0
184	0x00000060	1.35e-43
185	0x00000000	0.0
186	0x00000061	1.36e-43
187	0x00000000	0.0
188	0x00000062	1.37e-43
189	0x00000000	0.0
190	0x00000063	1.39e-43
191	0x00000000	0.0
192	0x00000064	1.4e-43
193	0x00000000	0.0
194	0x00000065	1.42e-43
195	0x00000000	0.0
196	0x00000066	1.43e-43
197	0x00000000	0.0
198	0x00000067	1.44e-43
199	0x00000000	0.0
200	0x00000068	1.46e-43
201	0x00000000	0.0
202	0x00000069	1.47e-43
203	0x00000000	0.0
204	0x0000006a	1.49e-43
205	0x00000000	0.0
206	0x0000006b	1.5e-43
207	0x00000000	0.0
208	0x0000006c	1.51e-43
209	0x00000000	0.0
210	0x0000006d	1.53e-43
211	0x00000000	0.0
212	0x0000006e	1.54e-43
213	0x00000000	0.0
214	0x0000006f	1.56e-43
215	0x00000000	0.0
216	0x00000070	1.57e-43
217	0x00000000	0.0
218	0x00000071	1.58e-43
219	0x00000000	0.0
220	0x00000072	1.6e-43
221	0x00000000	0.0
222	0x00000073	1.61e-43
223	0x00000000	0.0
224	0x00000074	1.63e-43
225	0x00000000	0.0
226	0x00000075	1.64e-43
227	0x00000000	0.0
228	0x00000076	1.65e-43
229	0x00000000	0.0
230	0x00000077	1.67e-43
231	0x00000000	0.0
232	0x00000078	1.68e-43
233	0x00000000	0.0
234	0x00000079	1.7e-43
235	0x00000000	0.0
236	0x0000007a	1.71e-43
237	0x00000000	0.0
238	0x0000007b	1.72e-43
239	0x00000000	0.0
240	0x0000007c	1.74e-43
241	0x00000000	0.0
242	0x0000007d	1.75e-43
243	0x00000000	0.0
244	0x0000007e	1.77e-43
245	0x00000000	0.0
246	0x0000007f	1.78e-43
247	0x00000000	0.0
248	0x00000080	1.8e-43
249	0x00000000	0.0
250	0x00000081	1.81e-43
251	0x00000000	0.0
252	0x00000082	1.82e-43
253	0x00000000	0.0
254	0x00000083	1.84e-43
255	0x00000000	0.0

b2 f4 [1, 100]
0	0x00000000	0.0
1	0x00000000	0.0
2	0x00000000	0.0
3	0x00000000	0.0
4	0x00000000	0.0
5	0x00000000	0.0
6	0x00000000	0.0
7	0x00000000	0.0
8	0x00000000	0.0
9	0x00000000	0.0
10	0x00000000	0.0
11	0x00000000	0.0
12	0x00000000	0.0
13	0x00000000	0.0
14	0x00000000	0.0
15	0x00000000	0.0
16	0x00000000	0.0
17	0x00000000	0.0
18	0x00000000	0.0
19	0x00000000	0.0
20	0x00000000	0.0
21	0x00000000	0.0
22	0x00000000	0.0
23	0x00000000	0.0
24	0x00000000	0.0
25	0x00000000	0.0
26	0x00000000	0.0
27	0x00000000	0.0
28	0x00000000	0.0
29	0x00000000	0.0
30	0x00000000	0.0
31	0x00000000	0.0
32	0x00000000	0.0
33	0x00000000	0.0
34	0x00000000	0.0
35	0x00000000	0.0
36	0x00000000	0.0
37	0x00000000	0.0
38	0x00000000	0.0
39	0x00000000	0.0
40	0x00000000	0.0
41	0x00000000	0.0
42	0x00000000	0.0
43	0x00000000	0.0
44	0x00000000	0.0
45	0x00000000	0.0
46	0x00000000	0.0
47	0x00000000	0.0
48	0x00000000	0.0
49	0x00000000	0.0
50	0x00000000	0.0
51	0x00000000	0.0
52	0x00000000	0.0
53	0x00000000	0.0
54	0x00000000	0.0
55	0x00000000	0.0
56	0x00000000	0.0
57	0x00000000	0.0
58	0x00000000	0.0
59	0x00000000	0.0
60	0x00000000	0.0
61	0x00000000	0.0
62	0x00000000	0.0
63	0x00000000	0.0
64	0x00000000	0.0
65	0x00000000	0.0
66	0x00000000	0.0
67	0x00000000	0.0
68	0x00000000	0.0
69	0x00000000	0.0
70	0x00000000	0.0
71	0x00000000	0.0
72	0x00000000	0.0
73	0x00000000	0.0
74	0x00000000	0.0
75	0x00000000	0.0
76	0x00000000	0.0
77	0x00000000	0.0
78	0x00000000	0.0
79	0x00000000	0.0
80	0x00000000	0.0
81	0x00000000	0.0
82	0x00000000	0.0
83	0x00000000	0.0
84	0x00000000	0.0
85	0x00000000	0.0
86	0x00000000	0.0
87	0x00000000	0.0
88	0x00000000	0.0
89	0x00000000	0.0
90	0x00000000	0.0
91	0x00000000	0.0
92	0x00000000	0.0
93	0x00000000	0.0
94	0x00000000	0.0
95	0x00000000	0.0
96	0x00000000	0.0
97	0x00000000	0.0
98	0x00000000	0.0
99	0x00000000	0.0

q f4 [32, 1]
0	0x3ed47515	0.41495577
1	0xbcd9b8ca	-0.026577372
2	0x3e02441d	0.12721296
3	0xbe066391	-0.13123919
4	0xbe30e591	-0.17275073
5	0x3ec9e6e2	0.39433962
6	0x3e023c9f	0.12718438
7	0x3eb4e010	0.35327196
8	0x3cf4c0a6	0.029877018
9	0xbe887984	-0.2665521
10	0xbe8ac5dc	-0.2710408
11	0x3d8222a1	0.06354261
12	0xbe792cb9	-0.24333467
13	0xbe6b630a	-0.22986999
14	0xbcb84986	-0.022495996
15	0xbe2263fc	-0.15858454
16	0x3e93c084	0.28857815
17	0xbdb2cf4f	-0.08730947
18	0x3df63d4b	0.120234095
19	0x3ec932a8	0.3929646
20	0x3d737aa2	0.059443124
21	0x3dffee20	0.124965906
22	0xbe572e2c	-0.21013707
23	0x3e574eaa	0.21026102
24	0xbecd4cdb	-0.400977
25	0xbdf15b30	-0.11784971
26	0x3d0e8fb3	0.03480501
27	0x3dd5b695	0.104352154
28	0xbe2e7fa4	-0.17040879
29	0x3ebf9d9b	0.3742493
30	0x3d235141	0.03987241
31	0xbe6f6bad	-0.23380919

k f4 [32, 1]
0	0x3d7f6071	0.062347833
1	0xbec643be	-0.38723558
2	0xbe9d4273	-0.3071476
3	0x3e084fe9	0.13311733
4	0x3ebe8cd3	0.37216815
5	0x3e9224d9	0.28543738
6	0x3e5581c2	0.2085028
7	0x3e655612	0.22396114
8	0xbeda7206	-0.42665118
9	0x3e178690	0.14797425
10	0xbc140374	-0.009034026
11	0x3ec31acf	0.3810639
12	0xbb46c9d2	-0.0030332697
13	0xbe8e3370	-0.2777362
14	0xbe651090	-0.223696
15	0xbd5e89a9	-0.0543305
16	0x3e258d6f	0.16167234
17	0x3ebd310a	0.36951476
18	0xbe92755b	-0.2860516
19	0xbead48ff	-0.33844754
20	0xbdb43ad0	-0.0880028
21	0x3e414510	0.18874002
22	0x3e829d68	0.25510716
23	0xbe8e9b87	-0.27853033
24	0x3a9c6d25	0.0011934383
25	0x3c8ad77c	0.016948454
26	0xbd982320	-0.074285746
27	0x3ec4309c	0.38318336
28	0xbeab7ab2	-0.33492047
29	0xbdedd23e	-0.11612366
30	0x3e84772e	0.25872177
31	0xbe45e632	-0.19326094

weight f4 [2, 100, 32]
0	0xbe71539c	-0.2356705
1	0x3e13d80f	0.14437889
2	0xbdefbafa	-0.11705585
3	0xbe47e396	-0.19520411
4	0xbdb0c1a9	-0.08630688
5	0xbd28ff8c	-0.041259333
6	0x3c38abac	0.0112713985
7	0xbe377ee7	-0.17919503
8	0xbcd92330	-0.026506037
9	0x3d10d087	0.035355117
10	0xbdf4b5f3	-0.119487666
11	0xbe30952b	-0.17244403
12	0x3ca7a5b3	0.020464754
13	0xbe2f65ed	-0.17128725
14	0x3e0aa996	0.13541254
15	0x3b0cbd53	0.002147515
16	0x3d835715	0.06413094
17	0x3d48f72c	0.049063846
18	0x3e0bae2e	0.13640663
19	0x3e553da1	0.20824291
20	0x3d53d302	0.051714905
21	0x3e2ce3a7	0.16883717
22	0x3d2df9c2	0.042474516
23	0x3c8c01c1	0.01709068
24	0xbe157325	-0.14594705
25	0xbe4d3cf1	-0.20042779
26	0xbcfb5e24	-0.030684538
27	0xbde650c7	-0.11245876
28	0xbd927139	-0.07150502
29	0xbe465660	-0.19368887
30	0x3d11c508	0.035588294
31	0xbcc13430	-0.023584455
32	0x3d027fd7	0.0318602
33	0xbe023153	-0.12714128
34	0xbe4218fb	-0.18954842
35	0x3c1f5234	0.009724189
36	0xbd98b4e3	-0.074563764
37	0xbe12d446	-0.14338788
38	0xbe229533	-0.15877227
39	0xbe366566	-0.17812118
40	0x3d860877	0.06544583
41	0x3c423411	0.011853234
42	0x3daf94c4	0.08573297
43	0xbe0e119c	-0.13873905
44	0xbd2703c3	-0.04077507
45	0x3e5325c1	0.2061987
46	0xba1f4116	-0.0006075067
47	0x3d10d8a7	0.035362866
48	0xbe48dadc	-0.19614738
49	0xbcdf8ef1	-0.02728984
50	0xbe1cd289	-0.15314688
51	0xbdec81eb	-0.115482174
52	0x3e40deac	0.18834943
53	0x3e25042e	0.16114876
54	0x3e0d82fc	0.13819498
55	0x3d256743	0.04038168
56	0x3e4e7038	0.20159996
57	0xbe494818	-0.19656408
58	0xbe22abc4	-0.15885836
59	0xbe564247	-0.2092372
60	0xbe12ac0f	-0.14323448
61	0x3e180291	0.14844729
62	0x3cfabe6f	0.030608384
63	0x3a8ad465	0.0010591863
64	0xbcc2ca79	-0.023778187
65	0x3c803e29	0.01565464
66	0x3e57c4b1	0.21071126
67	0xbe52567d	-0.20540805
68	0xbd9f7e94	-0.07787815
69	0x3dcd1b28	0.10014945
70	0x3e424eaa	0.1897532
71	0x3d2e2c03	0.04252244
72	0x3d851e51	0.06499923
73	0xbdfbbb69	-0.12291605
74	0x3d79d266	0.060991667
75	0x3e2634fd	0.16231151
76	0x3e328f12	0.1743739
77	0x3dff3c6a	0.12462695
78	0x3e5e6719	0.21719016
79	0x3e0a3ce7	0.13499795
80	0xbe56f9c4	-0.20993716
81	0xbe1669b9	-0.14688767
82	0xbce60b32	-0.02808151
83	0xbe0ff734	-0.14059144
84	0x3de0478b	0.10951146
85	0xbe637ed9	-0.22216357
86	0x3dd349e0	0.10316825
87	0x3de1567d	0.110028245
88	0x3e036d1a	0.12834588
89	0xbe3f72a5	-0.18696077
90	0xbdd066fe	-0.10175894
91	0x3dc381a7	0.095462136
92	0xbd74c20f	-0.05975538
93	0x3d28dee3	0.041228186
94	0x3e2546d5	0.16140302
95	0xbd5a17ee	-0.053245477
96	0xbd767825	-0.060173173
97	0xbe3e0cf9	-0.18559636
98	0x3d687a27	0.05675712
99	0xbca9d6df	-0.020732341
100	0xbdc6d38c	-0.09708318
101	0xbdd7bbcf	-0.105338685
102	0xbd608c97	-0.054821577
103	0x3df81c37	0.121147566
104	0xbe427f11	-0.18993784
105	0x3e28e491	0.16493441
106	0x3e152f65	0.14568861
107	0xbde40834	-0.11134377
108	0xbdf4314a	-0.11923464
109	0xbdb9be57	-0.090695076
110	0x3db1bdef	0.08678805
111	0x3e34deba	0.17663088
112	0xbdc10f67	-0.09426766
113	0xbdd9e84d	-0.10640011
114	0xbe27cc3f	-0.16386507
115	0xbe216df8	-0.15764606
116	0x3c32659a	0.0108884815
117	0xbcde19db	-0.027111938
118	0x3e42def9	0.1903037
119	0x3e1e958d	0.15486737
120	0xbe354a1d	-0.17704053
121	0xbd785b26	-0.0606338
122	0xbe04207c	-0.12903017
123	0xbe437735	-0.19088443
124	0x3d3179f3	0.04332919
125	0xbdec5917	-0.1154043
126	0x3e126175	0.1429499
127	0xbe3f8a05	-0.18704994
128	0xbe244290	-0.16041017
129	0xbcce1538	-0.025156602
130	0xbd6f6c1b	-0.058452707
131	0x3e07d628	0.13265288
132	0xbce298be	-0.027660724
133	0xbe39d226	-0.18146572
134	0x3b9f68a2	0.004864768
135	0x3d254274	0.040346578
136	0x3dd6de94	0.10491672
137	0xbd5de010	-0.05416876
138	0x3e0f70b3	0.14007835
139	0x3c646ff9	0.013942712
140	0xbe2449e8	-0.16043818
141	0xbdb689c3	-0.08912995
142	0xbe391503	-0.18074422
143	0x3d892200	0.06695938
144	0x3cf50b94	0.029912747
145	0x3bab72c9	0.0052321893
146	0x3c566eb5	0.013087918
147	0x3e052b70	0.13004851
148	0xbdfcdcf5	-0.12346832
149	0x3e1ab775	0.15109046
150	0x3e2c56ef	0.16830038
151	0xbe15b1b0	-0.14618564
152	0x3d1d3771	0.03838295
153	0x3e0c2243	0.13684945
154	0x3d11e135	0.035615165
155	0x3e41110c	0.18854159
156	0x3e64708a	0.22308555
157	0xbe21846c	-0.15773171
158	0x3e147fc5	0.14501865
159	0xbd2110ea	-0.03932277
160	0xbe0d8819	-0.13821448
161	0xbe07ced0	-0.13262486
162	0xbde22f8d	-0.11044226
163	0xbcd7e215	-0.026352922
164	0xbd1a683e	-0.03769707
165	0xbc1dfe96	-0.009643218
166	0x3d87a233	0.06622734
167	0xbe00ab0a	-0.12565246
168	0x3db39a1a	0.08769627
169	0x3e079dc8	0.13243783
170	0x3db6f86d	0.08934102
171	0xbdab5eb9	-0.08367676
172	0xbe27a08e	-0.1636984
173	0xbe36d36a	-0.17854086
174	0x3cbd618b	0.023117801
175	0xbd856dab	-0.06515058
176	0x3e09ab43	0.13444237
177	0xbd44e7bd	-0.048072565
178	0xbe2f31b1	-0.171088
179	0xbded7ca6	-0.115960404
180	0xbcfe1fe1	-0.03102106
181	0xbe4d454f	-0.2004597
182	0xbe4ab340	-0.19794941
183	0xbdcd3503	-0.10019877
184	0x3d382b1a	0.04496298
185	0xbd4bae42	-0.049726732
186	0xbe3c83cf	-0.18409656
187	0x3d7c7685	0.061636467
188	0xbe0bc91f	-0.1365094
189	0xbc78f81a	-0.015195871
190	0x3e07c733	0.13259582
191	0xbd118c7c	-0.035534367
192	0x3dc2eaec	0.09517464
193	0x3e0dc47b	0.13844483
194	0x3e46ca05	0.19413002
195	0x3e36e2e0	0.17859983
196	0x3db0cf1b	0.08633252
197	0x3d45823d	0.048219908
198	0xbd2ced5e	-0.04221856
199	0x3e20cc5d	0.15702958
200	0xbd84d7dc	-0.064864844
201	0x3da5bcf5	0.08092681
202	0xbcd38449	-0.025819914
203	0xbbfd12d9	-0.007723194
204	0xbcad9579	-0.021189438
205	0xbded71e2	-0.11593987
206	0xbd49a03e	-0.049225084
207	0xbd8c05cc	-0.06837043
208	0xbd2e9dad	-0.04263084
209	0x3e43c7b2	0.19119146
210	0xbd31787f	-0.043327805
211	0x3e03e7a3	0.12881331
212	0x3db86720	0.090040445
213	0xbe2a03c9	-0.16603006
214	0xbc870306	-0.016480934
215	0x3ca5805f	0.020202814
216	0x3bbcd83f	0.005763083
217	0x3e410c8e	0.18852445
218	0xbcf984b2	-0.030458782
219	0xbe016fdf	-0.12640332
220	0x3cd786e1	0.026309432
221	0x3de1f942	0.1103387
222	0x3e3db0e2	0.18524507
223	0x3d7dd14e	0.061967187
224	0x3bc43e04	0.005988838
225	0x3db814f8	0.089883745
226	0x3dc26305	0.09491543
227	0x3e25e5dd	0.16200967
228	0x3de0a9d9	0.10969896
229	0xbe23c0c9	-0.1599151
230	0xbe547f37	-0.20751654
231	0xbe4ec4c0	-0.20192242
232	0x3d82b41f	0.063820116
233	0xbd5a4772	-0.05329079
234	0xbe0fa5d2	-0.14028099
235	0xbe664c87	-0.2249013
236	0x3e454608	0.19264996
237	0x3d292968	0.041299254
238	0xbd4f5f1d	-0.050627816
239	0xbe022f90	-0.12713456
240	0xbcecbc96	-0.028898519
241	0x3dd2d6d4	0.102948815
242	0xbde2f8de	-0.11082624
243	0x3e03af68	0.12859881
244	0x3e1d2a21	0.15348102
245	0x3e1d570b	0.15365236
246	0xbc5ad3e2	-0.013356181
247	0x3dff5121	0.12466646
248	0xbbb0f4eb	-0.0054002902
249	0x3de5199d	0.11186526
250	0x3d66bd6e	0.056332998
251	0xbe3a585f	-0.18197773
252	0x3bcae152	0.006191411
253	0x3de9546e	0.11393057
254	0xbc7d3eab	-0.015456836
255	0xbe3e5683	-0.18587689

w f4 [32]
0	0x3f800000	1.0
1	0x3f800000	1.0
2	0x3f800000	1.0
3	0x3f800000	1.0
4	0x3f800000	1.0
5	0x3f800000	1.0
6	0x3f800000	1.0
7	0x3f800000	1.0
8	0x3f800000	1.0
9	0x3f800000	1.0
10	0x3f800000	1.0
11	0x3f800000	1.0
12	0x3f800000	1.0
13	0x3f800000	1.0
14	0x3f800000	1.0
15	0x3f800000	1.0
16	0x3f800000	1.0
17	0x3f800000	1.0
18	0x3f800000	1.0
19	0x3f800000	1.0
20	0x3f800000	1.0
21	0x3f800000	1.0
22	0x3f800000	1.0
23	0x3f800000	1.0
24	0x3f800000	1.0
25	0x3f800000	1.0
26	0x3f800000	1.0
27	0x3f800000	1.0
28	0x3f800000	1.0
29	0x3f800000	1.0
30	0x3f800000	1.0
31	0x3f800000	1.0

l1 f4 [1, 32]
0	0x3f800000	1.0
1	0x3f800000	1.0
2	0x3f800000	1.0
3	0x3f800000	1.0
4	0x3f800000	1.0
5	0x3f800000	1.0
6	0x3f800000	1.0
7	0x3f800000	1.0
8	0x3f800000	1.0
9	0x3f800000	1.0
10	0x3f800000	1.0
11	0x3f800000	1.0
12	0x3f800000	1.0
13	0x3f800000	1.0
14	0x3f800000	1.0
15	0x3f800000	1.0
16	0x3f800000	1.0
17	0x3f800000	1.0
18	0x3f800000	1.0
19	0x3f800000	1.0
20	0x3f800000	1.0
21	0x3f800000	1.0
22	0x3f800000	1.0
23	0x3f800000	1.0
24	0x3f800000	1.0
25	0x3f800000	1.0
26	0x3f800000	1.0
27	0x3f800000	1.0
28	0x3f800000	1.0
29	0x3f800000	1.0
30	0x3f800000	1.0
31	0x3f800000	1.0

b1 f4 [1, 32]
0	0x00000000	0.0
1	0x00000000	0.0
2	0x00000000	0.0
3	0x00000000	0.0
4	0x00000000	0.0
5	0x00000000	0.0
6	0x00000000	0.0
7	0x00000000	0.0
8	0x00000000	0.0
9	0x00000000	0.0
10	0x00000000	0.0
11	0x00000000	0.0
12	0x00000000	0.0
13	0x00000000	0.0
14	0x00000000	0.0
15	0x00000000	0.0
16	0x00000000	0.0
17	0x00000000	0.0
18	0x00000000	0.0
19	0x00000000	0.0
20	0x00000000	0.0
21	0x00000000	0.0
22	0x00000000	0.0
23	0x00000000	0.0
24	0x00000000	0.0
25	0x00000000	0.0
26	0x00000000	0.0
27	0x00000000	0.0
28	0x00000000	0.0
29	0x00000000	0.0
30	0x00000000	0.0
31	0x00000000	0.0

l2 f4 [32, 32]
0	0x00000dd6	4.963e-42
1	0x00000000	0.0
2	0x00000cbc	4.568e-42
3	0x00000000	0.0
4	0x00000d90	4.865e-42
5	0x00000000	0.0
6	0x00000b4f	4.057e-42
7	0x00000000	0.0
8	0x7c1911b0	3.1791207e+36
9	0x00002af2	1.5406e-41
10	0x000000f1	3.38e-43
11	0x00000000	0.0
12	0x51113d60	3.8987497e+10
13	0x00000001	1e-45
14	0x098cd0d0	3.390014e-33
15	0x00000000	0.0
16	0x00000020	4.5e-44
17	0x00000000	0.0
18	0x00000020	4.5e-44
19	0x00000000	0.0
20	0x098cdc30	3.3910837e-33
21	0x00000000	0.0
22	0x00000008	1.1e-44
23	0x00000000	0.0
24	0x00000000	0.0
25	0x00000000	0.0
26	0x00000021	4.6e-44
27	0x00000000	0.0
28	0x098cd170	3.3900728e-33
29	0x00000000	0.0
30	0x510c2f60	3.763064e+10
31	0x00000001	1e-45
32	0x00000060	1.35e-43
33	0x00000000	0.0
34	0x00000040	9e-44
35	0x00000000	0.0
36	0x510c2f20	3.763038e+10
37	0x00000001	1e-45
38	0xfd606bfb	-1.8644234e+37
39	0x40203a39	2.5035536
40	0xdf0968dc	-9.901406e+18
41	0x40206cf0	2.506649
42	0xc9217693	-661353.2
43	0x40207618	2.5072079
44	0xf5fa55b3	-6.3467402e+32
45	0x4020bd1d	2.5115426
46	0x7e247e6a	5.4662443e+37
47	0x4021190b	2.5171535
48	0x09c8914e	4.8284892e-33
49	0x402168db	2.5220249
50	0x00000051	1.14e-43
51	0x00000000	0.0
52	0x09a847f0	4.051218e-33
53	0x00000000	0.0
54	0x098cd170	3.3900728e-33
55	0x00000000	0.0
56	0x00000020	4.5e-44
57	0x00000000	0.0
58	0x00000030	6.7e-44
59	0x00000000	0.0
60	0x098cd190	3.3900846e-33
61	0x00000000	0.0
62	0x00000007	1e-44
63	0x00000000	0.0
64	0x00000038	7.8e-44
65	0x00000000	0.0
66	0x00000008	1.1e-44
67	0x00000000	0.0
68	0x00000170	5.16e-43
69	0x00000000	0.0
70	0x00000080	1.8e-43
71	0x00000000	0.0
72	0x098cd1f0	3.39012e-33
73	0x00000000	0.0
74	0x00000497	1.647e-42
75	0x00000000	0.0
76	0x00000497	1.647e-42
77	0x00000000	0.0
78	0x00000497	1.647e-42
79	0x00000000	0.0
80	0x00000497	1.647e-42
81	0x00000000	0.0
82	0x00000497	1.647e-42
83	0x00000000	0.0
84	0x00000497	1.647e-42
85	0x00000000	0.0
86	0x00000497	1.647e-42
87	0x00000000	0.0
88	0x00000463	1.574e-42
89	0x00000000	0.0
90	0x000006d5	2.451e-42
91	0x00000000	0.0
92	0x00000185	5.45e-43
93	0x00000000	0.0
94	0x00000ab4	3.84e-42
95	0x00000000	0.0
96	0x000000d5	2.98e-43
97	0x00000000	0.0
98	0x00000a97	3.799e-42
99	0x00000000	0.0
100	0xe48cfa60	-2.0804685e+22
101	0x00002af2	1.5406e-41
102	0x00000121	4.05e-43
103	0x00000000	0.0
104	0x51113d60	3.8987497e+10
105	0x00000001	1e-45
106	0x098cd270	3.390167e-33
107	0x00000000	0.0
108	0x00000020	4.5e-44
109	0x00000000	0.0
110	0x00000020	4.5e-44
111	0x00000000	0.0
112	0x098cddd0	3.3912365e-33
113	0x00000000	0.0
114	0x00000008	1.1e-44
115	0x00000000	0.0
116	0x00000000	0.0
117	0x00000000	0.0
118	0x00000021	4.6e-44
119	0x00000000	0.0
120	0x098cd310	3.3902256e-33
121	0x00000000	0.0
122	0x510c2fc0	3.7631033e+10
123	0x00000001	1e-45
124	0x00000060	1.35e-43
125	0x00000000	0.0
126	0x00000040	9e-44
127	0x00000000	0.0
128	0x510c2f80	3.763077e+10
129	0x00000001	1e-45
130	0x24852e1f	5.775769e-17
131	0x4015d43b	2.3410785
132	0x84a8272d	-3.9532587e-36
133	0x4015e3fa	2.3420396
134	0xccb485b6	-9.464568e+07
135	0x4015e8ea	2.342341
136	0xa5e36bf7	-3.9451383e-16
137	0x401661cd	2.3497193
138	0x1cad1808	1.1454392e-21
139	0x4016881f	2.3520582
140	0x81add629	-6.385747e-38
141	0x4016965d	2.3529274
142	0x00000081	1.81e-43
143	0x00000000	0.0
144	0x09a847f0	4.051218e-33
145	0x00000000	0.0
146	0x098cd310	3.3902256e-33
147	0x00000000	0.0
148	0x00000020	4.5e-44
149	0x00000000	0.0
150	0x00000030	6.7e-44
151	0x00000000	0.0
152	0x098cd1c0	3.3901022e-33
153	0x00000000	0.0
154	0x00000007	1e-44
155	0x00000000	0.0
156	0x00000038	7.8e-44
157	0x00000000	0.0
158	0x00000008	1.1e-44
159	0x00000000	0.0
160	0x00000050	1.12e-43
161	0x00000000	0.0
162	0x00000030	6.7e-44
163	0x00000000	0.0
164	0x098cd330	3.3902374e-33
165	0x00000000	0.0
166	0x00000007	1e-44
167	0x00000000	0.0
168	0x00000038	7.8e-44
169	0x00000000	0.0
170	0x00000008	1.1e-44
171	0x00000000	0.0
172	0x00000310	1.099e-42
173	0x00000000	0.0
174	0x00000080	1.8e-43
175	0x00000000	0.0
176	0x098cd390	3.3902726e-33
177	0x00000000	0.0
178	0x00000498	1.648e-42
179	0x00000000	0.0
180	0x00000498	1.648e-42
181	0x00000000	0.0
182	0x00000498	1.648e-42
183	0x00000000	0.0
184	0x00000498	1.648e-42
185	0x00000000	0.0
186	0x00000498	1.648e-42
187	0x00000000	0.0
188	0x00000498	1.648e-42
189	0x00000000	0.0
190	0x00000498	1.648e-42
191	0x00000000	0.0
192	0x000005f9	2.143e-42
193	0x00000000	0.0
194	0x00000a97	3.799e-42
195	0x00000000	0.0
196	0x000004fe	1.791e-42
197	0x00000000	0.0
198	0x00000900	3.229e-42
199	0x00000000	0.0
200	0x0000058b	1.988e-42
201	0x00000000	0.0
202	0x000006c2	2.424e-42
203	0x00000000	0.0
204	0xceac5690	-1.445677e+09
205	0x00002af2	1.5406e-41
206	0x00000121	4.05e-43
207	0x00000000	0.0
208	0x51113d60	3.8987497e+10
209	0x00000001	1e-45
210	0x098cd410	3.3903197e-33
211	0x00000000	0.0
212	0x00000020	4.5e-44
213	0x00000000	0.0
214	0x00000020	4.5e-44
215	0x00000000	0.0
216	0x51cb8c90	1.0927958e+11
217	0x00000001	1e-45
218	0x00000008	1.1e-44
219	0x00000000	0.0
220	0x00000000	0.0
221	0x00000000	0.0
222	0x00000021	4.6e-44
223	0x00000000	0.0
224	0x098cd4b0	3.3903784e-33
225	0x00000000	0.0
226	0x510c3020	3.7631427e+10
227	0x00000001	1e-45
228	0x00000060	1.35e-43
229	0x00000000	0.0
230	0x00000040	9e-44
231	0x00000000	0.0
232	0x510c2fe0	3.7631164e+10
233	0x00000001	1e-45
234	0x037a2523	7.351103e-37
235	0x40163875	2.3471959
236	0xfc54827b	-4.4136536e+36
237	0x40165cf9	2.3494246
238	0xeaaf80aa	-1.0608481e+26
239	0x4016d08b	2.3564785
240	0xf9a70221	-1.0839459e+35
241	0x40170305	2.3595593
242	0x4457edf6	863.71814
243	0x401769b2	2.3658261
244	0xd6532d4e	-5.8047884e+13
245	0x40176b26	2.3659148
246	0x00000081	1.81e-43
247	0x00000000	0.0
248	0x09a847f0	4.051218e-33
249	0x00000000	0.0
250	0x098cd4b0	3.3903784e-33
251	0x00000000	0.0
252	0x00000020	4.5e-44
253	0x00000000	0.0
254	0x00000030	6.7e-44
255	0x00000000	0.0

b2 f4 [1, 32]
0	0x00000000	0.0
1	0x00000000	0.0
2	0x00000000	0.0
3	0x00000000	0.0
4	0x00000000	0.0
5	0x00000000	0.0
6	0x00000000	0.0
7	0x00000000	0.0
8	0x00000000	0.0
9	0x00000000	0.0
10	0x00000000	0.0
11	0x00000000	0.0
12	0x00000000	0.0
13	0x00000000	0.0
14	0x00000000	0.0
15	0x00000000	0.0
16	0x00000000	0.0
17	0x00000000	0.0
18	0x00000000	0.0
19	0x00000000	0.0
20	0x00000000	0.0
21	0x00000000	0.0
22	0x00000000	0.0
23	0x00000000	0.0
24	0x00000000	0.0
25	0x00000000	0.0
26	0x00000000	0.0
27	0x00000000	0.0
28	0x00000000	0.0
29	0x00000000	0.0
30	0x00000000	0.0
31	0x00000000	0.0

weight f4 [200, 32]
0	0xbe262de4	-0.16228443
1	0x3e3187a6	0.17336902
2	0x3e2a0a6c	0.16605538
3	0x3e44438d	0.19166394
4	0x3e1cf559	0.15327968
5	0xbe75ce2c	-0.2400443
6	0xbe2cb5d0	-0.16866231
7	0xbca501ba	-0.020142425
8	0x3c09eeb1	0.008418725
9	0x3de414aa	0.11136754
10	0x3e1ecf6e	0.15508816
11	0x3dbddcb6	0.09270613
12	0x3cd36278	0.02580379
13	0x3e3b45ac	0.18288296
14	0x3d6c0e88	0.057631046
15	0x3cc82bff	0.024435041
16	0xbe0b80d6	-0.13623366
17	0xbe1d0102	-0.15332416
18	0xbe25a19a	-0.16174927
19	0x3e10f91e	0.1415753
20	0x3da617b8	0.08109993
21	0xbca91dbc	-0.020644061
22	0xbd886204	-0.0665932
23	0x3de90442	0.11377765
24	0xbdadd320	-0.084875345
25	0xbd55b497	-0.052174177
26	0xbbd7898b	-0.0065776757
27	0x3df6d739	0.12052769
28	0x3d16bd6a	0.036801733
29	0x3e53961b	0.2066273
30	0x3d0b71ec	0.03404419
31	0x3dc0ee02	0.094203964
32	0x3de25b7e	0.11052607
33	0xbdc12c42	-0.0943227
34	0xbd394895	-0.045235235
35	0x3de9d22e	0.11417042
36	0xbe039f13	-0.12853651
37	0xbc700f00	-0.014652014
38	0xbe1eae5d	-0.15496202
39	0xbd434bf6	-0.047679864
40	0xbd6dd681	-0.058065895
41	0x3d00fda8	0.031491905
42	0xbce36ebe	-0.027762767
43	0xbd1961e8	-0.037446886
44	0x3c70e4ca	0.014702985
45	0xbde8b96d	-0.11363492
46	0xbd5dadb6	-0.05412074
47	0xbd13f2c6	-0.0361202
48	0x3cf78b6d	0.03021785
49	0xbdb4d9c0	-0.08830595
50	0xbc0fcc06	-0.00877667
51	0x3e0b0f8f	0.13580154
52	0xbdfa77cc	-0.12229881
53	0xbcd5ef89	-0.026115196
54	0xbdaaef87	-0.083464675
55	0x3e1b0b0d	0.15140934
56	0x3d522ac6	0.051310323
57	0xbd9f047c	-0.07764527
58	0xbe058de4	-0.13042408
59	0xbdbd8963	-0.0925472
60	0x3d460fd4	0.04835494
61	0x3de9abbc	0.11409709
62	0x3d85778f	0.065169446
63	0xbd988e38	-0.07449001
64	0xbd55cd80	-0.052197933
65	0x3e3a9348	0.18220246
66	0x3e11c489	0.14235128
67	0xbac969e8	-0.0015366646
68	0x3e44dc63	0.19224696
69	0xbdcfc8ef	-0.10145747
70	0xbd77a7ee	-0.060462885
71	0x3c70e68f	0.014703407
72	0xbe0efc11	-0.13963343
73	0x3d4c3b3e	0.049861185
74	0x3e446346	0.19178495
75	0x3cf1fe61	0.029540243
76	0x3cce6f98	0.025199696
77	0x3db7d0a4	0.08975342
78	0x3d3ff792	0.04686696
79	0x3bcc136f	0.0062279026
80	0xbdd7138f	-0.105017774
81	0xbc2778a7	-0.010221637
82	0xbe44f9d3	-0.19235925
83	0x3d8fa72c	0.070143074
84	0xbd01bd0f	-0.03167444
85	0xbdd28550	-0.102793336
86	0xbd402700	-0.046912193
87	0x3e3fa1dc	0.18714088
88	0xbdf317e3	-0.118697904
89	0xbe1fa581	-0.15590478
90	0x3e227e7f	0.15868567
91	0x3e2e1911	0.1700175
92	0x3d0744a8	0.03302446
93	0x3dd6a097	0.10479849
94	0x3e4fc36b	0.2028939
95	0x3e32c6af	0.17458604
96	0xb9b142f1	-0.00033809946
97	0xbbbc49e2	-0.005746112
98	0x3cda59bc	0.026654117
99	0x3bc703d4	0.0060734544
100	0x3d0f932d	0.035052467
101	0x3e16e024	0.1473394
102	0xbd71311c	-0.058884725
103	0x3ce2f555	0.027704874
104	0x3a94caf5	0.001135199
105	0x3d9e6c79	0.07735533
106	0xbe7b67dd	-0.2455134
107	0xbbdbe169	-0.0067102206
108	0x3d901ddd	0.07036946
109	0xbe0fff5c	-0.14062256
110	0xbde230e6	-0.11044483
111	0x3de9776f	0.11399733
112	0xbda3a3a1	-0.07990194
113	0x3e361d8d	0.1778471
114	0x3e24dbc9	0.16099466
115	0xbdce7e6f	-0.10082709
116	0xbd07a331	-0.033114616
117	0xbdffcf08	-0.1249066
118	0xbdb6a22d	-0.08917651
119	0xbe3ab29e	-0.182322
120	0x3d52e414	0.051487043
121	0x3c826fc0	0.015922427
122	0xbe15349b	-0.14570849
123	0xbde3ec07	-0.11129003
124	0x3e46b97a	0.19406691
125	0x3cf1985d	0.029491598
126	0x3c4db199	0.01255455
127	0xbda85745	-0.0821977
128	0x3c904ef7	0.017615778
129	0x3aa5bf3a	0.0012645491
130	0x3d302606	0.043005012
131	0x3dc54375	0.09632007
132	0xbd72072f	-0.059088882
133	0xbc19aabc	-0.009379085
134	0xbdcf2d69	-0.10116083
135	0x3c85f757	0.016353292
136	0xbe035504	-0.128254
137	0x3d36686b	0.044533174
138	0xbc4f451e	-0.012650756
139	0xbd05e89c	-0.032692537
140	0x3d70a4d8	0.058750957
141	0x3e3d96ad	0.1851451
142	0x3e004aab	0.12528484
143	0xbccbb3fe	-0.0248661
144	0xbd8d7f13	-0.06909003
145	0xbde13ebd	-0.109982945
146	0xbe0bbe4b	-0.1364681
147	0x3bda7af2	0.0066674883
148	0x3dd3fdca	0.10351141
149	0xbc30c5cf	-0.010789349
150	0xbda1fdfa	-0.0790977
151	0x3e48d060	0.19610739
152	0xbe0dde1f	-0.13854264
153	0x3da62376	0.081122324
154	0x3e1eb997	0.15500484
155	0x3e22ae25	0.15886743
156	0xbce2ac0e	-0.027669933
157	0x3dbbaaa0	0.091634035
158	0xbd74b16a	-0.059739508
159	0x3c9d35d8	0.019190714
160	0x3d89db55	0.067312874
161	0xbba13a80	-0.004920304
162	0x3e28610a	0.16443267
163	0x3c5cb685	0.01347125
164	0x3d9854f8	0.074380815
165	0x3e2e09b5	0.1699589
166	0xbda38a07	-0.07985311
167	0xbcecfe7e	-0.028929945
168	0x3db8cc2d	0.090233184
169	0xbdfec369	-0.12439615
170	0x3c9322d1	0.017960938
171	0x3de03ad8	0.109487236
172	0xbc61cb0f	-0.013781323
173	0xbcc7d9a4	-0.024395771
174	0x391b5e11	0.00014816994
175	0xbcd201f5	-0.025635699
176	0x3bb32347	0.005466852
177	0x3d9099a6	0.07060556
178	0xbdc553cc	-0.096351236
179	0xbd3d71b7	-0.046251025
180	0xbd3dbfba	-0.046325423
181	0xbd448dd7	-0.04798683
182	0x3d5802d1	0.05273706
183	0x3c7a8fad	0.015293044
184	0xbd9c7e1c	-0.07641241
185	0xbb17d30d	-0.0023166568
186	0xbd045ae3	-0.03231324
187	0xbd96fa71	-0.07371987
188	0xbcd12b77	-0.025533421
189	0xbd892148	-0.06695801
190	0xbdfd08e7	-0.123552136
191	0x3c2a6959	0.010401093
192	0x3d1716b4	0.036886886
193	0x3c22299e	0.009897618
194	0xbe0266fe	-0.12734601
195	0xbce1078e	-0.027469423
196	0x3d1c244d	0.038120557
197	0xbc0d0e6e	-0.008609397
198	0x3d0923c7	0.033481386
199	0x3d8b455b	0.06800338
200	0x3bdd0818	0.0067453496
201	0xbda8d8e2	-0.08244492
202	0xbd0fc80f	-0.0351029
203	0xbcc56963	-0.024098104
204	0x3d4acc7b	0.049511414
205	0x3d8df77a	0.06931968
206	0x3d0a1953	0.033715557
207	0x3b848d86	0.004045191
208	0xbca593ed	-0.020212138
209	0xbcf14ad2	-0.029454622
210	0xbd83a4b0	-0.06427896
211	0x3d008d3f	0.031384703
212	0xbbb28324	-0.005447762
213	0x3da3db87	0.08000856
214	0x3bdd44b7	0.006752576
215	0xbd07a0c1	-0.03311229
216	0xbd61bb40	-0.055110216
217	0xbcbad134	-0.022804834
218	0xbd97f760	-0.0742023
219	0x3df11e8e	0.11773406
220	0xbd85c058	-0.06530827
221	0x3d93e499	0.07221336
222	0x3e0f5573	0.1399744
223	0xbdbb1395	-0.09134594
224	0x3dd5f44c	0.104469866
225	0x3d01dfc7	0.03170755
226	0xbbff6afb	-0.0077947355
227	0xbdb6ea05	-0.089313544
228	0x3d5e05c7	0.05420473
229	0xbbba1fb0	-0.005680047
230	0x3e189b2e	0.14902946
231	0x3d013864	0.03154792
232	0x3d6dd8ae	0.05806797
233	0xbde27b7b	-0.11058708
234	0x3c36d513	0.011159199
235	0x3c7baf08	0.015361555
236	0xbd658f98	-0.056045145
237	0x3b317497	0.002707755
238	0x3d2c882b	0.042122047
239	0xbd036b87	-0.032084968
240	0x3dab8c75	0.083763994
241	0x3d322578	0.043492764
242	0x3c81a8c3	0.015827542
243	0xbd8916ca	-0.066938
244	0xbdc3d513	-0.09562125
245	0xbda28523	-0.0793555
246	0xbbe220f0	-0.006900899
247	0xbdec379f	-0.115340464
248	0x3d9c7621	0.07639719
249	0x3de8dedc	0.11370632
250	0xbd8988ed	-0.0671557
251	0xbd93f50c	-0.07224473
252	0xbcf42d0b	-0.029806634
253	0x3d7579d4	0.059930637
254	0x3d587863	0.052849185
255	0xbdc9b65c	-0.098492354
